experiments/LunarLander-v2-descrete-hyperpra-tunnig/lr/0.1/model.pt (torch, 114135 bytes, 6 tensors)

net.0.weight f4 [200, 8]
00000000: b6e7 cebf 504a a6c0 582b 13bf f219 2240
00000010: 3e4a 68c0 f7d8 e9bf ec51 4fc0 eb61 dbbf
00000020: 1d30 c03e fd73 57c0 d124 0941 8992 1ac0
00000030: 384f 523e 1870 48c0 f5d0 083d e45f 9bc0
00000040: b7e6 193e 07b6 98c0 3c31 0e3f e116 1640
00000050: 5a9d b53e 7bc0 babf 4d30 61c0 adf7 89bf
00000060: 0bc1 613f 42ae e4bf 6779 0c3e 0c20 c43f
00000070: f946 70bf ecf1 f3be 6ae7 48c0 3ca8 a9bf
00000080: 8757 8240 ec97 26c0 7b66 e5bf bd79 1541
00000090: d02d 7ec0 d494 2bc0 5a9d 5ac0 8d3d 03c1
000000a0: 9c89 ee3f 696c 86c0 b0d5 48bf c951 d53f
000000b0: b6d8 6f3f 64a5 7ebf f4e9 55c0 e80a 0fc0
000000c0: 7ddc 8d3f e0a9 1ec1 f92c afbe 4d01 043f
000000d0: 314f f4bf 7ceb a0bf 6e5b 1e40 d3bf 92c0
000000e0: 906f a4bf 18a3 c1c0 4c41 dc3f f229 3f40
000000f0: beb2 d1be 668a ecbd 8d1a 4dc0 fa22 17c0
00000100: b54c 8740 5549 edc0 ac01 afbe 87fe 603f
00000110: 4a91 aac0 d4f4 0fc0 ba0e e13d 9581 99c0
00000120: 9044 f340 fcc4 27c1 155e 01bf c096 4ebf
00000130: 249e 13be 7e01 103f 4fad 71c0 e7e2 d0c0
00000140: e9f0 3741 0046 d2c1 af58 8d3f 9876 4241
00000150: c233 28c0 8094 2fbe 8467 b4c0 e8f8 9940
00000160: ea27 9641 26f4 9ec1 61cf 9e40 1220 13c1
00000170: f2cf 03c1 18e6 2640 776d d3c0 8ed8 9240
00000180: 33c3 d83f 4b0a 8ec0 39bb 893e 6a5e 0440
00000190: 89da b8bd 540d 66bf 3031 923e 916b f9bf
000001a0: 2cfc 4c40 b446 9fc0 e086 45bd daf5 ff40
000001b0: f22d 3fbd bd33 1dc0 2ae9 96c0 44e6 03c0
000001c0: c6cb e940 5510 efc1 2bd1 1640 71b3 b140
000001d0: 6b50 c0bf e87e 19c0 a04f f7bf 5f0b 96bf
000001e0: dba3 d7bf abb2 02c1 c046 6e3b 3f45 3a3f
000001f0: bf09 5abf c1c2 f0bf b0da a3bf 5965 86bf
00000200: a8ce 15c0 c462 70c0 f44b 99c0 461e 9640
00000210: 81d7 c6bf 8cfe 1bc0 84b0 9fbe 0d05 88c0
00000220: 234d 5e3e 533c cfc0 ae60 5a40 97c6 cc40
00000230: c8cd 9b3f 0a25 3c3f a6ec d0c0 8bc5 3ec0
00000240: 3732 bfc1 b50b e7c1 53d6 84bf 8444 afc1
00000250: 7c59 3c41 c235 9641 06c8 1ec1 ae2c b140
00000260: 0a8f 86bf fff2 c5c0 6381 5bbf 417c 4040
00000270: 6082 9c3f a164 67bd 5759 eabf 4228 edbf
00000280: fb7d f4c0 ee12 bb40 29d4 0a42 df61 2141
00000290: 8e88 0041 ad2d 87c2 c53d 13c2 354e 2641
000002a0: 1653 813f 2fb2 91c0 165b 103f d211 0a40
000002b0: 554a c9be b51a 45bf c054 2bbe 0a16 9bbf
000002c0: fb25 d7bf 8dd2 8d40 11fa 5c41 78df 1f40
000002d0: 0179 86c0 4c93 0542 8cc4 2d40 e3ea 1541
000002e0: 5e2f 1041 f9ab 9fc1 484e eb3e 6282 34c0
000002f0: c234 04c1 df98 fa40 10ff 89c0 38d5 b240
00000300: 272b a040 24b3 ffc0 4489 1940 a8f0 d340
00000310: 2087 f23e f809 adbe 343f a7bf c88b bbc0
00000320: 900c fabe f25c a1c1 a376 333e a284 ad40
00000330: 6709 b73f 3bcc 743f 7428 42c0 d623 b2bf
00000340: 5dbe 003f 4edb bac0 48bf 043d 85e5 2540
00000350: fff4 40c0 17a1 41c0 2d48 9840 0748 82c0
00000360: 0086 f9c0 4ea2 58bf 33a3 d641 72dd bdc1
00000370: 8f57 2dc2 eb6a 2ac2 9124 16c1 980b 52c1
00000380: 60b3 22bf 7828 1bc1 9405 24be 4a49 9740
00000390: 80d3 c5bf c4d4 03c0 79bb f240 8645 52c0
000003a0: 3e2f 10c0 f466 00c1 d4b1 c140 3edf 9cbf
000003b0: 8c1b af40 9f1f 54c1 293a 9f40 b5d0 ffc0
000003c0: 2e5e e83f 0358 17c1 9478 80bf b0e0 d93e
000003d0: d027 6cbf 8094 ecbe 2be9 e53f 8384 95c0
000003e0: 795a 9f40 1111 1cc1 6e77 18c0 c2c4 c63f
000003f0: 1f86 1f40 813c afbf dd72 57c0 d6a5 a6bf
-1.6164463 -5.1965714 -0.5748801 2.5328336 -3.6295314 -1.8269337 -3.239375 -1.7139257
0.37536708 -3.3664544 8.571488 -2.4151938 0.20538032 -3.1318417 0.033402402 -4.8554554
0.15029417 -4.77222 0.55543876 2.3451464 0.35471612 -1.458999 -3.518573 -1.077871
0.88185185 -1.7865679 0.13718186 1.532228 -0.93858296 -0.4764551 -3.1391244 -1.3254466
4.0731845 -2.6030226 -1.79219 9.342221 -3.9715462 -2.6809587 -3.415854 -8.202527
1.8635745 -4.2007337 -0.7845106 1.6665584 0.9369005 -0.99471116 -3.3424044 -2.2350407
1.1082913 -9.916473 -0.34214 0.51564485 -1.9086667 -1.2571864 2.4743304 -4.585916
-1.2846546 -6.051159 1.7207427 2.9869351 -0.40956682 -0.11549835 -3.2047455 -2.3615098
4.2281137 -7.4152017 -0.34180963 0.8788838 -5.3302355 -2.2493181 0.10989137 -4.797068
7.6021194 -10.485592 -0.5053418 -0.80698776 -0.14415795 0.56252277 -3.776203 -6.527698
11.496316 -26.28418 1.1042689 12.153954 -2.628159 -0.17146492 -5.637636 4.811634
18.76949 -19.869213 4.962815 -9.19533 -8.238268 2.6077938 -6.6071124 4.588935
1.693457 -4.4387565 0.26900652 2.0682626 -0.09026057 -0.8986409 0.28553152 -1.9485952
3.2028913 -4.9773808 -0.04822433 7.998761 -0.046674676 -2.4562829 -4.7159624 -2.0609293
7.3061247 -29.882975 2.3565166 5.5531545 -1.5024542 -2.3983707 -1.9321175 -1.172222
-1.684688 -8.16862 0.0036358088 0.7276191 -0.8517112 -1.8809434 -1.2801113 -1.0499679
-2.3407383 -3.7560282 -4.7905216 4.6911955 -1.5534517 -2.4374113 -0.31189358 -4.2506166
0.21709113 -6.476114 3.4121509 6.399242 1.2172174 0.7349402 -6.5288877 -2.980807
-23.899519 -28.880716 -1.0377907 -21.908455 11.771847 18.776249 -9.923834 5.536704
-1.0512402 -6.1859126 -0.85744303 3.0075839 1.2227287 -0.05649245 -1.8308514 -1.8527911
-7.6403785 5.8460608 34.707188 10.086394 8.033339 -67.58921 -36.81032 10.3940935
1.0103481 -4.553001 0.56388986 2.1573377 -0.39314523 -0.76993877 -0.16731548 -1.2116101
-1.6808466 4.431952 13.811051 2.4980145 -4.202271 33.393845 2.7151213 9.369845
9.011564 -19.958971 0.4595816 -2.820458 -8.26288 7.831161 -4.3123856 5.5885277
5.0052676 -7.9906178 2.399003 6.623127 0.47368717 -0.33796668 -1.3066163 -5.860813
-0.4883771 -20.170383 0.17525725 5.4224405 1.4299744 0.9562413 -3.033719 -1.3917186
0.5029047 -5.8392706 0.032408983 2.5921338 -3.0149534 -3.0254571 4.7588105 -4.0712924
-7.7976074 -0.8462266 26.829687 -23.733128 -43.335506 -42.604412 -9.383927 -13.1278305
-0.63554955 -9.69738 -0.16017753 4.7276964 -1.545517 -2.0598612 7.585385 -3.2854934
-2.2528834 -8.025135 6.0529575 -1.2255628 5.4721127 -13.25772 4.9758496 -7.994227
1.8153741 -9.458987 -1.0036798 0.42554235 -0.9224825 -0.46207047 1.7961782 -4.6724257
4.979794 -9.754167 -2.3822894 1.5528796 2.492561 -1.3690339 -3.3663857 -1.3019359

net.0.bias f4 [200]
00000000: a367 b7c0 626f 35c1 4a33 aec0 c1cb e4bf
00000010: 07bf 89c1 ad65 a6c0 7cff 99c0 b755 01c1
00000020: 4cb2 00c1 178e 26c1 625e 4dc1 ec22 42c1
00000030: b4d1 5bc0 6cee 08c1 a5df 50c1 ca97 f6c0
00000040: def8 69c1 fa87 4cc1 b847 00c1 9227 75c0
00000050: fd31 d4c1 798e 47c0 62cd 8a41 699b dac0
00000060: ab60 31c1 675d 69c1 ff0d 3dc1 e286 a440
00000070: f58d 55c1 8544 2dc1 3b65 b1c0 5a72 54c1
00000080: 808d 0dc1 b7c2 49c0 3869 9cc0 8d5f 39c1
00000090: 70b9 eabf 4d78 7bc1 795f e2c0 7f4f 67c1
000000a0: b90e 4cc0 5d74 9cc0 8a04 edc0 9d2f 82c1
000000b0: 9c93 8dc1 634a 20c1 1660 56c1 32a1 81c1
000000c0: 7fd9 8ec1 fc53 64c1 6e06 f7c0 1966 4cc1
000000d0: 0b24 49c0 47ef 89c0 fd83 81c1 718c 81c1
000000e0: 4bf5 e1c0 ec05 4ec1 d6a1 39c1 28f3 6fc1
000000f0: ea2c 28c1 ce5c 5dbe 5a9d 89c1 f094 88c1
00000100: 7da6 6dc1 1c30 1bc1 29c8 50c1 c806 ffc0
00000110: 5463 3ec1 4ad1 49c1 f54b 11c1 ca46 73c1
00000120: 803f b6c0 02d5 0bc1 10f4 17c1 180a 86c1
00000130: 395c 4cc1 ee03 47c1 b9ce 51c0 842a 0dc1
00000140: f884 61c1 90da 7fc1 f661 b8c1 f956 46c1
00000150: cd29 92c1 d8fb cec1 ddda 0bc1 df92 f6c0
00000160: 167a 8ac1 03dd b0c0 244a c7c1 f474 e2c0
00000170: 1abc f9c0 359b e7c0 c9e8 d7c0 245a 46c1
00000180: 07ea 13c1 3379 75c0 a213 0ec1 b83d 32c1
00000190: ae73 08c1 c4f9 3cc1 0792 87c1 796d 77c1
000001a0: 1529 bdc0 6d5d 4dc1 6ae5 53c1 958b a7c1
000001b0: a165 bec0 c525 aac0 a904 68c1 7dcb 3ec1
000001c0: 4401 9e41 94d4 70c1 989d 6dc1 1335 74c1
000001d0: 7e7e 25c1 c6d4 10c1 2650 0cc1 006f 4bc1
000001e0: fb74 56c0 4980 07c1 5e68 c3c0 4401 abc0
000001f0: 8d90 adc0 bc1a 0bc0 db5a 4ac1 755a a2c0
00000200: bd30 70c1 5292 e1c0 8649 6ac1 6b86 73c1
00000210: de9e 1ac1 bdc7 bec0 eb94 1ec1 d336 42c1
00000220: d704 e6c0 24ad 4fc1 5fc1 22c1 e640 adc1
00000230: c7af 0cc1 d10b aec1 3c57 27c1 0c8f b2c1
00000240: d53e 51c0 bbc5 2ec1 dbf5 3ac1 754e 44c1
00000250: 3e19 22c1 618b 5bc1 21d6 06c1 cf3b 42c1
00000260: 1b1f 45c1 2ecd c4c0 14bc cbc1 3d17 28c1
00000270: 49a9 85c1 2b75 acc0 6802 33c1 766e ebc0
00000280: e646 12c1 720b b5c1 f772 a7c0 1843 a6c0
00000290: bdcc efc0 28ac 2bc0 58ec 38c1 59e0 9bc1
000002a0: 22bd 79c1 dea7 9ec1 7f25 88c0 7aac 6dc1
000002b0: a248 8ec1 a5c4 48c1 a486 99c1 b36c 9fc0
000002c0: cde5 c0c0 3bd4 30c1 17fc 6dc1 238c 31c1
000002d0: e036 50c1 7f49 5ac1 f806 d4bf a623 c6c0
000002e0: 0cae 56c1 8f1a 39c1 26b0 2941 93aa 18c1
000002f0: 92bb 25c1 e4b5 31c1 ae03 90c0 47cf 29c1
00000300: f8fb a9c1 ea10 75c1 bdf2 33c1 a9cb f9c0
00000310: 1ce1 6cc1 eb2c f6c0 3c18 c1c0 0fbe 5fc0
-5.731401 -11.339693 -5.443761 -1.7874681 -17.218275 -5.1999116 -4.812437 -8.083426
-8.0435295 -10.40969 -12.835543 -12.133526 -3.4346743 -8.558208 -13.054601 -7.706029
-14.623259 -12.783197 -8.017509 -3.8305402 -26.524408 -3.1180708 17.350285 -6.831471
-11.086101 -14.585303 -11.815917 5.141465 -13.3471575 -10.829228 -5.543607 -13.277918
-8.847046 -3.1525095 -4.887844 -11.585828 -1.8337841 -15.71687 -7.0741544 -14.456908
-3.1883986 -4.8892045 -7.406804 -16.273249 -17.697075 -10.018161 -13.3984585 -16.203709
-17.8562 -14.270504 -7.719535 -12.774926 -3.142825 -4.3104587 -16.189447 -16.193575
-7.061193 -12.876446 -11.602011 -14.996864 -10.510965 -0.21617433 -17.201832 -17.072723
-14.853147 -9.699245 -13.048867 -7.969578 -11.89925 -12.613596 -9.081044 -15.2047825
-5.6952515 -8.739504 -9.497086 -16.754929 -12.772515 -12.438459 -3.2782423 -8.82288
-14.094963 -15.99086 -23.047832 -12.396234 -18.27041 -25.87297 -8.740933 -7.7054286
-17.309612 -5.526979 -24.911201 -7.0767765 -7.8042116 -7.237696 -6.747166 -12.397007
-9.244636 -3.8355224 -8.879793 -11.140068 -8.528242 -11.810978 -16.946302 -15.464227
-5.911265 -12.835309 -13.243509 -20.943155 -5.949906 -5.3171105 -14.501138 -11.92468
19.750618 -15.051899 -14.850975 -15.262958 -10.343382 -9.051947 -8.7695675 -12.7146
-3.35089 -8.46882 -6.10649 -5.3439045 -5.4238954 -2.1735067 -12.6471815 -5.073542
-15.011899 -7.0491114 -14.64295 -15.220317 -9.663786 -5.961882 -9.911357 -12.138385
-7.188091 -12.979771 -10.17221 -21.656689 -8.792914 -21.75577 -10.458797 -22.319847
-3.26946 -10.923274 -11.685023 -12.269155 -10.131163 -13.721528 -8.427278 -12.139602
-12.320094 -6.1500463 -25.466835 -10.505673 -16.707659 -5.3893027 -11.188087 -7.357234
-9.142309 -22.630589 -5.232784 -5.19569 -7.4937425 -2.6823826 -11.557701 -19.484545
-15.608675 -19.831966 -4.254577 -14.854609 -17.785465 -12.548009 -19.190742 -4.982019
-6.028052 -11.051814 -14.874045 -11.096713 -13.013397 -13.642943 -1.6564627 -6.1918516
-13.417492 -11.568984 10.605505 -9.541644 -10.358294 -11.106907 -4.500449 -10.613105
-21.248032 -15.316629 -11.246762 -7.806111 -14.804958 -7.692983 -6.0342083 -3.4959753

net.2.weight f4 [128, 200]
00000000: 1877 5abd 2aef 1dbf cf48 77bd 79a3 2639
00000010: e34e 0cbd 288e 0cbf 2bfb fabe 7ea4 10bf
00000020: 8522 18bf 7f7d e2bf d73c 2bc0 5cec 13bf
00000030: 2ee9 04bf a5a5 86bd 67d8 023d 8b32 1ebd
00000040: c55f 1dbf 3239 febe 379e 8e3d f3af 2abb
00000050: 66a1 36c1 631d 17bf 583c 04bf a45b 963c
00000060: 593b 05bf 43f5 89bc ad69 0fbf 5791 763d
00000070: 2717 0dc0 22e1 11bf 1099 f9be eae7 c03b
00000080: 9206 2b3d ae3e 01bf e36c eec0 cc75 143f
00000090: b760 f0bf 851e 783c ef02 25c0 11cd 5dbc
000000a0: 3006 06bf bdd5 d53f 5b7d 1cbf 5af2 66c0
000000b0: ca1c 11bf 16dc 58bc e07a 2bbf 6602 febe
000000c0: 8469 03bf 62be 073d e732 86bd c798 1dbf
000000d0: a794 443d d6ed 8fbd 000e 6e3d 0638 2b3d
000000e0: 8774 07bf b0d9 fcbc 4c81 04bf 3228 0abf
000000f0: d31d 10bf f3eb 11bd 8e34 fbbe f87e fabe
00000100: d323 05bf e350 42bd bbf4 1bbf 429c fabe
00000110: 311e 19bf a068 0dbf ec6b 1abf c67a 1ebf
00000120: 8917 09bf 0074 e5bc 4108 32c0 6fc9 07bf
00000130: 42ab f8be df83 1ebf 038e 03bf 95d1 12bf
00000140: 9d24 08bf 2d96 dfbc 6c6c 523c 5158 1fbf
00000150: b32f 733d aab8 0dbf be43 2b3d e0c0 12bf
00000160: 55f4 08bf c95e 14bf db9c 0fbf f15c 403d
00000170: 8583 fdbe 2cd6 5b3d 778d 1ebf 14e8 73bb
00000180: b5e0 1240 abbb ca3f 756a 843d e19f 10bf
00000190: 1d84 503d ed46 213d cef8 4d3d 2bab ca3c
000001a0: ad69 263d b09d 573d 44af 15bf 6596 ad3c
000001b0: ee44 0d40 1ed3 a93c 8aaf fdbe 1c3f 05bf
000001c0: 8c77 1bbf 8d78 83bc edcd dabc 59ee 0fbf
000001d0: b010 6e3c a365 803d 8a4d 7ebd 2559 02bf
000001e0: 9a2a 15bf dccb 01bf efc4 3cbd 84a6 ffbe
000001f0: 0b62 0abf 97e7 1fbf 8542 12bf 869a f53c
00000200: f267 11bf a853 0cbf 362b 8ebd bd43 1abd
00000210: 2e9c 72bd 99a0 34bd 7ba8 02bf 6700 01bf
00000220: 354b 923c d744 03bf ae4d eabb d287 d6bc
00000230: d977 18bf 8e16 12bf ddbb d6bc 9fd5 7fbd
00000240: 3258 15bf b1ac 15bf a6df 38bb fe96 14bf
00000250: 5696 1ebf 15fa 073d f0b2 1ebf f951 803c
00000260: 9e07 13bf 9856 13bf 1c28 0b3f ac8b f1c0
00000270: f107 0fbf a73d 553d 9028 13bf 1c00 833d
00000280: dc9b 09bf a3da 0cbf 1b83 173d f684 833b
00000290: 4d17 06bf c967 1dbf 92cf 873d 905d 953c
000002a0: 4287 0cbf 5a5c 19bf 6666 1cbf 33d3 08bd
000002b0: 5619 08bf be22 0f3d 4299 37bd a241 e9bc
000002c0: 567b 13bf 776b 02bf 63f6 0bbf c154 fabe
000002d0: 7ba2 feba 71cf 4b3d c1ba 1cbf 521e 83c0
000002e0: 4b64 20bf 989e 663d 54ca 0bc0 daad 1fbf
000002f0: 7852 333c 9990 10bf 32b9 07bf 64c3 0bbf
00000300: 5191 b1c0 6935 1ebf daf9 293d 4ed8 8e3d
00000310: 09a7 51bc f568 1abf cbb7 01bf 63a4 09bf
00000320: 83cb e8bc e454 12bf 1a6f 10bf ca22 823c
00000330: bd92 09bf a5b9 13bf f082 23bf d6da 0dbf
00000340: 97c2 11bf 1103 6fc0 e0ec 26bf 0c6b 0dbf
00000350: 4d43 1bbf f948 8c3d 3b4f 90bd fd66 303d
00000360: 2962 0cbf 9218 28bf b198 0dbf c985 b53b
00000370: a3c0 ea3c f0e1 29bf 79ab 34c0 2c7e dbbb
00000380: cc4b 2abf 6318 17bf 98a3 0abf b900 90bd
00000390: ecaa 86bd b9ff 21bf 5409 0cbf 24d6 573d
000003a0: 38fd 21bf 4666 26bf 7f0b 4ec0 74a8 2bbf
000003b0: 1f57 16c0 a7cf 1e3d a001 5a3d a3ed d53b
000003c0: 4fc7 0ebf 6967 1fbf a47f 29bf 5092 16bf
000003d0: 929d 11bf f861 87bd 1552 1ebf dccb 0abf
000003e0: 5421 16bf 8b8c fe3c 992f 4cba f8b0 123f
000003f0: f1cd 1cbd 28e5 0bbf 16aa 18bd d097 24bd
-0.053336233 -0.6169306 -0.06037217 0.00015891892 -0.03425492 -0.54904413 -0.4901975 -0.56500995
-0.5942767 -1.7694548 -2.6755884 -0.5778253 -0.51918304 -0.06574563 0.03194466 -0.03862242
-0.6147426 -0.49653012 0.06963771 -0.0026044815 -11.414404 -0.59029216 -0.5165458 0.018354245
-0.5204368 -0.016840583 -0.56020623 0.0601972 -2.204538 -0.5698415 -0.4874959 0.0058870213
0.041754313 -0.50486267 -7.450792 0.57992244 -1.8779515 0.015143995 -2.578304 -0.013537661
-0.5235319 1.6705853 -0.6112878 -3.608542 -0.56684554 -0.013236066 -0.6698437 -0.49611205
-0.5133288 0.033140548 -0.065526776 -0.61561245 0.04799333 -0.070277855 0.05811882 0.041801475
-0.5291218 -0.03086552 -0.5175979 -0.53967583 -0.5629551 -0.03562541 -0.49063534 -0.48924994
-0.5200779 -0.04744042 -0.60920304 -0.4894734 -0.59811693 -0.5523777 -0.60320926 -0.6190609
-0.53551537 -0.028009415 -2.7817538 -0.5304174 -0.4856816 -0.6191997 -0.5138857 -0.57351047
-0.5318087 -0.02729329 0.012843233 -0.62244135 0.05937166 -0.553599 0.04181265 -0.57325554
-0.5349782 -0.5795713 -0.5609872 0.046963636 -0.49514404 0.053671047 -0.6193461 -0.0037217187
2.294965 1.5838522 0.064656176 -0.56493956 0.050907243 0.03937428 0.050286107 0.024739822
0.040628124 0.052640617 -0.5847056 0.021189878 2.2073321 0.020730551 -0.49547988 -0.5204942
-0.6072929 -0.016048694 -0.026709521 -0.56223065 0.014530346 0.06269386 -0.062085666 -0.50917274
-0.5826813 -0.5070169 -0.046086248 -0.4993173 -0.5405585 -0.62462753 -0.5713275 0.02998091
-0.5679923 -0.5481515 -0.069418356 -0.037662257 -0.059230976 -0.04409847 -0.5103833 -0.5039124
0.017858127 -0.51276916 -0.0071503734 -0.026187811 -0.59557873 -0.57065666 -0.026212627 -0.062459584
-0.583377 -0.5846663 -0.0028209477 -0.58042896 -0.61948144 0.03319748 -0.61991787 0.015664088
-0.574335 -0.57554007 0.5435808 -7.5483 -0.5587149 0.05206075 -0.5748377 0.06396505
-0.5375345 -0.55021113 0.036990266 0.004013653 -0.52379304 -0.6148649 0.06631388 0.01823309
-0.5489389 -0.5990654 -0.6109375 -0.03340454 -0.5316366 0.034945242 -0.044823892 -0.028473679
-0.5761007 -0.5094523 -0.5467283 -0.48892787 -0.0019427085 0.04975838 -0.61222464 -4.097451
-0.62653035 0.05630359 -2.1842241 -0.6237465 0.010944955 -0.5647064 -0.5301696 -0.5459502
-5.548989 -0.6180025 0.041498043 0.069748506 -0.012796172 -0.603164 -0.5067107 -0.5376646
-0.028417354 -0.5716078 -0.5641953 0.01588573 -0.5373953 -0.57705146 -0.6387167 -0.5541204
-0.56937546 -3.7345622 -0.6520519 -0.55241466 -0.6064957 0.06849856 -0.07046362 0.043066967
-0.5483728 -0.6566249 -0.55311114 0.00553963 0.02865631 -0.6636038 -2.8229659 -0.0066983905
-0.66521907 -0.59021586 -0.54155874 -0.07031388 -0.065755695 -0.63280827 -0.54701734 0.052694455
-0.63277006 -0.64999807 -3.2194517 -0.67053914 -2.3490674 0.03877225 0.053224206 0.0065285726
-0.5577287 -0.62267166 -0.6621039 -0.58817005 -0.5688106 -0.06610483 -0.61844 -0.54217315
-0.58644605 0.031072875 -0.0007789075 0.5730128 -0.03828234 -0.5464654 -0.03727158 -0.040183842

net.2.bias f4 [128]
00000000: 8206 b6c0 9d77 56c0 28bd 76c0 66fe 46c0
00000010: f6c3 a5c0 c48a c3c0 4bbb 50c0 147d 5fc0
00000020: eaee 15c1 6997 57c0 b0b0 4ec0 f4b9 a2c0
00000030: be68 06c1 82d2 0bc1 cf3b 35c1 419b 97c0
00000040: 2876 b2c0 3afd 56c0 6bbb b7c0 80c6 00c0
00000050: c4dc 6242 0f1d bfc0 54d9 7642 c93f 43c0
00000060: 6d7f 34c1 bc86 12c1 0636 b0c0 d99e b2c0
00000070: 5b27 453f ad14 96c0 c35b c8c0 c681 adc0
00000080: 98b2 07c1 bbd4 a1c1 6dd1 1dc1 ad04 61c1
00000090: 6f24 87c0 8b64 ab42 fef2 efc0 10ed 54c1
000000a0: e4e4 bcc0 a366 a83e b569 62c0 2166 4dc1
000000b0: 7060 53c1 c677 c9c0 856e b6c0 9c3a bac0
000000c0: 4140 98c0 7d42 b3c0 a505 abc0 9098 0dc1
000000d0: 1d7f 1fc1 e4c3 acc0 7108 89c0 d7f8 b8c0
000000e0: 67e1 c6c0 1aec 1cc1 e4a9 dcc0 18cf 1bc1
000000f0: 2a9b d1c0 55db 1ac0 a25f 8fc0 9806 edc0
00000100: 4d37 2ec1 b638 1bc1 a867 48c1 1acf debe
00000110: 19fc fbc0 9467 10c1 8057 83c0 fe88 b8c0
00000120: 651e f1c0 a11c 15c1 0839 eebf b2cc d1c0
00000130: fd04 31c1 7b6e 23c0 245e b8c0 9e86 28c1
00000140: 8037 9cc0 1a76 42c1 0298 fcc0 5ea8 12c1
00000150: 331d 0dc1 bf4d f4c0 a3c1 1dc1 ef9c ccc0
00000160: 6dd9 c3c0 c139 29c1 91fa 10c1 8cc9 4dc1
00000170: 66dd bbc0 4d64 08c1 3a2b a1c0 bda1 dec0
00000180: fe14 21c0 828b c4c0 ec87 16c1 13a6 e5c0
00000190: b01c e3c0 9756 02c1 3586 16c1 6a09 59c0
000001a0: 4b5b 35c0 7034 5ec0 b6f9 f1c0 1b07 c4c0
000001b0: 188d 07c1 9b5a 75c0 3eef c7c0 ec3c d7c0
000001c0: 5e40 c9c0 d1b0 32c1 e296 b2c0 ee0b 61c1
000001d0: f074 08c1 052f 54c0 b2a9 88c0 6ea8 8ac0
000001e0: cc30 39c0 8189 ebc0 cd9f 12c1 fe5d 36c1
000001f0: 3e78 3e41 5f87 a3c0 b4af 8dc0 5965 ffc0
-5.6882944 -3.3510506 -3.8552952 -3.1092772 -5.180171 -6.110689 -3.2614315 -3.4920092
-9.370829 -3.3686163 -3.2295341 -5.0851994 -8.400572 -8.7388935 -11.327102 -4.737702
-5.5769234 -3.3592057 -5.741628 -2.0121155 56.71559 -5.972297 61.712234 -3.0507681
-11.28111 -9.157894 -5.5065947 -5.5818906 0.77013177 -4.690024 -6.2612014 -5.4220915
-8.481102 -20.228872 -9.863629 -14.063642 -4.2231975 85.69637 -7.498412 -13.307877
-5.9029408 0.32890806 -3.5377018 -12.837434 -13.211044 -6.295871 -5.700991 -5.8196545
-4.7578435 -5.6018662 -5.344439 -8.849747 -9.9685335 -5.3989124 -4.2822804 -5.780376
-6.215015 -9.807642 -6.8957386 -9.73806 -6.550191 -2.419637 -4.480424 -7.407055
-10.888501 -9.701345 -12.525307 -0.4351738 -7.8745236 -9.025288 -4.104431 -5.7667227
-7.5349603 -9.3194895 -1.8611155 -6.556237 -11.063718 -2.5536182 -5.761492 -10.532866
-4.881775 -12.153833 -7.8935556 -9.166105 -8.819629 -7.6344905 -9.859775 -6.394157
-6.120291 -10.5766 -9.061173 -12.861706 -5.870776 -8.5244875 -5.0365267 -6.9572434
-2.5169063 -6.14203 -9.408184 -7.1765227 -7.097252 -8.14614 -9.407765 -3.3911996
-2.833697 -3.4719505 -7.5617323 -6.1258674 -8.471947 -3.833655 -6.2479544 -6.7261868
-6.2891073 -11.168168 -5.5809183 -14.0654125 -8.528549 -3.3153698 -4.2707148 -4.3330603
-2.8936033 -7.360535 -9.164014 -11.397947 11.904356 -5.110275 -4.427698 -7.9811215

net.4.weight f4 [4, 128]
00000000: b750 1c3f 0b0d 6dc0 c582 673f 3946 0a40
00000010: 6c9b 2240 3636 0540 f63e 0ec0 1a43 9441
00000020: 3999 52be c976 0d40 0f2c 2840 5ff1 2340
00000030: 6051 c03e fffc 0b3d acac b33f c948 fc3f
00000040: 0ba9 d1be 65c7 2640 a4c5 233f 7f15 44c0
00000050: 09e1 7941 0331 02bf 1433 2941 065d e4bf
00000060: 4c17 d63f 0169 dfbf 6d27 2940 7898 963d
00000070: f33d 1841 7908 6dc0 a8d8 06c0 07f3 0ac0
00000080: 1b63 c840 d9c2 6dbf 06b6 a73f b063 6a40
00000090: d914 0b40 6d32 0341 c5d5 b140 383e 8dbe
000000a0: f003 26c0 282c d6c0 15c5 2540 fc16 3cc0
000000b0: 7852 1c40 af27 053f 4931 913e 6f87 d83e
000000c0: 37e7 2540 dc3f 9c3f 321a 2640 504a f6c0
000000d0: 2e70 203f 74db 7fbf 84cd 1e40 aa7b 79bd
000000e0: fe3f c53f 8a1f 05c0 7381 a43f a6b6 873f
000000f0: 829a 2bc0 12bd 10bf fc76 5640 42e9 32c0
00000100: 8472 5bbf b942 e5bf 9ff1 ce3f a729 4640
00000110: 19c1 9cc0 adef 04bc 471b 35c0 0fd0 91be
00000120: 507e 2440 0213 fabf 14f1 19bf b846 8abf
00000130: a503 57bf a39b 1fbf c744 2cc0 24a8 b73d
00000140: 5f98 4f40 5922 90bf cbe4 1dbf 7d88 973c
00000150: f741 08c0 db44 8fbf 6327 f5bf c805 2dc0
00000160: f821 7a40 2bf9 50c0 d84e 07bf 71f0 443f
00000170: 4fa4 a03f bdb3 163f fbdc 79c0 d643 2bc0
00000180: 6497 c53f 2164 a9c0 d32f 45c0 0b0e e43f
00000190: 1237 6d3f 9742 29bf 8182 333f 7ee3 0b40
000001a0: ac06 1fbf 7e35 1f40 e457 ed3e 6960 3a3f
000001b0: 00f0 47bf b45e 2abf e294 4bc0 05f2 0fbf
000001c0: 04aa 853f 763e 953f cd5d a83f 9237 013f
000001d0: 210e c83e 48bb b3c0 96c4 6abf 5390 bc3f
000001e0: 3c92 0bc0 835a 94bf 5d6d b0bf 4a3a bd3e
000001f0: f9e9 2541 6613 20bf 0963 7a40 3864 a140
00000200: ac19 4f3e 8311 2440 9235 44be c567 0740
00000210: 6e1e e13f c834 a0bf 8b48 033f 2ad6 9541
00000220: eb76 1c3e 9b7e 15bf 1f12 983d 57d4 f63f
00000230: 63a5 bb3e 2e18 f2bf e31f f83f a862 f5bf
00000240: df89 2ec0 ed63 2740 3594 1d3f d630 2040
00000250: 0d36 7641 6411 103f 190e 2341 17b0 8dbf
00000260: ba45 e5be a93d 98bf 7b23 0640 18de d03f
00000270: c28b 0841 bc6e 2740 44f5 2d3e 094a 0e40
00000280: aa2c 1a40 cf58 0c40 9c9e 993f bab6 0640
00000290: b54f 73c0 23bd 0341 3f78 f73f 01d7 c1bf
000002a0: 6387 d63f e9a4 ac3d 29bf 57c0 1aac 0a40
000002b0: 3834 1cc0 f882 083f 8d7d f13f 4fb9 b7bf
000002c0: 5cc9 09bf 1136 bfbf 316a 11c0 57d0 aabf
000002d0: 154f 13be b010 2f40 d917 a93e b90c 29c0
000002e0: 8e83 a1bf b074 93bf 6a6a a13f d93a 81bf
000002f0: fee9 cbbd cabd afbf 2696 96bf 17cc 953e
00000300: dc46 07c0 897b c9be 51fd c83f 513f b1c0
00000310: 4e86 0040 67cb 953f df70 aa40 4db2 2bc0
00000320: eab8 3240 cdf2 4abf ea32 73be 5522 4b40
00000330: d336 6b40 3302 25bf 532c c0bf c6a8 fd3f
00000340: cd3f f53f 0745 0ec0 bb94 2940 d9d9 be3f
00000350: bdde 9fbf ba1a 20c0 452a d1be 6d9c 15c0
00000360: 0ac9 5c3d 1c62 0740 c5c3 2cbf 9961 873f
00000370: e4b8 813f 91f0 e63d 7c2b 6fbf 1df5 1cc0
00000380: 79e6 0940 354b ccbf 3425 7ebf 6839 1bbf
00000390: 57ac 003f 4488 dd3e 2fde 8abf 4f21 2840
000003a0: 8922 1a3f 24fe 2940 8838 853f 818e 0840
000003b0: e1c8 d4bf 63db 4640 18c2 10bf 8dee 023e
000003c0: 935c 253f 226a 383f 7eb3 b43f 7ecf b23e
000003d0: 652f c43e cfb8 cdbf a2b4 243f daf1 0340
000003e0: a497 1ebd 9028 5b40 f8b9 3cbf 3e2d e13e
000003f0: f595 9e40 f869 b540 04b1 1f40 171f eb3f
0.6106066 -3.703921 0.90433913 2.160536 2.5407362 2.0814338 -2.2225928 18.532764
-0.20566262 2.210375 2.6276891 2.5616071 0.37562084 0.034176823 1.403707 1.9709712
-0.40949282 2.60592 0.6397345 -3.063812 15.61744 -0.50856036 10.57497 -1.7840889
1.672586 -1.745392 2.6430314 0.073533 9.515124 -3.7036421 -2.1069736 -2.1710832
6.262098 -0.9287544 1.3102424 3.6623344 2.1731474 8.199811 5.557345 -0.27586532
-2.5939903 -6.69289 2.590154 -2.9389029 2.4425335 0.5201368 0.28357914 0.42290828
2.5922372 1.2206988 2.5953488 -7.6965714 0.6267117 -0.99944234 2.4812937 -0.06090895
1.5410154 -2.08005 1.2852005 1.0602615 -2.6813054 -0.565385 3.3510122 -2.795487
-0.8572161 -1.7910987 1.6167487 3.0962923 -4.8985715 -0.008113784 -2.8297899 -0.2847905
2.5702095 -1.9537051 -0.6013348 -1.0802832 -0.83989936 -0.6234686 -2.6916978 0.08967617
3.243675 -1.1260482 -0.61677235 0.0184977 -2.1290262 -1.1192888 -1.9152645 -2.7034779
3.9083233 -3.265208 -0.5285468 0.76929384 1.2550143 0.5886801 -3.9041126 -2.6760154
1.5436826 -5.293473 -3.081044 1.7816786 0.92662156 -0.66117233 0.7012101 2.18576
-0.62119555 2.48764 0.46356118 0.7280336 -0.78100586 -0.66550756 -3.180962 -0.5622867
1.044251 1.1659687 1.3153626 0.5047542 0.3907328 -5.6166115 -0.91706216 1.4731544
-2.1808004 -1.1590122 -1.3783375 0.36958534 10.369622 -0.625296 3.9122946 5.0434837
0.20224637 2.5635688 -0.1916106 2.1157086 1.7587411 -1.2516108 0.51282567 18.729572
0.15279739 -0.5839631 0.07425331 1.9283551 0.36649618 -1.8913629 1.9384731 -1.9170732
-2.727165 2.615474 0.6155427 2.5029807 15.388196 0.56276536 10.190942 -1.1069363
-0.4477976 -1.1893817 2.0959156 1.6317778 8.534121 2.6161337 0.16988093 2.2232687
2.408976 2.1929204 1.2001529 2.1049027 -3.80174 8.233676 1.9333571 -1.5143739
1.6760067 0.084298916 -3.3710425 2.1667542 -2.4406872 0.5332484 1.886644 -1.4353427
-0.53822875 -1.4938375 -2.2721064 -1.334483 -0.14385636 2.7353935 0.33026007 -2.6414015
-1.2618272 -1.1519985 1.26106 -1.0096084 -0.0995674 -1.3729794 -1.1764572 0.2925727
-2.1137 -0.39352062 1.5702306 -5.538979 2.0081973 1.1702698 5.326278 -2.6827576
2.7925363 -0.79276735 -0.23749891 3.1739705 3.6752212 -0.6445648 -1.5013527 1.981713
1.9160095 -2.222963 2.6497028 1.4910232 -1.2489849 -2.5016313 -0.40852562 -2.3376725
0.053902663 2.1153631 -0.6748622 1.057666 1.0134549 0.11276353 -0.93425727 -2.4524605
2.154692 -1.5960451 -0.9927552 -0.6063447 0.5026297 0.43268025 -1.0849055 2.627033
0.60208946 2.6561365 1.0407877 2.1336977 -1.6623803 3.1071403 -0.56546164 0.12786312
0.6459438 0.72036946 1.4117277 0.3492393 0.3831741 -1.6072024 0.64338124 2.0616364
-0.038718835 3.4243507 -0.73721266 0.4397983 4.9558053 5.6691856 2.4951792 1.8368863

net.4.bias f4 [4]
00000000: a45c e342 b219 0d43 852e 0c43 1773 2543
113.68094 141.10037 140.18172 165.44957
