agent.pt (torch, 134159 bytes, 8 tensors)

net.0.weight f4 [200, 8]
00000000: 15b0 c8bd 2f7e a4bc 0718 61bd c01d b9bd
00000010: 0ac7 f4bc e785 4a3e a6ff c13d c208 c13e
00000020: 6d7e 6dbe 9226 ffbd 2f0e 7abe 1e8a 303e
00000030: 3dbd 1cbf cab6 8bbe 0acb 9bbd b803 a13d
00000040: 6cb5 20bd 333e 02bb c048 bebe 6e12 8e3d
00000050: 7f03 00bb 22df 8d3e 659e 3c3c c629 b03e
00000060: 9769 84be f768 2fbe 1bf6 4a3e 3d57 2ebe
00000070: a4b5 adbe 41de 68be 6d0a 5bbd 1a38 c63e
00000080: ccf4 d6be 3b39 bfbe b196 c6be f380 e6bd
00000090: d274 f3be 2fc5 713e eaa3 7b3e 33e5 823e
000000a0: 2401 34be dda0 c3be 24bf 05be 6ec8 54be
000000b0: 3522 dfbe 1ef7 8fbe ffe8 a03e ae18 973e
000000c0: 0fd9 b7be dbb6 0dbe 0748 393d 1d0d 5a3e
000000d0: 9162 19be 3397 853d 4a63 a13e c20a 09be
000000e0: 4ef5 f9bd 1319 eabe 4fe5 b9be 53db 42bc
000000f0: 88d7 ea3d ba7a 553c 23d0 58be 9da4 1c3e
00000100: cd48 733e a5a4 a53d ff4b d53d a478 a33d
00000110: 1301 793e 433f bb3e 1c8d e2be 41e6 28bd
00000120: c924 6ebd 0e46 f93d 3f8b 083e c6db e53e
00000130: e819 43be 7381 dfbe 5599 b83d 9813 53be
00000140: a601 04bf 55ea 053e 7718 be3d 09c0 34be
00000150: 20a2 49bd 1625 55bd 77e0 93bc 4eee 00be
00000160: 4920 3bbe 81ae 49be 9866 07be 290c 9a3e
00000170: e38c f4bc 4fbe ecbd 4d17 d1be 7c3c a7bc
00000180: 81b3 1c3e 7445 a03e a65c 86be 2f13 e3be
00000190: 65ad 143e 9800 f53c cffc a6be da91 cfbe
000001a0: ae48 08bf 5bb7 73be 6624 87be e6cb 53bd
000001b0: 1a84 aabe 1d3c 8ebd 1e59 84bd aac5 923e
000001c0: 63db 83be e032 f13e 02f5 9b3e 1d5b 05bf
000001d0: 76f5 aabe 91ee dfbd 9c2a 8d3e 09c5 7e3e
000001e0: c18d 94bd 4505 f9bd 4ab3 b1be 86e6 923e
000001f0: b6c0 24bf 14c8 adbe caf8 16bd bf97 14be
00000200: 6fdb a2be 5b7c 5bbe 2b7f 7fbe 1fc2 923e
00000210: 8868 03bf a0cf aabd b1d9 a23e d193 c03c
00000220: e794 2bbe af93 a4bd d178 fe3c e6ef 953e
00000230: bba4 803e e71d ae3e 66ea d83e d41b 6d3d
00000240: ef36 d9be b888 81bd 275d a03e fe75 3dbd
00000250: 71a0 49be ed39 b1be 4668 a9be 24c8 98be
00000260: 8c62 8dbe e58f 55bc 3c49 ad3c 2b99 44be
00000270: c071 03bd 1ce2 cbbe ed3e 02bc 2231 9fbd
00000280: 681b 81be 00e2 83be 67d5 cfbe e0c9 1fbe
00000290: edb1 82be 7d75 c6bd a2ab bdbd 3df9 453e
000002a0: cf1c ccbe 77eb d0bd 7864 ec3e 4b89 1cbe
000002b0: 9ca5 fc3e 5810 a23d 678e 9dbe 7f1b da3e
000002c0: 9cc9 1ebe f134 b3be 0bde d73e 0497 38be
000002d0: 86ea 49bd c7e3 f13d ee61 b33e f243 453e
000002e0: f08a c8bc 822e b4bd 0939 83be 5233 f13d
000002f0: 2228 04bf 565e e23d fc67 bb3e 19b8 a53e
00000300: c2d2 e6be 42ab 63be d4b1 53be add2 163d
00000310: b18b febe b2dc 3d3d 7865 11be 5de3 6e3d
00000320: 428b 38be f7dd 093c 5636 d1be 1e47 98bc
00000330: a6be e6be 920d 113e b9e4 36bd 851d c13e
00000340: 3c68 7cbd 0303 30be dbb6 4bbe 5ec4 193e
00000350: d260 49be 3009 c8bd d452 8b3d d913 e63d
00000360: 3a4e eabe 0acb cebe 18d2 ea3d b24c cbbd
00000370: 70c7 8abe 2f25 7b3e f766 453e da65 913d
00000380: 71e0 f7be 6403 e3bc 17d2 e4be 8eef b83d
00000390: 7f3f c2be 2a11 c7bd 234d 8f3d eb21 b53e
000003a0: d9c6 0dbe a3cf 103e 0f6c 143d 3c73 623b
000003b0: 66b3 6e3d a44f 8bbe e1e9 aebd b83d 273e
000003c0: 9a19 9abd 7ca1 6b3d 9483 92be 66b2 3f3e
000003d0: cf0f b8bd 61eb 02bf 9b52 a43e 8f9a 8ebe
000003e0: 41e5 1cbd 3e9f bbbd d270 6bbe 5366 7d3d
000003f0: b56c 9a3e f7e7 efbd 658d c4be 4eb4 98be
-0.0979921 -0.0200797 -0.054954555 -0.090388775 -0.029880065 0.19777642 0.09472589 0.37701994
-0.23192759 -0.124585286 -0.24419473 0.17240188 -0.61226255 -0.27287894 -0.07607086 0.078620374
-0.039235517 -0.00198735 -0.3716488 0.06937109 -0.0019533334 0.277093 0.011512374 0.3440687
-0.2586181 -0.17129885 0.19820444 -0.17025466 -0.33927643 -0.22741033 -0.05347674 0.38714677
-0.4198364 -0.3734835 -0.38786843 -0.11255064 -0.47550064 0.23610376 0.24574247 0.2556549
-0.1757856 -0.38208666 -0.13061196 -0.20779583 -0.43580785 -0.28118223 0.31427762 0.29511017
-0.3590779 -0.13839285 0.045234706 0.21294065 -0.14979006 0.065229796 0.31521064 -0.1338301
-0.12204991 -0.45722255 -0.3630776 -0.011893111 0.114668906 0.013029749 -0.21173148 0.1529717
0.2375824 0.08088044 0.10414886 0.07981995 0.24316816 0.36571702 -0.44248283 -0.041235212
-0.05814055 0.12171565 0.13334368 0.44894236 -0.19052851 -0.4365345 0.09013621 -0.20612943
-0.51565015 0.13077672 0.0928201 -0.1765138 -0.04922688 -0.05203732 -0.01805137 -0.12590906
-0.18274035 -0.19695474 -0.1322273 0.30087402 -0.029852336 -0.11559736 -0.4083809 -0.020414583
0.1530285 0.3130299 -0.2624256 -0.44350573 0.1451927 0.02990751 -0.32614753 -0.40540963
-0.532359 -0.23800413 -0.26394957 -0.051708125 -0.3330391 -0.069450594 -0.0646231 0.2866643
-0.25753316 0.47109127 0.30460364 -0.5209215 -0.33390397 -0.10934175 0.2757157 0.2487985
-0.072536 -0.12159208 -0.347071 0.286915 -0.64356554 -0.3394171 -0.036858357 -0.14511012
-0.3180804 -0.21434157 -0.24950854 0.28663728 -0.5133138 -0.083403826 0.3180671 0.023507984
-0.1675602 -0.08035981 0.03106347 0.2928459 0.2512568 0.3400719 0.42366332 0.057887867
-0.42424724 -0.06324905 0.3132107 -0.046255104 -0.1969011 -0.34614506 -0.33087367 -0.29840195
-0.27614248 -0.013034795 0.021153085 -0.19199054 -0.032090902 -0.39820945 -0.007949573 -0.07773043
-0.25216222 -0.25758362 -0.405925 -0.15604353 -0.25526372 -0.09690378 -0.09261252 0.19333358
-0.3986573 -0.10201161 0.46170402 -0.15286748 0.493451 0.079132736 -0.30772707 0.42599103
-0.15506595 -0.3500133 0.42161593 -0.18026358 -0.049295925 0.11811023 0.35035652 0.192642
-0.024480313 -0.08797933 -0.25629452 0.11777367 -0.5162374 0.110531494 0.3660277 0.32367018
-0.4508267 -0.22233298 -0.20673305 0.03682201 -0.4971595 0.04635305 -0.14198864 0.0583223
-0.18021873 0.008414737 -0.40861768 -0.018588599 -0.45067328 0.14165333 -0.04465172 0.37717834
-0.061622843 -0.17188649 -0.19893973 0.15016314 -0.1966584 -0.097673774 0.068029076 0.112342544
-0.45762807 -0.40389282 0.114658535 -0.09926738 -0.27105284 0.24525903 0.19277559 0.07099505
-0.48413423 -0.027711578 -0.44691536 0.090300664 -0.3793907 -0.09720071 0.069971345 0.3537744
-0.13845386 0.14141707 0.036235865 0.0034553548 0.058276556 -0.27209198 -0.085407026 0.16332138
-0.07524414 0.05752705 -0.2861601 0.18720397 -0.0898739 -0.5114041 0.32094273 -0.27852294
-0.03830457 -0.091612324 -0.22992256 0.061865162 0.30161062 -0.11714166 -0.38389125 -0.29825062

net.0.bias f4 [200]
00000000: 3f1d a5bd e5f8 fc3e b3ba c43e 2394 143e
00000010: e04f 5a3e 86c0 213e 040b 943e 9984 5c3e
00000020: eb77 e6bd 5d82 8a3e da04 623e 345b ae3e
00000030: 7595 16bd c7c6 943e bef0 51bc c302 a63e
00000040: 13df c73e 11e3 273e fb0d 42be 9a4f 543e
00000050: d3dd 413e 1a2f ebbd f4d5 0cbe 8643 053f
00000060: 454a f03e b5a9 c93e 47b4 de3e 6d2a a53e
00000070: 2549 c23e 4a42 dc3e ef53 ef3d 3578 c0bd
00000080: 8b3d e13e c338 a23e 3aef bebd 8497 67be
00000090: 73f9 d13e 2c6a f23e a42f f83e 5a9f 7e3e
000000a0: 1515 dd3e 50c6 2abe c749 1cbe 8f95 31be
000000b0: b9c5 f03e 8205 533e 771f 01be 89e3 9d3e
000000c0: 6b6b a4bc 225b 20be 798a a93e 5ef3 ba3e
000000d0: 7bf2 85be ff63 cbbd 3d03 ba3e 5039 e93e
000000e0: 97e2 753e 26dd 2ebd 8783 b83e e536 823e
000000f0: e6d1 51be 4eeb 22be 5ef2 873e ef86 d43e
00000100: 6d7b ce3d 4317 bc3e e456 63be db93 0b3f
00000110: 8ae0 053f 129e 863e 46fd b53e d5d1 a43e
00000120: 54a3 55be adf6 903e 7fc4 913e abc9 e63d
00000130: 8cba 073f 381b 683e 601f 8abe d5d4 0e3e
00000140: 0eba 6bbe 3ca5 fa3e 159c 8c3d 91b8 99bd
00000150: 4a9c 243e 5598 8ebe 81c8 553e 3e26 c63e
00000160: 156f 92be d83e bb3e 1943 e63e 1162 483e
00000170: 4510 b13e 41a7 33bd ba95 ee3e e317 0a3f
00000180: 56c3 863e 19f1 043f 9ad9 e1be 292a 7f3e
00000190: a847 873e 96a7 9dbe 5e01 bb3e 8128 b33d
000001a0: 7eda d83d a52a 30be 5fe9 b63e 9013 18be
000001b0: 66e4 0f3e da4e bb3e 4cfd e73e ae0c 903e
000001c0: 68a7 843d edd6 82bd 21a7 c43e 0157 8e3e
000001d0: fefb fb3e 81bf ae3e c3ca f13e f0dd 91be
000001e0: a6b8 f33e f763 7ebc 1e91 093e 8911 333e
000001f0: 8242 bebd aaae b23e 10d5 023f b100 6fbe
00000200: 92b7 9e3e 36fc 85be a932 7f3e f2b5 f93e
00000210: 330c da3e 5238 f93e 7872 c03e 1687 283e
00000220: 4979 9e3e 483f 083d b5bf 023f 3d66 cd3e
00000230: 8d37 52be 2b63 013f cfa8 8c3e 47db 3c3e
00000240: 0771 e73d 80e8 d23d e857 613e 48c0 b7bd
00000250: ac62 a8be ab16 6dbd 3571 da3d bd80 103f
00000260: 1839 e33e 3286 cabd b7f8 383e a3d1 92bd
00000270: a034 b9bd d4d2 093e ba96 a93d 1c1f c43e
00000280: f163 7abd 3d56 be3e 4381 cdbd 9ccd bc3d
00000290: 6d8d f73e 0dbd 3bbd 877a 703e dd9f 083f
000002a0: dc6a 9f3e 7aa2 d2bd a630 01be d8a2 dabc
000002b0: b768 4bbc b4cb b23e e862 f93d 1ef4 fd3e
000002c0: 0c1e bfbd 3697 c8bd 478e b33e 7d4f f83e
000002d0: 9c0f 073f 469a 7e3e b930 a33e cd43 23be
000002e0: fcdd c83e c733 f5bd 8150 f03d 43ea 9abe
000002f0: 649e 75be 0eec c43e b9a9 a73e f821 f83e
00000300: 2424 f33e 699b c43e fc44 de3e c4df 70bd
00000310: 4a69 ca3e e48c c13e d04a a23e a19a 3f3e
-0.08062219 0.4940864 0.3842369 0.14509635 0.21319532 0.15796098 0.28914654 0.21534957
-0.11253341 0.27052584 0.22072163 0.34053957 -0.036763627 0.29057905 -0.012813745 0.32423982
0.3903738 0.16395213 -0.18950646 0.2073349 0.18932275 -0.11483593 -0.13753492 0.5205616
0.46931663 0.3938729 0.43496916 0.3225893 0.3794643 0.43019325 0.11685931 -0.09397928
0.43992266 0.3168393 -0.093229726 -0.22616392 0.41010627 0.47346628 0.48473847 0.24865475
0.43180147 -0.16677213 -0.15262519 -0.17342208 0.4702585 0.2060757 -0.12609659 0.30837658
-0.020070752 -0.15659764 0.3311346 0.365138 -0.2616156 -0.09931182 0.36330596 0.45551538
0.24012218 -0.042691372 0.36037847 0.25432506 -0.20490226 -0.15910074 0.265521 0.41509196
0.10082135 0.36736497 -0.22201115 0.54522485 0.52295744 0.26292473 0.35544795 0.3219134
-0.20863086 0.283132 0.28470227 0.11268934 0.5301902 0.22666633 -0.26977062 0.13948376
-0.23020193 0.4895419 0.06865708 -0.075059064 0.16075245 -0.27850595 0.20877267 0.3870105
-0.28600374 0.36571383 0.44973066 0.1956866 0.34582725 -0.043860678 0.46598607 0.539427
0.26320904 0.51930386 -0.4411133 0.24918427 0.26421857 -0.3079192 0.3652448 0.0874796
0.10588549 -0.17203768 0.35724923 -0.14851213 0.14051971 0.36583596 0.45310438 0.28134674
0.06477243 -0.0638865 0.3840876 0.27800754 0.49215692 0.3413048 0.47225007 -0.28489637
0.47601813 -0.015526763 0.13434264 0.17487158 -0.09290029 0.34898883 0.5110636 -0.23340108
0.30999428 -0.26168984 0.24921669 0.48771626 0.42587432 0.4867578 0.37587333 0.16457781
0.30951908 0.033263475 0.5107377 0.40117064 -0.20529003 0.50541943 0.2747254 0.18443023
0.11300855 0.10298252 0.2200619 -0.089722216 -0.3288778 -0.057882946 0.10666124 0.5644644
0.44379497 -0.09888877 0.18063627 -0.07168891 -0.090432405 0.13459331 0.08280702 0.38304985
-0.061130468 0.3717517 -0.1003442 0.092189044 0.48350087 -0.04583459 0.2348424 0.5336893
0.31136215 -0.10284896 -0.12616214 -0.026688978 -0.012415103 0.34921038 0.12177068 0.4960031
-0.09331903 -0.09794466 0.35069486 0.48498145 0.52758193 0.24863538 0.3187311 -0.15943833
0.3923186 -0.11972766 0.11734105 -0.30256853 -0.23986202 0.38461345 0.32746676 0.48463416
0.4748851 0.3839982 0.43412006 -0.05880715 0.39533454 0.37802804 0.31697702 0.1871133

net.2.weight f4 [128, 200]
00000000: 2928 a53d 53b4 293e a725 aa3d 0978 fb3d
00000010: d51f 7b3d 0634 093e 68b8 cd3d b495 2a3e
00000020: 521f 0ebe efc0 803e 7fa6 343e c36a af3e
00000030: 51fd 3dbe 14c3 473e 505a 8fbe 1fd9 793e
00000040: 23c0 463e 0da5 f43d 6632 403d ec4d 163e
00000050: 0462 013e 5326 413e c400 a23d 132a cd3d
00000060: 5a27 d43d 3c0c f13d c7a3 343e 59d8 493e
00000070: e584 8c3d e4b2 403e a850 9d3d 21ab febd
00000080: 9cf2 a23d 1401 9b3e d756 5fbe 5c7a 26be
00000090: f191 783e 841b 703e bbcc 4c3e b5ca 413e
000000a0: 1d8f d43d 30a0 873d c30c 623d 1aeb 36be
000000b0: f2c5 023e dee7 b33d 4a80 883c 2863 0c3e
000000c0: a30f 01be df80 a33d c3ea 103e 29a2 833e
000000d0: 3cf5 293d b279 ec3d 7d4e 5d3e 4752 503e
000000e0: 0fa1 4f3e 2ec5 49be 53b8 f33d a3de 563e
000000f0: ab91 f13c f54e 163e 712a 413e b541 5c3e
00000100: 8cf3 7a3d 4e9d bf3d d9f8 16bd 60d9 483e
00000110: 6aaa 943e d10d 1d3e 3efe 6d3e 5b20 e53d
00000120: 5c0a bebc df01 963e 3b00 033e e56d b53d
00000130: 7984 0c3e 9cf3 613e 82a6 b0bc 2f79 683e
00000140: c255 233e 0045 2a3e e978 893d fb60 82be
00000150: fdc5 093e c1d3 fcbd fb14 843e d9e5 0e3e
00000160: 43ef 86bd 9781 ac3d c447 203e c4fa 543e
00000170: 1a91 4c3e d9d1 59be f6c7 0a3e ab57 f53d
00000180: 47b0 f83d 8a05 063e 1f82 113e 81b7 b53e
00000190: 5de9 213e c608 cd3d cb97 e53d 66db aa3d
000001a0: b8dd 123e f1dd 053d 04ae 243e 2f5a 1c3b
000001b0: 27b2 cd3c 3c53 6a3e be9d 1f3e 7ea6 b83d
000001c0: 07a8 0e3e 3453 183d 2a4f 263e 0847 7c3e
000001d0: 89ed fc3d 82f6 393e 906c 6b3e 86e6 5a3d
000001e0: afd6 f53d 80d6 79be de38 303e 212f 2f3e
000001f0: 0f0b 143c 8f8e a53e 560f 143e 0c91 ca3c
00000200: ab2d 023e 0fc4 76bd 3b0c 2f3d 2dfc fc3d
00000210: 2503 023e 446b 3c3e 08a9 323e e1f7 f93d
00000220: ee83 673e 7b28 da3d 5a7d 133e 758a 263e
00000230: c251 00be 3a14 3a3e 7604 873e 6562 133e
00000240: 8583 b43d ff42 1e3e 0d54 453e 2377 473e
00000250: 499f 823d 3592 88be 6998 a43d f9b3 873e
00000260: 0d09 653e c20a 5f3d 1b6f 043e fb27 7bbe
00000270: 2dc4 f53d 24cd c93d eab5 7b3d 7b2a 313e
00000280: be76 113e 57af 903e c452 c63c dd67 0a3e
00000290: 1f63 e23d 9035 8fbe 4173 503e a769 d43d
000002a0: fb84 a13d fb88 44ba 5e35 d6bc 58bf 59be
000002b0: 9f84 29be 7bf1 8e3d cf6b b23d 20d2 f83d
000002c0: 2d65 de3d 0eda 473d 38cb 463e ac31 f43d
000002d0: 053a e43d f662 1b3e d61f 9d3e 65a4 ee3c
000002e0: f164 203e 3fa0 f33c 87cc 233e de34 703c
000002f0: b0ca b4bd 13bd 7b3e df7c 713e 4afd 0b3e
00000300: bb60 313e ac9b 113e 0785 773e 64c2 3bbe
00000310: fb7a 403e dc30 323e 03cd dd3d 4732 3c3e
00000320: b86a dd3d fbb6 3d3e c5e9 1c3e c5c6 183e
00000330: d7de 293e 066d 9a3d a8db 153e a84e 713e
00000340: c0cc 06be 40b2 8d3e 407a 463e 61b6 b13e
00000350: 2815 95be ee0f 323e 6425 82be 628a 693e
00000360: e87f 0f3e 66eb 143e 9c1f 02bd 44e2 303e
00000370: 3023 d13d 73f8 0b3e 8baa 973d c45f d03d
00000380: 1faa 4b3e 3193 153e 95fd 5d3e ddc5 ef3d
00000390: f26f f63d 6374 563e 97a5 013e 30cd 2c3c
000003a0: 4eb9 d53d 5c20 9f3e 5d7a 82be 2680 9abd
000003b0: 5b06 6c3e c60d 113e 74a2 803e 0c97 0b3e
000003c0: 1d0a 023e 09b3 ca3d 6bd1 e03d 8e94 dabd
000003d0: 5fa7 603e 8ed4 2f3e 6924 073d 1284 c13d
000003e0: 0eb6 7fbe 6a68 cd3d 5702 a03d 071e a53e
000003f0: 9018 dc3b 599d be3d afe2 2d3e ca52 2e3e
0.080643006 0.16572694 0.08307963 0.12278754 0.061309654 0.13398752 0.10044938 0.1665867
-0.13879135 0.25147197 0.17641638 0.3426114 -0.18553664 0.1950801 -0.2799859 0.24399231
0.19409232 0.119455434 0.046923064 0.14678162 0.12635046 0.18862276 0.07910302 0.10017791
0.10359068 0.11769912 0.17640601 0.19711436 0.06861285 0.18818241 0.076813996 -0.12434984
0.0795643 0.3027426 -0.2181047 -0.16257614 0.24274422 0.23447996 0.19999973 0.18924983
0.10378859 0.0662235 0.05518795 -0.17863122 0.12770823 0.087844595 0.016662735 0.137097
-0.12603621 0.079835646 0.14152054 0.25709656 0.04149364 0.11546649 0.21611972 0.20343886
0.20276283 -0.19704124 0.119003914 0.20983367 0.029488405 0.14678557 0.18863846 0.2150944
0.06126742 0.09356175 -0.036858413 0.19614172 0.29036266 0.15337302 0.23241517 0.11187812
-0.0231983 0.29298303 0.12793057 0.08858851 0.1372241 0.22065586 -0.021563772 0.22702478
0.15950683 0.16627884 0.06712515 -0.25464615 0.13454433 -0.12345076 0.25797257 0.13954867
-0.06588604 0.08423155 0.15652376 0.20798784 0.19977227 -0.21271457 0.13552842 0.11979612
0.12142997 0.1308805 0.14209794 0.35491565 0.15811677 0.10011439 0.11210593 0.08342628
0.14342391 0.032682363 0.16082007 0.0023857465 0.025109364 0.22883314 0.15587518 0.09016131
0.13931285 0.037188724 0.16241136 0.24636471 0.12349994 0.18160442 0.22990632 0.0534425
0.12003838 -0.24398232 0.17209193 0.17107822 0.00903584 0.32335326 0.14458975 0.024727367
0.12712733 -0.06024557 0.042736273 0.12352786 0.12696512 0.18400294 0.17447293 0.12205482
0.22608921 0.10652252 0.14403287 0.16263755 -0.12531188 0.18171778 0.2637059 0.14393003
0.08814148 0.15455244 0.19270344 0.19479041 0.063780375 -0.26674047 0.080368824 0.26504496
0.22366734 0.05445362 0.12933008 -0.2452697 0.12000308 0.098535806 0.061452784 0.17301361
0.14205453 0.28258774 0.024209388 0.13516183 0.11054062 -0.27970552 0.20356466 0.10371714
0.07886692 -0.00074972183 -0.026148494 -0.21264398 -0.16554497 0.069796525 0.08711969 0.12149453
0.108591415 0.048791938 0.1941346 0.11923537 0.11143879 0.1517447 0.3068835 0.029131124
0.15663506 0.029739497 0.1599599 0.014661042 -0.08827722 0.24583845 0.23582791 0.13670841
0.17322056 0.1421954 0.2417184 -0.18335873 0.18796913 0.17401451 0.108301185 0.18378554
0.108113706 0.18526833 0.15323551 0.14919575 0.16588913 0.07540326 0.14634573 0.23565161
-0.13164043 0.27675056 0.19382572 0.34709457 -0.29117703 0.17388889 -0.25419152 0.22806695
0.14013636 0.14542922 -0.031768426 0.17273813 0.102117896 0.13668995 0.07405575 0.10174516
0.19889115 0.1460693 0.21678765 0.11707661 0.120330706 0.20942836 0.12660824 0.010546967
0.10435735 0.31079376 -0.2548398 -0.075439736 0.230493 0.1416541 0.25123942 0.13631839
0.1269917 0.098974295 0.10977443 -0.10672866 0.21938847 0.17170927 0.032993708 0.094490185
-0.24971792 0.10029681 0.07812946 0.32249472 0.0067167953 0.093073554 0.16981004 0.17023769

net.2.bias f4 [128]
00000000: c2eb 423e da4e e63d 3468 543e 9a43 3abc
00000010: a6df fabc 4745 19be c7e8 08bd b270 603e
00000020: 7c1f 5ebc 84a4 fb3d debb 003e b296 cbbd
00000030: 70a5 443e 4c4c 173e a423 31be 5d82 553e
00000040: 2ad4 7dbc c78d 51bd 828e e9bc ca70 9ebd
00000050: f569 0a3e 6af6 543d e680 73bd 8ac8 82bd
00000060: 6a35 1b3e 5358 5b3e 899a 013e c39c dabd
00000070: 249e 213e f09b 3b3d c6c0 07bd aba0 85bd
00000080: 2b70 2cbc 9d31 323e 8f40 5b3e 1d51 133e
00000090: acf2 3bbc 0d55 583e 5132 103e f336 47bb
000000a0: 97ce 65bd d0ab 1c3e 12db 4b3e 2881 183e
000000b0: a9c6 f83d cc23 5e3e 53a7 333e 6352 283e
000000c0: a4df 043e fb11 193e cf8d 2cbd 79f0 003e
000000d0: b50d b33d 3003 3c3e ebef c53d a452 ce3d
000000e0: 2b56 b23d dfa0 223d a378 293d b1bb 063e
000000f0: 4f0e 783d efac f03d e2e0 503e 8c88 b5bc
00000100: 9ae7 0e3e 66be e03d 29f4 103e 6c36 fdbc
00000110: 9ee0 4fbc dc9c 54bd d934 15bd 37f6 623e
00000120: 745c 513d ece8 abbd 5e66 a93c c773 123d
00000130: 6464 143e 9323 9bba 0db5 263e 54f9 4a3e
00000140: 25e5 5a3e cf3c 1dbd aeb0 373e a469 59bc
00000150: 3312 153e 44a0 ec3c ffeb de3d 85eb 203e
00000160: 78a4 d33d 7d4e 813e 7daf 6b3e f6e9 ff3d
00000170: cc70 89bd 6d5c 323e 2b4a 1b3e 2cd9 22bd
00000180: 1cb3 d7ba f0e9 203e e460 d73d 200c de3d
00000190: faa7 663e 6dcd ee3d a8ff b83d 20ce 0d3e
000001a0: 43ce 313d 9cc2 71be ec99 3d3e 8547 3c3e
000001b0: 26dd 233e 1826 4d3e 6002 263e 5ecc ba3d
000001c0: 162a 1b3e 255b 163e 4c31 0cbd 3b1d 2b3d
000001d0: f9a7 4e3e 1fbb 303e 800f 4dbd 18d7 163d
000001e0: 8593 0d3e cc31 aebd b44b 273e d9b2 193e
000001f0: e25f 1e3e 0983 223e 2b25 64bd 4cc8 ff3c
0.19035247 0.112455085 0.20742875 -0.0113686565 -0.030624222 -0.14967833 -0.03342512 0.2191799
-0.013557311 0.12287238 0.12571666 -0.09940852 0.19203734 0.14775199 -0.17298752 0.20850511
-0.015492478 -0.0511606 -0.028510336 -0.077363566 0.13516982 0.05199281 -0.0594491 -0.06385906
0.15157095 0.21420412 0.12656607 -0.10674431 0.15782982 0.04580301 -0.033142827 -0.065247856
-0.01052479 0.17401738 0.21411346 0.14386411 -0.011471432 0.21126194 0.14081694 -0.0030397743
-0.056105223 0.15299916 0.19907787 0.14893019 0.121472664 0.21693343 0.17544298 0.16437678
0.12975937 0.14948265 -0.042127427 0.12591733 0.08742849 0.18360591 0.09664901 0.10074356
0.087078415 0.0397042 0.041374814 0.13157536 0.06056052 0.117517345 0.20398286 -0.022159837
0.13955536 0.109738156 0.1415564 -0.03090974 -0.01268783 -0.051907405 -0.036427353 0.22164236
0.05111356 -0.08394036 0.020678695 0.035754945 0.14491421 -0.0011836163 0.16280003 0.19821674
0.21376474 -0.03838807 0.17938492 -0.013269816 0.14557724 0.028885014 0.108848564 0.15714844
0.10334104 0.25255194 0.23016162 0.124957964 -0.067109674 0.1741807 0.15165012 -0.039757892
-0.0016456577 0.1571424 0.10516527 0.108421564 0.22525015 0.116602756 0.090331376 0.13848162
0.043409597 -0.23609394 0.18515748 0.18386658 0.1600233 0.20034063 0.16211843 0.09121011
0.15152773 0.14683206 -0.0342267 0.041775923 0.20181264 0.17258881 -0.05006361 0.036826223
0.13825805 -0.08505592 0.16337472 0.15009631 0.15466264 0.15870298 -0.05569951 0.031223439

last1.weight f4 [21, 128]
00000000: 2be4 02be 2c3b 7cbd 3e77 27be 2108 c9bd
00000010: a4d7 3dbd 595c 4bbd 484f eabc 213f 3cbe
00000020: 1288 7dbd e8e9 fdbd ae7f 31be ba9d a63c
00000030: b448 8cbd f53a 6fbe 7752 30bd 44e3 a7bd
00000040: a12c 8fbd c5e4 a2bb 4124 a83d cdbd 8dbd
00000050: 9de3 1bbd 0f49 3e3c b9ca 82bc 8dad 07bd
00000060: 9951 62be 091d 41be 6c1b 08be 4419 1cbd
00000070: 3e5f 1cbe 22a0 2a3d f05e abbd 8cad b83d
00000080: 0aa5 633d 74ff e3bd 5098 a6bd 5792 8bbd
00000090: 87b9 833d a334 9abd 66a1 4fbe 9f4e 1a3d
000000a0: 70cb 3ebd e2da 0dbe e799 4bbe d78e 1bbe
000000b0: c6f2 1bbe 1cc4 2bbe 76f4 c6bd 7a57 2dbe
000000c0: 3869 19be 3419 d0bd 03b9 8cbd 8910 f3bd
000000d0: b3c8 1cbe 2e63 39be c6f2 e4bd 1642 ddbd
000000e0: d49a d1bd e668 89bc 3dc5 073e 99a7 e5bd
000000f0: 1320 efbd 084f 19be c264 debd 44e3 6cbd
00000100: a5b3 35be 8af3 e3bd 5acc afbd 5896 363d
00000110: e386 1c3d c438 193d b57b 803d 5393 00be
00000120: d0dc 343d 7b10 47bd 71d7 6bb9 cea1 923c
00000130: 17d0 6b3e 6102 28bd 2582 03be 7d02 63be
00000140: 0359 0fbe 540e 1a3d 51e6 07be 6527 45bd
00000150: 833c cdbd 5fa8 813d 2cff 293e 73b4 3ebe
00000160: 36da 34be 8f33 9cbd 6b92 82bd 8b40 10be
00000170: 4d7b 5bbd 6815 48be 88a7 67be b0fe 4dbc
00000180: b8cf 8ebc f98e 46be 9c3e 48be 4f34 5abe
00000190: f224 cabd 4c0a 50be 9d6e 03be 3992 70bd
000001a0: 282b 403d 8b78 99bc c64d 94bd ad2f e1bd
000001b0: cdaf 60be a0b3 dfbd 85a1 2dbe f6ab 583d
000001c0: 679f 04be 0a81 e2bd 629e d3bc 2288 4abc
000001d0: 7e79 71be 1640 a2bd 5a55 053d 27cb 273d
000001e0: 77e0 b7bd f5c3 a43d 2f6c 36be b6b7 74be
000001f0: 91b5 d9bd 4156 61be 3224 553d ee1d 7dbd
00000200: 4d39 58be 22c0 4cbe 6c45 74be a90b 763d
00000210: d99a cc3e 1370 953e 76b5 1c3b 4a4e f9bd
00000220: 9ae0 6d3d f3c2 00be dea1 33be 21ac 3fbd
00000230: 38ec 2fbe eaf6 4dbe 7fe7 973e fc66 17be
00000240: 5b01 c8bd 5cbe f43c fc5d a63c b4fd 16bd
00000250: c61f 8ebd d148 1ebd 77ce 78bd 5b92 36bd
00000260: cffa 33be 317b efbd 8305 46be 4684 af3e
00000270: ce89 79be af0a b1bd 9c2f 133c 609b 99bc
00000280: f07d 473d 9f4d aabd de33 23be d482 b2bd
00000290: fb6b 233b b2f3 54be 4716 65be 1950 e73b
000002a0: e280 70bd 06f6 3bbe cdae 58be b6dc c0bd
000002b0: 921c 3ebe 65cf e9bd 9ad6 2fbe e5bc 78be
000002c0: 01c9 2dbe 2737 d3bd 3025 8f3d 3d07 3fbe
000002d0: 3767 44be 0e86 01be 3f4e a7bd eebe 48be
000002e0: 5b7a e9bd 76fa 3dbd 9480 423e 79e6 7ebe
000002f0: df19 04bd 9af0 dcbd 758a 12be 2058 373c
00000300: cfa7 5fbe 824b 2abe 0f9a 08be 5b60 02bd
00000310: 7e32 133d 9b08 48bd b99b edba bc4b 7ebe
00000320: 365c 2dbc 8e32 3d3d 0701 7b3d d7b5 693d
00000330: ed82 3a3e 3770 093d 7942 31be af14 11be
00000340: e860 2cbe 123c 563d ca12 b5bd f793 903d
00000350: 6866 f9bd 9684 383c 49ee ad3d 3b07 7ebe
00000360: 1403 cbbd 612b 1a3e 5462 77be 9ec3 aabd
00000370: 81c5 24bd 080f 83be 50c9 1fbe 085a 04bc
00000380: c77d 9e3c 257c 46be 0acc 67be 2bca 08be
00000390: cba3 d8bd 427f b3bd fd48 78be 7813 21be
000003a0: 0b2f 3bbd 3825 a43e b7c3 2bbe e240 08be
000003b0: 4d44 02be 8876 64be 41af d2bd 2e15 063e
000003c0: 33b9 27be 4021 6cbe b82b 31bc 50a4 3bbc
000003d0: 7a3f 33be 0a31 69be b187 f93c c9c2 1a3d
000003e0: da22 ddbd f660 413d e0b2 febd 260f afbd
000003f0: 81ad 45be 5c30 2ebe a62d 43bd 3459 55bd
-0.12782352 -0.06157987 -0.16354081 -0.098160036 -0.04634823 -0.049648616 -0.028602257 -0.18383457
-0.061897345 -0.1239813 -0.17333862 0.020338882 -0.068498045 -0.23362334 -0.043047395 -0.08197644
-0.06990934 -0.004971119 0.0821004 -0.06920967 -0.038058866 0.011614098 -0.015965806 -0.033124495
-0.2210144 -0.18858732 -0.1329171 -0.038110033 -0.15270707 0.04165662 -0.08367717 0.090174764
0.055577315 -0.11132708 -0.0813452 -0.068150215 0.06431871 -0.07529571 -0.20276412 0.037672635
-0.046580732 -0.13853028 -0.19882928 -0.15191208 -0.1522933 -0.16774029 -0.09714596 -0.16927901
-0.14981544 -0.10161057 -0.06871226 -0.11868388 -0.15310936 -0.1810424 -0.11179118 -0.108036205
-0.10234609 -0.016773652 0.13258834 -0.11213607 -0.116760395 -0.14971554 -0.10859062 -0.057833925
-0.1774431 -0.11130436 -0.08583899 0.044576973 0.038214575 0.03740765 0.06273595 -0.125562
0.044155896 -0.0485997 -0.00022491605 0.01789942 0.23028599 -0.041017894 -0.12842615 -0.22168918
-0.13998799 0.03761132 -0.13271452 -0.048133273 -0.10021307 0.06330942 0.16601247 -0.18623523
-0.17661366 -0.076270215 -0.06375583 -0.14087121 -0.053584386 -0.19539416 -0.22622502 -0.012572929
-0.017433032 -0.19390477 -0.19555134 -0.21309017 -0.09870328 -0.20316428 -0.12835164 -0.0587332
0.046916157 -0.018734237 -0.072413966 -0.109954216 -0.21942063 -0.109229326 -0.16956146 0.05289837
-0.12951432 -0.110597685 -0.025832359 -0.012361558 -0.23581502 -0.0792238 0.0325521 0.040965226
-0.0897836 0.08045188 -0.17814706 -0.23898205 -0.10630334 -0.2200556 0.05203647 -0.06179612
-0.21115609 -0.19995168 -0.23854607 0.060069714 0.3996189 0.29187068 0.002391187 -0.121731356
0.058075525 -0.12574367 -0.17542216 -0.046795014 -0.17179954 -0.20113721 0.29668805 -0.14785379
-0.097658835 0.029875927 0.020308487 -0.036863044 -0.06939654 -0.038643662 -0.060743775 -0.04457317
-0.17576145 -0.11693419 -0.1933804 0.34280604 -0.24368975 -0.08644616 0.008983519 -0.018750846
0.048704088 -0.08315586 -0.15937755 -0.0871636 0.0024936188 -0.20796087 -0.2237178 0.007059109
-0.058716662 -0.18355569 -0.21160431 -0.09417097 -0.18565586 -0.114165105 -0.17171708 -0.24290808
-0.16971208 -0.10313254 0.06989515 -0.18655105 -0.19179998 -0.12648794 -0.08169221 -0.19604084
-0.114002906 -0.046381436 0.18994361 -0.24892606 -0.032251235 -0.107880786 -0.1431063 0.011190444
-0.21841358 -0.16630366 -0.13340019 -0.031830173 0.035936825 -0.04883633 -0.0018128074 -0.24833578
-0.010581067 0.04619079 0.061280277 0.05705818 0.18214007 0.033554282 -0.17310514 -0.14168046
-0.16833842 0.05230338 -0.08841474 0.07059472 -0.121777356 0.01126208 0.08492715 -0.24807446
-0.099126965 0.1505561 -0.24158603 -0.08338092 -0.040227417 -0.25597405 -0.15604138 -0.008078106
0.019347085 -0.19383295 -0.22636428 -0.13358371 -0.10578116 -0.08764507 -0.24246593 -0.15730083
-0.04569916 0.32059646 -0.16773878 -0.13306001 -0.12721367 -0.22310841 -0.10287333 0.13094017
-0.16379242 -0.23059559 -0.010813646 -0.011452749 -0.17504683 -0.22772613 0.03046021 0.037783418
-0.10797663 0.04721161 -0.124364614 -0.08547811 -0.19304468 -0.17010635 -0.047650956 -0.052087024

last1.bias f4 [21]
00000000: ee8c 2abe 7c40 23be 8ca1 27be fc3d 0cbd
00000010: b7bc a6bd c5bc 23be ae4d b2bd 9003 91bd
00000020: b422 dabd 12d8 cbbd 7e02 1cbd 3a63 38bd
00000030: beaa 19be 1e13 84bd 7582 2ebe 6c83 e0bc
00000040: c100 f7bd 262c c1bc 11fa 8dbd 95e4 07bd
00000050: 1d89 2dbe
-0.16655323 -0.15942568 -0.16370219 -0.0342388 -0.08141463 -0.15989979 -0.087062225 -0.070807576
-0.1065115 -0.099533215 -0.038088314 -0.045016505 -0.15006539 -0.06448959 -0.17041953 -0.027406417
-0.12060691 -0.023580622 -0.06932462 -0.033176977 -0.16946836

last2.weight f4 [21, 128]
00000000: db4f 54be b016 37be c8bd 37be a9ed 083e
00000010: 74c8 783e 2dc4 863e 2d6b 803d 9632 3cbe
00000020: 00d1 243b 1195 5bbe d077 6dbe 11d2 893d
00000030: d76f 27be 565f e9bd 661e 963e 0c44 b1bd
00000040: da8b e9ba 139f 863d 010e fc3d a0b1 313c
00000050: d8f5 adbd 2e46 19bd f6ad 7c3d 8079 79bc
00000060: 0d22 28be 025c 19be 416c 63be 1eb7 943e
00000070: d16e 61be 2603 9ebd 5a34 07bc f098 02bd
00000080: 28b7 1fbd 0077 24be a1de 6ebd c9c9 2fbe
00000090: 2211 7e3d 8747 e3bd aa75 b6bd 9d45 773d
000000a0: a2fe 603d 395e 51be 7cc6 3abe 7027 6fbe
000000b0: ea0f 26be b3ac 35be 7497 ecbd 2165 6abe
000000c0: 5806 50be 4663 05be 2f6c 293d 3e01 b6bd
000000d0: c2b2 24be 7944 36be 82c0 63be 9345 30be
000000e0: 88d0 d2bd 5517 383d 6afd 3a3e b628 67be
000000f0: e3d2 bb3d 07c0 5cbe 1aa6 a9bd c0d5 f23b
00000100: f106 80bd bdad ecbd 83e1 64be 73ac 3dbd
00000110: 4c8c 933d 008c 9eba e7f6 473d 87d4 89bd
00000120: de6f 55bb 2e95 763d 7f03 9dbd eea1 74bd
00000130: e107 9c3e 5f97 babd e3c0 69bd 66cf 85bd
00000140: 038c 6ebe c0d3 7bbb 294e 11be afca 8ebd
00000150: 95fd 30be f185 443d c271 593e a7e7 51be
00000160: aca1 84bd b096 a33e 694f 51be 568d 09be
00000170: 9fa4 9ebd 3643 6fbe ce92 e1bd 7412 85bc
00000180: 305c 1a3d ed83 6bbe 477b 54be d5d4 06be
00000190: 9faf b7bd 82de 33be fdff d7bd fd36 28be
000001a0: a2d2 dabc 1fc8 943e b3b3 36be 5db9 4fbe
000001b0: a9c1 59be 29e4 6ebe 5f45 5cbe 5310 8a3e
000001c0: e7e8 6ebe 40cb 74bd 40c3 f33a 17ca 60bb
000001d0: 3cba 2cbe 08a5 67be 3f91 913c 47d8 e13b
000001e0: 8bcb 0bbe 4951 963d 8531 54be 0971 51be
000001f0: e906 8fbd 8071 3fbe 486f 80bd d131 bebd
00000200: a923 1dbe c146 bbbd 94c2 71be 7e79 78bd
00000210: 3885 623e 19c1 773e e127 1f3d a8a4 7cbe
00000220: 97fc 903d bee9 2abe 157f 7abe 28d2 1e3c
00000230: 89eb 30be 636b 3bbe 26c4 863e bfbd b5bd
00000240: 68d9 8c3d d7bc d5bc d9b5 023e 52a7 09bd
00000250: 92de 22be df06 93bd 0a40 f5bc a425 953c
00000260: 3497 50be 9be8 7cbe c023 6fbe e359 653e
00000270: 61ad 4bbe 8138 9d3d 86ac 5f3d b102 b8bd
00000280: 35d6 483d 352c e7bd a1fa 1cbe 3cf5 bdbd
00000290: 4c63 27bd c2bb dabd c693 55be 4a17 1dbd
000002a0: ff62 4dbd 299d bfbd d9e1 fbbd 1b2c 12be
000002b0: 019a 40be 9d97 0abe a0ee 45be dfc9 d1bd
000002c0: c1f4 13be ee3f 27be 2c2c 33bd 17d1 44be
000002d0: 75ea 9ebd 13d7 35be e5c6 73be 2ee4 51be
000002e0: a04f 5fbe 0177 c53c e288 223e 6d5e a8bd
000002f0: b53e 25be 4712 f7bd 9dfc 2ebe d765 5ebd
00000300: 6756 cfbd 9bb3 47be bdf8 2ebe 49ac 3d3d
00000310: e842 0bbd fbc4 8cbd 771b 6bbc 4acc 3bbe
00000320: a348 a5bd 4f73 85bd 3211 513d 13c1 8c3d
00000330: 67ff e03d ed2c b9bd b6ba f9bd 546d 11be
00000340: 64cd 2dbe 5dec 56bd 5f6b 15be 4028 49bd
00000350: 388f 37be ec9b fa3c 768a 223e b1d0 1fbe
00000360: 7973 7fbe 7890 1b3e c8e8 65be 5b69 4abe
00000370: 297c 69bd e1e6 22be cda7 c9bd d5a4 4cbd
00000380: 77b0 353c 883a 15be bc10 79be 3896 19be
00000390: 6a1b d0bd b91c b6bd f48e cebd 1cd6 56be
000003a0: 45ab eebc 927a 823e 1071 06be ef2c 22be
000003b0: 8ef9 dcbd 69bb b7bd 5933 6cbe ae69 d2bd
000003c0: 180c 1bbe dbdb 5fbe 0a8b c33b 5f5f c9bd
000003d0: 045b ddbd 8492 e7bd bce1 5abb 9e6f c8bd
000003e0: d244 17be ba13 a6bb af52 ffbd 6ca5 f8bd
000003f0: 9732 51be 87b0 b5bd f97e 5d3d 6eeb 93bd
-0.20733587 -0.17879748 -0.1794349 0.1337191 0.24295217 0.26321545 0.06270442 -0.18378672
0.0025148988 -0.21443583 -0.23190236 0.0672952 -0.16351257 -0.11395137 0.29320067 -0.08655557
-0.0017818168 0.0657331 0.123073585 0.010845572 -0.084941566 -0.037420444 0.06168934 -0.015226722
-0.1641924 -0.14976504 -0.22209264 0.29045957 -0.2201493 -0.07715444 -0.008252228 -0.031884134
-0.03899303 -0.1606102 -0.058317784 -0.17166819 0.062028058 -0.11097627 -0.089091614 0.060369123
0.054930337 -0.204461 -0.18239778 -0.23354888 -0.16217008 -0.17741661 -0.11552325 -0.2289014
-0.2031492 -0.13026151 0.041362938 -0.08886956 -0.16083816 -0.17799558 -0.22241405 -0.1721404
-0.102936804 0.044944126 0.18260732 -0.22574124 0.09171083 -0.21557628 -0.082836345 0.007410735
-0.06251324 -0.115565754 -0.22351651 -0.04630704 0.07204494 -0.0012096167 0.04881945 -0.067299895
-0.0032567899 0.060200863 -0.076666825 -0.05972474 0.3047476 -0.09110903 -0.057068717 -0.06533699
-0.23295598 -0.0038425773 -0.14189972 -0.069722526 -0.17284234 0.0479793 0.21234801 -0.20498525
-0.06476149 0.31950903 -0.20440449 -0.13432822 -0.07746243 -0.23365483 -0.11014329 -0.01624415
0.037685573 -0.22999544 -0.20750152 -0.13167126 -0.08969044 -0.17565349 -0.10546873 -0.16427226
-0.026711766 0.2905893 -0.17841987 -0.20285554 -0.21265282 -0.23329224 -0.21510838 0.2696558
-0.23331033 -0.059764147 0.0018597618 -0.0034300142 -0.16867918 -0.22621548 0.017769454 0.0068922373
-0.13651864 0.07339723 -0.20722015 -0.20453276 -0.0698374 -0.1869564 -0.06271225 -0.092868455
-0.15345635 -0.091443546 -0.23609382 -0.06066274 0.22121131 0.24194755 0.03885639 -0.24672186
0.07079428 -0.16690728 -0.2446254 0.00969366 -0.1727735 -0.18302684 0.26321524 -0.08874082
0.068774045 -0.026091022 0.12764682 -0.033606835 -0.15905216 -0.07179045 -0.029937763 0.018206425
-0.2037018 -0.24698107 -0.23353481 0.2239757 -0.19890358 0.07676793 0.05460789 -0.08984888
0.04903241 -0.11287729 -0.15329982 -0.0927529 -0.04086618 -0.10680343 -0.20857152 -0.03835229
-0.05014324 -0.09356148 -0.122989364 -0.14274637 -0.18808748 -0.13534398 -0.1932931 -0.10243582
-0.14448835 -0.16332981 -0.043743297 -0.19220386 -0.07759563 -0.17757826 -0.23806341 -0.204972
-0.21807718 0.024104597 0.15872529 -0.08221135 -0.16137202 -0.12064033 -0.17088552 -0.05429634
-0.10123902 -0.19502108 -0.17087074 0.046306882 -0.033999354 -0.068735085 -0.01434981 -0.18339649
-0.08070495 -0.06516134 0.05104179 0.068727635 0.10986214 -0.09041772 -0.121938154 -0.14201862
-0.16972882 -0.052471507 -0.1459174 -0.04911065 -0.17925727 0.030591927 0.15873131 -0.15606953
-0.24946393 0.15191829 -0.2245208 -0.19766752 -0.057003174 -0.15908386 -0.098464586 -0.049961884
0.011089436 -0.14573109 -0.2432279 -0.1499871 -0.10161479 -0.08892197 -0.1008586 -0.20980114
-0.029134402 0.2548414 -0.13129067 -0.15837453 -0.10789786 -0.089712925 -0.23066463 -0.10274063
-0.15141332 -0.21861212 0.0059675025 -0.09832644 -0.108083755 -0.113072425 -0.0033398708 -0.09786914
-0.14772347 -0.0050682696 -0.124669425 -0.12140927 -0.20429455 -0.088715605 0.05407617 -0.07222639

last2.bias f4 [21]
00000000: ad13 25bd c8c8 2fbd cec5 8dbd 51ed eebd
00000010: 9268 dfbd f776 b9bd 5f0c 1dbe fdd1 98bd
00000020: 01a2 4cbd c450 bebd dd5c 2abe a3f1 0bbe
00000030: f5a5 24be 2ca9 d6bc bc95 26be 7454 0bbd
00000040: faf7 87bd 4774 ccbd d2d0 aebd 64f1 88bd
00000050: 9388 32bd
-0.040301967 -0.04291609 -0.06922494 -0.11666358 -0.10908617 -0.09055894 -0.1533675 -0.07461927
-0.049959186 -0.092927486 -0.16636987 -0.13666396 -0.16078933 -0.026203714 -0.16268057 -0.034016088
-0.06639095 -0.09983116 -0.08535923 -0.066866666 -0.04358728
