experiments/LunarLander-v2-descrete-hyperpra-tunnig/bz/32/model.pt (torch, 114135 bytes, 6 tensors)

net.0.weight f4 [200, 8]
0	0xbe917e2b	-0.2841657
1	0x3d4726c7	0.048620965
2	0x3ee69979	0.45038965
3	0xbd806a65	-0.06270293
4	0xbf41c83e	-0.7569617
5	0xbf6d1217	-0.9260573
6	0xbeabd2ae	-0.33559173
7	0x3f11ad9f	0.5690555
8	0x3f1f9312	0.62333786
9	0xbf3a7f6a	-0.7285067
10	0x3ee18dca	0.4405349
11	0x3fc0648d	1.5030686
12	0xbfb5d2bd	-1.4204937
13	0x3ed185a6	0.40922278
14	0x3cd7f136	0.026360136
15	0xbc03e744	-0.0080507435
16	0xbe5ab983	-0.2135983
17	0x3cb11ac6	0.021619212
18	0xbe9016d5	-0.2814242
19	0x3e387dc6	0.18016729
20	0x3db8adb0	0.09017503
21	0x3f1e5b9f	0.6185855
22	0x3f46c082	0.77637494
23	0xbf168995	-0.58803684
24	0x3ee162d0	0.440207
25	0xbf6cef12	-0.9255229
26	0x3e409ef5	0.18810637
27	0xbf951584	-1.1647191
28	0xbf2a824c	-0.6660507
29	0xbe7c0f8e	-0.24615309
30	0xbe6392e6	-0.22224006
31	0xbecbda2a	-0.39814883
32	0x3f43bb2d	0.7645748
33	0xbf10688b	-0.5640952
34	0xbf546eb3	-0.82981414
35	0xbf0e70c6	-0.5564083
36	0xbed64b02	-0.418541
37	0xbf8f22a5	-1.1182448
38	0xbb9c8a5e	-0.004777237
39	0x3ec1e764	0.3787185
40	0x3dc0bcc5	0.09411005
41	0xbe2fa0b7	-0.17151152
42	0x3cda9ce3	0.026686138
43	0x3ee786d4	0.45220053
44	0x3e5bddcb	0.21471326
45	0xbebaa1a0	-0.36451435
46	0x3e876eea	0.26451808
47	0xbf260fab	-0.6486766
48	0xbd828510	-0.06373036
49	0xbf2074c4	-0.6267817
50	0xbd295644	-0.041342035
51	0xbf100bae	-0.5626782
52	0x3f97b24c	1.1851287
53	0xbf071918	-0.52772665
54	0x3f3904f4	0.7227318
55	0xbe4435c1	-0.1916113
56	0x3c08054c	0.008302044
57	0x3e0e75b4	0.13912088
58	0x3c900730	0.017581552
59	0xbf93f757	-1.1559857
60	0x3fdfc80e	1.7482927
61	0x3e9880a2	0.2978564
62	0x3d7efa4a	0.062250413
63	0x3e55e1b2	0.20886877
64	0xbf7ac0aa	-0.9795023
65	0xbf8a22b1	-1.0791837
66	0x3f1708ea	0.58997977
67	0xbf82b1f3	-1.0210556
68	0xbf6b6480	-0.91950226
69	0x3b70b1ad	0.0036726997
70	0x3e4ae239	0.1981286
71	0x3f200911	0.62513834
72	0xbf6ca5f4	-0.92440724
73	0xbf0dd523	-0.55403346
74	0xbf93d060	-1.1547966
75	0x3e38f408	0.1806184
76	0x3f8c2719	1.0949432
77	0x3e4eab7f	0.20182608
78	0xbcee0897	-0.02905683
79	0x3f246d42	0.64229214
80	0xbf4d88f8	-0.8028712
81	0xbec147ce	-0.37750095
82	0xbfb2f121	-1.3979837
83	0xbeac649b	-0.33670506
84	0xbf65f3ed	-0.89825326
85	0x3e431424	0.19050652
86	0xbefafac5	-0.49019447
87	0x3f433d62	0.7626554
88	0xbe3dc303	-0.18531422
89	0xbf6e6c87	-0.9313435
90	0xbeb5b589	-0.35490063
91	0x3e0abcd4	0.13548595
92	0x3f3f7dc8	0.748013
93	0x3f7748f1	0.96595675
94	0xbf870767	-1.0549134
95	0xbf852434	-1.0401673
96	0x3f455ec4	0.77097726
97	0xbed2b0de	-0.41150564
98	0x3f93178b	1.149156
99	0xbf81f318	-1.0152311
100	0xbf50578a	-0.81383574
101	0x3f0d94e9	0.55305344
102	0xbdfb4ef2	-0.12270917
103	0xbdd2732f	-0.10275876
104	0x3f314708	0.6924901
105	0xbec424f0	-0.3830943
106	0xbfb63ffd	-1.4238278
107	0xbeaf406a	-0.34228832
108	0x3e904d90	0.28184175
109	0xbe4bafa0	-0.19891214
110	0xbf3302b4	-0.69926
111	0x3e8f9ec6	0.28050822
112	0xbe21c6e3	-0.15798526
113	0xbf0cc78e	-0.54991996
114	0x3dd886b3	0.10572567
115	0xbea7f976	-0.3280751
116	0x3caf4143	0.021393424
117	0xbe8582ca	-0.26076347
118	0xbf30557e	-0.6888045
119	0x3f053325	0.52031165
120	0xbeeccdb5	-0.46250692
121	0x3f95427d	1.1660916
122	0x3e558ba4	0.2085405
123	0x3d180fcd	0.037124444
124	0xbfa63cf8	-1.2987356
125	0xbf92c880	-1.1467438
126	0xbedcc56f	-0.4311938
127	0xbf4cb249	-0.7995954
128	0x3f9694ac	1.1764121
129	0x3e3418f6	0.17587647
130	0xbf01f57e	-0.50765216
131	0x3fa0cb37	1.2562016
132	0x3f4290a6	0.76001966
133	0x3d98da33	0.07463493
134	0x3ef52374	0.4787861
135	0x3dcb7e51	0.09936202
136	0x3dfb6a81	0.122761734
137	0xbfb2bc6d	-1.3963753
138	0x3e720c17	0.23637424
139	0xbff89230	-1.9419613
140	0x3f5e0008	0.867188
141	0x3da27777	0.07932942
142	0x3e0f3f94	0.13989097
143	0xbd9be7a6	-0.07612543
144	0xbea35d39	-0.3190706
145	0x3f142c0d	0.57879716
146	0x3ef8513f	0.48499486
147	0xbff0a174	-1.8799272
148	0xbd08d349	-0.033404622
149	0x3d3d931a	0.046282865
150	0xbf8137c6	-1.0095146
151	0xbe1a5e7b	-0.15075104
152	0x3f8f95a7	1.1217545
153	0xbf03a4af	-0.5142316
154	0x3e0bc8a5	0.13650759
155	0x3f09dcd2	0.5385257
156	0xbf20539a	-0.62627566
157	0xbf79c61c	-0.97567916
158	0x3d81ee35	0.063442625
159	0xbf23d25c	-0.6399286
160	0xbebacd29	-0.3648465
161	0x3e82aa42	0.2552052
162	0xbfb53cab	-1.4159139
163	0xbe150f34	-0.14556581
164	0x3fb0d741	1.381569
165	0x3eb4efa8	0.35339093
166	0xbe9d7f71	-0.30761293
167	0xbfa4b11a	-1.2866547
168	0xbf65e578	-0.89803267
169	0xbe6a14c8	-0.2285949
170	0x3ecc860f	0.3994603
171	0xbf157d01	-0.58393866
172	0xbe4dd3eb	-0.20100372
173	0x3e7bb6cc	0.2458145
174	0xbef485ae	-0.4775824
175	0xbf993a5d	-1.1970936
176	0xbec35c75	-0.38156477
177	0x3e494102	0.19653705
178	0xbd4029c0	-0.046914816
179	0xbeca70ee	-0.39539284
180	0xbfb53166	-1.41557
181	0x3e57ae09	0.21062483
182	0x3de81a05	0.11333088
183	0x3f86a62c	1.0519462
184	0x3f2b4239	0.6689792
185	0xc09b7862	-4.858445
186	0xbea33f2b	-0.3188413
187	0x3e8022c2	0.25026518
188	0xbdc7fe42	-0.09765293
189	0xbe2b2c9d	-0.16716237
190	0xbe2d90fd	-0.1694984
191	0xbe618787	-0.22024356
192	0x3f2e9d5c	0.6820886
193	0xbf13924f	-0.57645124
194	0x3ee9c1b8	0.45655608
195	0xbf66b1f4	-0.90115285
196	0xbf6b6f00	-0.9196625
197	0x3e2ad25b	0.16681807
198	0xbe646f0c	-0.22307986
199	0x3eb1d420	0.3473215
200	0xbf43dab4	-0.7650559
201	0xc06c9358	-3.6964931
202	0xbd201b8e	-0.03908878
203	0xbf81df8d	-1.0146347
204	0x3e1870f4	0.14886838
205	0xbf18a289	-0.5962301
206	0xbf82dfbb	-1.0224527
207	0xbd91bb79	-0.07115836
208	0x3e88ef5d	0.2674512
209	0x3eb775fe	0.35832208
210	0xbf0fc6f3	-0.5616295
211	0x3ee4c4eb	0.44681486
212	0x3efa6821	0.4890757
213	0x3fa49dee	1.2860696
214	0x3e9270b2	0.28601605
215	0xbf235100	-0.6379547
216	0x3e0da1c0	0.13831234
217	0x3dda8eb6	0.10671751
218	0xbfffdc45	-1.9989096
219	0x3f3670fc	0.7126615
220	0x3e78c016	0.24292025
221	0xbdc7b565	-0.09751395
222	0xbe6f9252	-0.2339566
223	0xbfaaf31f	-1.3355445
224	0x3e46461f	0.19362687
225	0xbed264dd	-0.41092578
226	0x3df6ed91	0.12057031
227	0x3f1f7637	0.62289757
228	0xbf596c0d	-0.849305
229	0xbd9dc13f	-0.077028744
230	0xbe360c00	-0.17778015
231	0x3f69b182	0.9128648
232	0x3fab77c5	1.3395926
233	0xbedcb72f	-0.43108508
234	0xbd8f4a2a	-0.069965675
235	0x3d91bb4f	0.071158044
236	0x3f9dc8a4	1.2326856
237	0xbe2ee2ff	-0.1707878
238	0x3e1e6558	0.15468347
239	0x3e257150	0.16156507
240	0xbec03629	-0.3754132
241	0xbd327cd0	-0.04357606
242	0x3ee03809	0.4379275
243	0xbf8955aa	-1.0729268
244	0xbf35bb5e	-0.70989025
245	0x3e592844	0.21206766
246	0x3da9f254	0.082981735
247	0xbf74f451	-0.956853
248	0xbfb0743d	-1.3785473
249	0xbe9080bf	-0.28223225
250	0xbfaccf83	-1.3500828
251	0xbf61c56a	-0.88191855
252	0x3f3dbc14	0.7411511
253	0xbe95bb91	-0.29244664
254	0xbd97cd2f	-0.074121825
255	0x3d80dea0	0.06292462

net.0.bias f4 [200]
0	0xbec0ea0f	-0.37678573
1	0x3d383ceb	0.04497997
2	0x3f0affb3	0.54296416
3	0xbe655921	-0.22397281
4	0xbee1cb8c	-0.44100606
5	0xbded4c21	-0.11586786
6	0xbefd0cc8	-0.49423814
7	0x3bc943b4	0.006142104
8	0xbea7ac02	-0.3274842
9	0xbf2d8a4f	-0.6778917
10	0xbeb889cd	-0.36042634
11	0xbe56ddaa	-0.20982996
12	0xbf2b0b1d	-0.6681383
13	0xbf0a955c	-0.54134154
14	0x3ec76053	0.38940677
15	0x3eb040cd	0.3442444
16	0xbf825cad	-1.0184532
17	0xbf2b2e47	-0.6686749
18	0x3e2a1754	0.16610461
19	0xbf900ee3	-1.1254543
20	0x3eaed157	0.3414409
21	0x3f1eff4e	0.62108314
22	0xbd147b56	-0.036250435
23	0xbe957a03	-0.2919465
24	0xbe7bea74	-0.24601156
25	0xbe97146c	-0.29507768
26	0x3e48923d	0.19587035
27	0xbc413247	-0.011791772
28	0xbe8143ab	-0.2524694
29	0xbf0b04df	-0.5430431
30	0xbe6ada39	-0.22934808
31	0xbde93cde	-0.113885626
32	0xbf91eb97	-1.1400021
33	0x3f197880	0.59949493
34	0xbe5a6305	-0.21326835
35	0xbe077248	-0.13227189
36	0xbd2e66ee	-0.04257863
37	0xbefa3176	-0.4886586
38	0x3dd71e7a	0.1050386
39	0xbf1a6991	-0.6031733
40	0x3f290baa	0.6603342
41	0x3e78ec21	0.24308826
42	0xbf0fa187	-0.56105846
43	0xbe54d885	-0.2078572
44	0xbdeae68f	-0.11469757
45	0xbdbc859f	-0.09205174
46	0x3f1f5ac1	0.62247854
47	0xbca8f8f1	-0.020626517
48	0xbe883201	-0.2660065
49	0xbe960676	-0.29301804
50	0x3e116895	0.14200051
51	0x3f172428	0.59039545
52	0xbf8b53d4	-1.0884957
53	0x3f5bdd82	0.8588487
54	0x3e1a4c92	0.15068272
55	0xbf30ef14	-0.69114804
56	0x3ec314e9	0.3810189
57	0x3f4621ee	0.7739552
58	0xbf8689f6	-1.0510852
59	0x3dca7c4e	0.098869905
60	0x3dce5a9f	0.10075878
61	0x3e9f3de7	0.31101915
62	0x3dfa7aa3	0.12230422
63	0xbd0ac44c	-0.03387861
64	0x3e9f2578	0.31083274
65	0xbf4c0caf	-0.79706854
66	0xbee2dd8d	-0.44309655
67	0xbe57385e	-0.21017596
68	0xbe6132b4	-0.21991998
69	0x3f335b0a	0.7006079
70	0xbeca11ee	-0.39466804
71	0xbf593a5a	-0.8485466
72	0xbec06160	-0.3757429
73	0x3f71db25	0.94475013
74	0xbd7bc5d8	-0.061467975
75	0x3eedd7d5	0.4645373
76	0xbdd0d855	-0.10197512
77	0xbefa779c	-0.4891938
78	0x3f25be6f	0.64743704
79	0xbf2e445a	-0.68073046
80	0xbf370288	-0.7148824
81	0xbe944522	-0.28958994
82	0xbed61243	-0.41810808
83	0xbf848347	-1.0352563
84	0x3ebad125	0.3648769
85	0xbf52ea41	-0.82388693
86	0xbeb98647	-0.36235258
87	0x3f1ce623	0.6128866
88	0xbf1ec0a6	-0.6201271
89	0xbdb439b3	-0.08800068
90	0xbec97621	-0.39347938
91	0xbf270347	-0.65239376
92	0x3e5c549f	0.21516655
93	0x3dd230f4	0.10263243
94	0x3f2c49cd	0.6730011
95	0xbf122c75	-0.57099086
96	0xbdaeb745	-0.0853105
97	0xbe8babda	-0.2727955
98	0x3e44d875	0.19223197
99	0x3e4b562a	0.19857088
100	0xbe72ac42	-0.23698524
101	0x3f435afc	0.76310706
102	0xbe149738	-0.1451081
103	0xbf5dc407	-0.8662724
104	0x3f49b827	0.7879662
105	0xbf0009df	-0.5001506
106	0x3f10e3ea	0.5659777
107	0xbe8df37c	-0.27724826
108	0xbe28ebb5	-0.16496165
109	0xbf29b805	-0.66296417
110	0x3ea15211	0.31507924
111	0x3de6b818	0.11265582
112	0xbf400bed	-0.750182
113	0xbec00d8e	-0.3751034
114	0xbeac7695	-0.3368422
115	0xbd3da2fa	-0.046298005
116	0x3e216423	0.15760855
117	0x3f001444	0.5003092
118	0xbc371a09	-0.011175641
119	0xbf0af385	-0.5427783
120	0xbf981843	-1.1882404
121	0x3f402e16	0.7507032
122	0xbf446929	-0.7672296
123	0x3ef967cc	0.48712003
124	0x3ef8a801	0.48565677
125	0xbeefd903	-0.46845254
126	0xbe0a7ae6	-0.13523445
127	0xbd7e8e36	-0.06214734
128	0xbf807dd8	-1.0038404
129	0xbc0f3b68	-0.008742191
130	0xbf0f122c	-0.55887103
131	0xbee1358a	-0.4398616
132	0x3e212916	0.1573833
133	0xbe470cb0	-0.19438434
134	0x3ea43f66	0.3207962
135	0xbeac057e	-0.3359794
136	0xbf070e60	-0.5275631
137	0x3e154ff6	0.14581284
138	0x3ece9b01	0.40352634
139	0x3e6f0bb8	0.23344314
140	0x3e89d5fd	0.26921073
141	0x3eb64ff7	0.35607883
142	0xbdd8fdc4	-0.10595277
143	0xbf8322ff	-1.0245055
144	0xbe5ad0a8	-0.21368659
145	0xbe4769d3	-0.19473962
146	0xbf0b7e13	-0.5448925
147	0xbf16ec10	-0.5895395
148	0xbec1b434	-0.37832797
149	0xbcada9ab	-0.021199068
150	0xbf537bea	-0.8261095
151	0x3ecd8baf	0.40145633
152	0x3f20aa66	0.6276001
153	0xbef41f09	-0.47679928
154	0xbea56fca	-0.3231185
155	0xbf015544	-0.5052073
156	0x3f14d95b	0.5814416
157	0xbb8bced7	-0.0042666006
158	0xbf06798c	-0.52529216
159	0x3f33162f	0.69955724
160	0x3f1aef25	0.60521156
161	0xbf323a69	-0.69620377
162	0xbd2476a9	-0.040152226
163	0xbd1f2cd1	-0.0388611
164	0xbf44b068	-0.76831675
165	0xbde7221d	-0.112858035
166	0x3e82d896	0.25555867
167	0x3dc680b0	0.09692514
168	0xbc7689a5	-0.015047465
169	0xbe8a33f6	-0.26992768
170	0x3ef4fa59	0.4784725
171	0xbf2fb7ee	-0.6864003
172	0xbe5dd306	-0.2166253
173	0xbeaa0d26	-0.33213156
174	0xbe97a676	-0.29619187
175	0xbea640bb	-0.3247126
176	0x3e6c421f	0.23072098
177	0xbe9272e9	-0.28603294
178	0x3e354406	0.1770173
179	0xbf2c393c	-0.6727483
180	0xbe92ac55	-0.28647104
181	0xbe445bbb	-0.19175617
182	0xbeed60d6	-0.46362942
183	0x3d38c778	0.045112103
184	0xbecb2f78	-0.39684653
185	0x3e1d6f7a	0.15374556
186	0xbf705478	-0.9387889
187	0x3f5dbd71	0.8661719
188	0xbe993bf5	-0.29928556
189	0xbf25c728	-0.64757013
190	0x3e400679	0.18752469
191	0xbf6c2efe	-0.92259204
192	0xbe8ac103	-0.2710038
193	0x3ef331f4	0.4749905
194	0xbde61198	-0.112338245
195	0xbf0473cd	-0.517392
196	0x3eaf6bc4	0.34261906
197	0x3ea7aa43	0.32747087
198	0xbc29cb01	-0.010363341
199	0xbf89cf25	-1.076634

net.2.weight f4 [128, 200]
0	0xbdb3eea0	-0.087857485
1	0xbdb7ef83	-0.0898123
2	0x3bad575b	0.0052899546
3	0xbbe0d636	-0.0068614734
4	0x3d371a1c	0.044702634
5	0xbd357e29	-0.04430977
6	0xbdd2c86f	-0.10292136
7	0xbcce559c	-0.025187306
8	0x3b9b03a7	0.00473066
9	0x3c90e068	0.01768513
10	0xbafc527e	-0.0019250659
11	0x3d8451c6	0.064609095
12	0xbd2e27ba	-0.042518355
13	0xbd496b46	-0.04917457
14	0xbe0e1a1b	-0.13877146
15	0x3b7d8bcd	0.0038688064
16	0x3d915c97	0.07097738
17	0xbcd3d8e6	-0.025860261
18	0xbd8efd04	-0.06981853
19	0x3b8a2648	0.0042159893
20	0xbd82fc20	-0.06395745
21	0x3b430f7d	0.002976387
22	0xbd33bbd5	-0.043880302
23	0xbc88da5a	-0.01670568
24	0xbd85782c	-0.065170616
25	0xbd0f20fc	-0.034943566
26	0xbd121134	-0.035660937
27	0xbccc8988	-0.024967924
28	0x3d27fa22	0.04101003
29	0x3d30cda9	0.043164883
30	0xbc04279e	-0.008066086
31	0x3cb08346	0.021546971
32	0x3d49e820	0.049293637
33	0xbdaef521	-0.085428484
34	0x3d74bddd	0.05975138
35	0xbcadbe07	-0.021208776
36	0xbca25a08	-0.01981832
37	0x3cdb5e6e	0.026778426
38	0xbc90154a	-0.017588276
39	0x3d31073c	0.04321979
40	0xbd23f009	-0.040023837
41	0xbc2e1df5	-0.0106272595
42	0x3bfccdbd	0.0077149556
43	0x3c0e9206	0.008701807
44	0x3d3e8389	0.04651216
45	0xbcb5e2f1	-0.02220294
46	0xbd5ce7ff	-0.053932186
47	0xbda9c17f	-0.082888596
48	0x3c8d01bc	0.017212741
49	0xbda96f6a	-0.08273204
50	0xbd7fef23	-0.062483918
51	0xbdbab149	-0.09115846
52	0xbb51771f	-0.003196187
53	0xbd930662	-0.07178952
54	0xbc878ed2	-0.016547594
55	0x3d37e645	0.044897337
56	0x3d6eb8b5	0.05828162
57	0x3c36d1b4	0.011158396
58	0x3d14cc8e	0.03632789
59	0xbc3ce748	-0.011529751
60	0xbd9be7fd	-0.07612608
61	0x3d9cce7f	0.076565735
62	0x39b1bb55	0.00033899644
63	0xbdf33e38	-0.11877102
64	0x3b8826fc	0.004155038
65	0xbd7fc65d	-0.062445033
66	0xbd8ac910	-0.06776631
67	0x3b6a7c38	0.0035779607
68	0x3ca5c7a8	0.020236805
69	0xbd03eae8	-0.032206446
70	0xbd45cd69	-0.048291598
71	0xbcd1cdc6	-0.025610816
72	0xbd404d9a	-0.046949007
73	0x3cd6cd6b	0.026220998
74	0x3d621667	0.055197146
75	0xbd31b99d	-0.043389905
76	0x3cb7f0c8	0.02245368
77	0x3ccd2be0	0.025045335
78	0x3c28daae	0.010306044
79	0x3d566aa3	0.05234779
80	0x3c880fd7	0.016609116
81	0x3ba9f58e	0.005186743
82	0xbd6ce36a	-0.057834066
83	0x3a7cbe66	0.00096414087
84	0x3b78e202	0.0037976508
85	0x3cbca554	0.023028053
86	0x3d1153c3	0.035480272
87	0xbd85a004	-0.06524661
88	0x3c1fdab6	0.009756735
89	0xbd728ee4	-0.059218302
90	0xbddcbd19	-0.10778255
91	0xbd895adf	-0.067067854
92	0xbe000b76	-0.12504372
93	0xbd10b81f	-0.03533184
94	0xbcbfdd0c	-0.023420833
95	0x3ad8f5b5	0.0016552719
96	0xbd41f830	-0.04735583
97	0x3d57eb4b	0.052714627
98	0xbd38f196	-0.04515227
99	0x3c3ce026	0.0115280505
100	0xbd1fcbca	-0.039012708
101	0xbd313a7f	-0.043268677
102	0xbd1d6983	-0.038430702
103	0xbd79039f	-0.06079447
104	0x3d0ff268	0.035143286
105	0xbd124d4a	-0.03571824
106	0x3d64270a	0.055701293
107	0xbd63d4eb	-0.055622976
108	0xbce78cdf	-0.028265415
109	0x3d577ec7	0.05261114
110	0x3c93d5e8	0.018046334
111	0x3c956357	0.018235845
112	0xbd366eee	-0.044539385
113	0x3d7eb9f0	0.062189043
114	0x3c550eff	0.013004064
115	0xbdba1e93	-0.09087863
116	0x3cc00782	0.02344108
117	0x3c421231	0.0118451575
118	0xbd7be293	-0.061495375
119	0x3d1d4551	0.038396183
120	0xbbfd3aeb	-0.007727971
121	0x3ce3e16d	0.027817452
122	0x3c0e4f4d	0.008685899
123	0x3d374426	0.044742726
124	0xba0299fc	-0.0004982052
125	0xbd5d08ce	-0.053963475
126	0xbd938db4	-0.07204762
127	0x3be9e374	0.00713771
128	0xbd223fb5	-0.039611537
129	0x3bc1c63e	0.005913525
130	0x3d34089a	0.043953516
131	0xbd57e620	-0.0527097
132	0x3be0b02d	0.0068569393
133	0xbcea3914	-0.02859167
134	0xbdb16b17	-0.08663004
135	0x3d637aac	0.05553691
136	0x3d43b610	0.04778105
137	0xbd876d07	-0.06612592
138	0x3c4afae9	0.012388923
139	0x3c2a99c7	0.01041264
140	0x3b389f68	0.0028171185
141	0xbb984441	-0.0046468084
142	0x3b97f4b0	0.0046373233
143	0x3cb69e72	0.02229235
144	0x3d0b63e6	0.034030817
145	0x39ca5022	0.00038588146
146	0xbd3ad1ab	-0.04561011
147	0x3c8fae00	0.017539024
148	0xbd80f706	-0.06297116
149	0xbd0250d5	-0.03181537
150	0xbc96b5a9	-0.01839717
151	0xbdb189c7	-0.08668857
152	0xbdd3136b	-0.10306438
153	0xbdae955c	-0.08524582
154	0xbbb1d0a6	-0.005426484
155	0x3d87694b	0.0661188
156	0x3c528f5a	0.0128515605
157	0xbc5d9cd7	-0.013526163
158	0xbd86a6eb	-0.06574806
159	0xbc520aff	-0.0128200045
160	0x3c0a89b3	0.008455682
161	0x3c0556e9	0.008138397
162	0x3c162d1d	0.009166029
163	0x3cb964ed	0.022631133
164	0x3cf603d2	0.030031119
165	0x3d7003d3	0.058597397
166	0xbce02dc7	-0.027365578
167	0xbd996751	-0.07490409
168	0x3d2e4d9c	0.042554483
169	0x3ca82de1	0.02052969
170	0xbda20be9	-0.07912428
171	0x3c5f6ef0	0.013637289
172	0x3c8adb30	0.01695022
173	0x3d619e36	0.055082522
174	0xbc7ab7e9	-0.015302637
175	0x3da51efe	0.08062552
176	0x3c225820	0.009908706
177	0xbcd5aa62	-0.026082221
178	0x3cde1245	0.027108321
179	0xbd6faf14	-0.058516577
180	0x3bf44f63	0.0074557527
181	0x3c8e57e7	0.0173759
182	0xbd87d484	-0.06632331
183	0xbd1fddbc	-0.03902982
184	0xbd2a2b1a	-0.04154501
185	0x3ca20663	0.019778436
186	0x3d4539aa	0.048150696
187	0xbd4b98e6	-0.049706362
188	0xbdb5ce7b	-0.08877274
189	0x3d087a1e	0.033319585
190	0xbc836cc3	-0.016043073
191	0xbdd8bee5	-0.10583285
192	0x3c8dc177	0.017304165
193	0xbda8c666	-0.082409665
194	0x3c0924ea	0.008370617
195	0x3cae3116	0.02126364
196	0x3d416118	0.047211736
197	0xbd55e4a1	-0.05221999
198	0x3cad1e1c	0.021132521
199	0x3c9ba7c7	0.0190009
200	0x3cc8caad	0.024510706
201	0xbc9ed70d	-0.019389654
202	0xbd1d57a5	-0.038413662
203	0x3d06062b	0.032720726
204	0xbc59d6e4	-0.013295863
205	0xbb913d90	-0.0044323877
206	0xbc563202	-0.013073446
207	0xbc9b6328	-0.01896818
208	0xbd40d60b	-0.047079127
209	0xbc41a3c2	-0.011818828
210	0xbd812db0	-0.06307542
211	0x3cfb58d0	0.030681998
212	0xbdb8bddc	-0.09020588
213	0xbbb951b5	-0.005655492
214	0x3cd450c2	0.025917415
215	0x3b8f1c58	0.0043673925
216	0x3c43b535	0.011945059
217	0xbd8842f4	-0.06653395
218	0x3d5aeb43	0.05344702
219	0xbc71ccab	-0.014758269
220	0x3c97afba	0.01851641
221	0xbd811e74	-0.063046366
222	0x3a21ffce	0.00061797805
223	0x3d6223bd	0.055209864
224	0xbcf70c33	-0.030157184
225	0x3d41678c	0.04721789
226	0x3d79bc7f	0.06097078
227	0xbcc0aa2a	-0.02351864
228	0xbcb082e2	-0.021546785
229	0xbd037879	-0.032097314
230	0xbc6d67c8	-0.014490075
231	0x3d1b87b9	0.037971232
232	0x3ca61819	0.020275163
233	0xbdaae090	-0.08343613
234	0xbcd36616	-0.025805514
235	0x3d6c460f	0.057684
236	0x3b1d5cdd	0.002401165
237	0xbca85427	-0.02054794
238	0xbdbd13e6	-0.09232311
239	0xbc96c10b	-0.018402597
240	0x3c86e676	0.016467314
241	0xbd6c9178	-0.057755917
242	0xbd1a8ba9	-0.037730847
243	0xbcc76f7b	-0.02434515
244	0x3d813b76	0.063101694
245	0x3bcaae35	0.006185318
246	0xbc8b1b1a	-0.016980696
247	0x3ca4d210	0.020119697
248	0x3c71c53c	0.014756497
249	0xbdab4216	-0.08362214
250	0x3d7b6f1f	0.06138527
251	0x3c8e15a7	0.017344309
252	0x3d3518f5	0.044213254
253	0xbd4adfb4	-0.049529746
254	0xbc508433	-0.012726831
255	0xbc844559	-0.016146349

net.2.bias f4 [128]
0	0xbdadf8d0	-0.08494723
1	0xbd54e0fa	-0.051972367
2	0xbe75a95d	-0.23990388
3	0x3eb94c31	0.36190942
4	0x3c961bb6	0.01832376
5	0x3f3bccd2	0.73359406
6	0x3dc56559	0.09638471
7	0x3ebc1801	0.36737064
8	0xbd8e910b	-0.069612585
9	0x3e3806bc	0.17971319
10	0x3c72e8dc	0.014826026
11	0xbd458ee0	-0.04823196
12	0xbd8d5761	-0.06901432
13	0x3e2b1e34	0.1671074
14	0x3d87e4c0	0.066354275
15	0xbdb76849	-0.08955438
16	0x3e86d7b7	0.26336452
17	0xbd900228	-0.07031661
18	0x3dab49d6	0.083636925
19	0x3dd12cf0	0.10213649
20	0xbeaf7cc0	-0.34274864
21	0x3eab2efd	0.33434287
22	0xbccf6330	-0.025315851
23	0x3e2a49d4	0.16629726
24	0xbe810658	-0.25200152
25	0x3f360842	0.7110635
26	0xbf6f0cb7	-0.93378776
27	0xbd286c9f	-0.041119214
28	0x3e67da30	0.22641826
29	0xbbdbb5be	-0.006705015
30	0x3ef87e47	0.48533842
31	0x3f35b96b	0.7098605
32	0xbd68d336	-0.05684205
33	0xbc46e928	-0.01214055
34	0xbda6820a	-0.08130272
35	0x3e60db47	0.21958648
36	0x3f222b1e	0.6334704
37	0xbe32fe4c	-0.17479819
38	0x3e380050	0.17968869
39	0x3f073f8b	0.52831334
40	0xbe4410d0	-0.19147038
41	0xbee79dab	-0.4523748
42	0xbda6839c	-0.08130571
43	0xbbe8c708	-0.0071038045
44	0xbeab9684	-0.33513272
45	0xbe6ca60c	-0.23110217
46	0xbe650b30	-0.22367549
47	0x3ef28b1d	0.4737176
48	0x3cd449da	0.025914121
49	0x3b50aed8	0.0031842496
50	0x3e0ec9ec	0.13944215
51	0xbd1841ae	-0.037172012
52	0x3ef7695b	0.48322567
53	0xbda7f129	-0.082002945
54	0xbcf09335	-0.029367069
55	0xbdbdc0eb	-0.09265312
56	0x3e14c9bb	0.14530079
57	0xbddb35c9	-0.10703618
58	0xbd1e3146	-0.03862121
59	0xbca3b4a6	-0.0199836
60	0xbe9bf18d	-0.30457726
61	0x3c67ec89	0.0141555155
62	0x3be6a442	0.007038624
63	0xbe0390b6	-0.12848172
64	0x3ef34574	0.47513926
65	0x3f111a13	0.5668041
66	0xbd9dd90d	-0.07707415
67	0xbf2c19aa	-0.6722666
68	0x3c93dfd6	0.01805107
69	0x3e402066	0.18762359
70	0x3dfef166	0.12448387
71	0x3c9cde1e	0.019148882
72	0xbdc62d4e	-0.0967661
73	0x3f4e2292	0.805215
74	0xbdcbfc75	-0.09960262
75	0xbd9bab91	-0.07601083
76	0x3b9f56f5	0.004862661
77	0x3f11ab7c	0.5690229
78	0x3c54e08e	0.012992991
79	0xbdb51819	-0.08842487
80	0xbe8106af	-0.25200412
81	0x3f127713	0.5721294
82	0xbca38426	-0.019960474
83	0x3e52cf3b	0.20586865
84	0xbd479e25	-0.048734803
85	0xbf2b7e3d	-0.669895
86	0x3e7568fa	0.23965827
87	0x3ea6c36d	0.32570973
88	0xbd042f1f	-0.0322715
89	0xbe9d9e2a	-0.30784732
90	0xbdbf6145	-0.093447246
91	0xbd69ca7a	-0.057077862
92	0xbd9ef93b	-0.07762381
93	0xbd88a592	-0.06672205
94	0xbc85777c	-0.016292326
95	0x3eda2a4e	0.426104
96	0xbd81280e	-0.06306468
97	0xbe9c39ef	-0.3051295
98	0xbd9e9bd8	-0.077445686
99	0xbcc93a64	-0.024563976
100	0x3f2990bb	0.66236466
101	0x3e2a4e40	0.16631413
102	0xbdbf9f5f	-0.093565695
103	0xbd02bf83	-0.03192092
104	0xbd4ebd6b	-0.05047361
105	0xbdbc122f	-0.09183156
106	0xbeb4d277	-0.35316822
107	0x3f2a11a6	0.6643318
108	0xbee8a7d0	-0.4544053
109	0x3e39236d	0.1807992
110	0x3eee915d	0.46595278
111	0x3f07f092	0.53101456
112	0x3e941d84	0.2892877
113	0xbd62b0cd	-0.05534439
114	0xbed15e33	-0.4089218
115	0x3e69f14c	0.22845954
116	0xbd2a5bd1	-0.04159147
117	0x3ea68a54	0.3252741
118	0x3f25e713	0.64805716
119	0x3ed10bec	0.40829408
120	0xbbea9619	-0.0071590063
121	0x3ec26411	0.3796697
122	0xbcfc5e5e	-0.030806717
123	0xbd718e17	-0.058973398
124	0xbe145af4	-0.14487821
125	0x3d490310	0.049075186
126	0x3d75bbca	0.059993543
127	0x3dbdb311	0.0926267

net.4.weight f4 [4, 128]
0	0x3c111a52	0.008856373
1	0x3ce9834c	0.02850499
2	0x3e358b40	0.17728901
3	0xbf916ed0	-1.1361942
4	0xbe4696d7	-0.19393478
5	0x3f473f8b	0.77831334
6	0x3ead9ad4	0.33907187
7	0xbf8ce37b	-1.1006922
8	0xbd04a349	-0.032382283
9	0x3e8a99a7	0.27070352
10	0xbc809040	-0.015693784
11	0xbdc6dea3	-0.09710433
12	0x3d9bcc73	0.07607355
13	0xbece68db	-0.40314373
14	0xbf548852	-0.8302051
15	0x3d539121	0.051652078
16	0xbe0bff11	-0.13671519
17	0x3c808b14	0.015691318
18	0x3fbeeded	1.4916359
19	0xbf50877a	-0.8145672
20	0x3f2053b3	0.62627715
21	0xbea56dda	-0.32310373
22	0xbe012536	-0.12611851
23	0x3f120a5b	0.5704705
24	0x3e4a07ae	0.19729492
25	0xbf4cfcbb	-0.80073136
26	0x3ecb67ab	0.3972753
27	0x3f9abdf1	1.2089216
28	0xbedef5fb	-0.43547043
29	0x3f981be4	1.1883512
30	0x3f3c05b8	0.73446226
31	0x3fb30200	1.3984985
32	0xbf103cec	-0.5634296
33	0x3fd14822	1.6350138
34	0x3fa86480	1.315567
35	0x3f0dcfd7	0.55395263
36	0xbf2001d7	-0.6250281
37	0x3f1f666c	0.6226566
38	0xbf132595	-0.5747922
39	0x3ea7f47f	0.32803723
40	0x3ee8a1e5	0.45436016
41	0x3ee3f24b	0.44520792
42	0xbf713656	-0.94223535
43	0xba048567	-0.0005055279
44	0x3f80720a	1.0034802
45	0xbefcd949	-0.49384525
46	0xbf0ac2d7	-0.5420355
47	0x3f8f3ff1	1.1191388
48	0x3e1924f8	0.14955509
49	0x3f2135df	0.62972826
50	0xbf85a88d	-1.0442063
51	0xbcd34d18	-0.025793597
52	0x3f578b2f	0.8419675
53	0x3d111a5d	0.035425533
54	0x3c8253d1	0.015909107
55	0xbdcb4431	-0.09925116
56	0xbf6c6fa2	-0.9235784
57	0xbd049b91	-0.032374922
58	0xbcde53bb	-0.027139535
59	0x3db977e4	0.090560704
60	0xbf3f7629	-0.74789673
61	0xbd5101ab	-0.05102698
62	0x3ccf05c3	0.025271302
63	0x3f76289a	0.96155703
64	0xbf985d7b	-1.1903528
65	0x3e71ddee	0.23619816
66	0xbd62b762	-0.05535067
67	0x3fc53bbb	1.5408853
68	0xbdbc3c00	-0.091911316
69	0xbf493e25	-0.7861045
70	0x3fabcb8b	1.3421491
71	0x3d8718f6	0.06596558
72	0xbc877986	-0.01653744
73	0xbf4f174b	-0.8089492
74	0x3da6c383	0.0814276
75	0xbc057445	-0.008145397
76	0xbc2eda7d	-0.010672209
77	0x3f38de0a	0.72213805
78	0x3f7add7d	0.97994214
79	0xbd8a892f	-0.06764447
80	0x3f472315	0.77787906
81	0x3f1c860e	0.6114205
82	0xbd3acd27	-0.045605805
83	0xbe9cf239	-0.3065355
84	0x3cd173a5	0.025567839
85	0xbf1fd741	-0.62437826
86	0xbf1bf6d7	-0.6092352
87	0x400fb89a	2.2456422
88	0xbd942fe6	-0.072356984
89	0x3ecbedeb	0.39829955
90	0x3d117f50	0.035521805
91	0x3d8ea1ba	0.06964441
92	0x3c54ca39	0.012987667
93	0xbf18c37a	-0.59673274
94	0xbd7dab36	-0.061930858
95	0xbe44e877	-0.19229303
96	0xbdb49129	-0.088167496
97	0xbf61c072	-0.88184273
98	0xbd2b57d2	-0.0418318
99	0xbcbb570d	-0.022868657
100	0x3f2a8b4d	0.66618806
101	0x3f709a3e	0.93985355
102	0xbd789241	-0.060686354
103	0x3d251aa5	0.040308613
104	0xbd82893e	-0.06373833
105	0xbd9296a9	-0.071576424
106	0xbce40033	-0.027832126
107	0x3f3cd1bc	0.7375753
108	0x3ce29bd5	0.027662197
109	0xbf01013b	-0.503925
110	0x3fcc5c91	1.5965749
111	0x3f28fb98	0.660089
112	0x3f3b0dd8	0.73068
113	0x3c149e61	0.009070964
114	0x3f3a02a7	0.726603
115	0xbf675b94	-0.9037411
116	0xbf6fe901	-0.9371491
117	0x3fe7f8b7	1.8122777
118	0x3f636e9d	0.8884066
119	0xbedc2213	-0.42994747
120	0x3ae65e42	0.0017575698
121	0xbf8f3f46	-1.1191185
122	0x3d153f5e	0.036437385
123	0xbe8cd22a	-0.27504092
124	0x3f93be67	1.1542481
125	0xbf616990	-0.880517
126	0x3f4ecc41	0.80780417
127	0x3f509da9	0.8149057
128	0x3d713ae1	0.058894042
129	0x3d64a665	0.05582275
130	0xbda9dd41	-0.08294154
131	0xbee20465	-0.44143978
132	0xbedcc7c9	-0.43121174
133	0x3ef51e71	0.47874787
134	0x3f65012b	0.8945491
135	0xbfa8aee6	-1.3178375
136	0x3d01c863	0.031685244
137	0x3e6576d9	0.22408618
138	0x3daf6ee9	0.08566076
139	0xba7c7b5e	-0.000963142
140	0xbc07c192	-0.008285897
141	0xbf158648	-0.5840802
142	0xbec28992	-0.37995583
143	0x3cc8d3f7	0.024515135
144	0xbeef2822	-0.46710306
145	0xbd3287d6	-0.043586574
146	0x3fd643aa	1.67394
147	0xbf3b4769	-0.7315584
148	0x3fbf5071	1.4946424
149	0xbf297aa6	-0.6620277
150	0xba9e86d5	-0.0012094626
151	0x3eced856	0.40399426
152	0x38c1acaf	9.235122e-05
153	0xbf38a4df	-0.72126573
154	0xbe4f65a9	-0.20253624
155	0x3ffc7138	1.9722052
156	0xbec84f0f	-0.39122817
157	0x3f8ecc6c	1.1156135
158	0x3f32afc4	0.6979945
159	0x3fc8f187	1.5698708
160	0xbf568a6c	-0.83804965
161	0x3f637223	0.88846034
162	0x3fd7fc29	1.6873828
163	0x3f1791f3	0.59207076
164	0xbeb8343a	-0.35977346
165	0x3ee24e48	0.4420035
166	0xbfb22405	-1.3917242
167	0x3f097d75	0.5370706
168	0x3f8e85a5	1.1134535
169	0x3ea1f4c4	0.31632054
170	0xbea8c859	-0.32965353
171	0xbcb37d96	-0.02191047
172	0xbf40bf1d	-0.75291616
173	0xbf4e8218	-0.8066726
174	0xbe7acb8a	-0.24491706
175	0x3f22fb24	0.6366446
176	0xbe93e7e2	-0.2888785
177	0x3f39b548	0.7254224
178	0xbf72cd74	-0.94844747
179	0x3d42e0e0	0.04757774
180	0x3f6ba43e	0.9204749
181	0x3d528ffc	0.051406845
182	0x3c50525f	0.012714951
183	0x3de8d37d	0.11368463
184	0xbf20aaef	-0.62760824
185	0x3ccff276	0.02538417
186	0xbc8115c6	-0.015757453
187	0x3d14c16b	0.03631727
188	0xbf4e8699	-0.8067413
189	0xbc18c3e8	-0.009324051
190	0xbcd3df97	-0.025863452
191	0x3f47122c	0.77762103
192	0xbf722342	-0.9458505
193	0x3ed2090e	0.41022533
194	0x3d0ad0e5	0.033890624
195	0x3fa2cd0c	1.2718825
196	0xbe9add19	-0.3024681
197	0xbf14b017	-0.5808119
198	0x3fbc27c6	1.4699638
199	0x3d85d751	0.06535209
200	0xbce7f0bc	-0.028313033
201	0xbf1a869c	-0.6036165
202	0x3d35976a	0.044333853
203	0xbd3112b3	-0.043230724
204	0xbaa326e8	-0.0012447508
205	0x3f7984d2	0.9746829
206	0x3f3b36a2	0.7313024
207	0xbc6b2796	-0.0143527
208	0xbe7570c5	-0.239688
209	0x3f0daf8d	0.55345994
210	0x3db94e2a	0.09048112
211	0xbf0f93e1	-0.5608502
212	0x3d8aa160	0.06769061
213	0x3f342c7f	0.70380396
214	0xbf023b8f	-0.5087213
215	0x3febe55a	1.8429368
216	0xbc3dc777	-0.011583201
217	0xbf56ddc2	-0.83932126
218	0xbd2e2c7c	-0.042522892
219	0xbd845dc4	-0.06463197
220	0x3d3b725c	0.04576336
221	0xbf7353db	-0.9504983
222	0x3d9d4972	0.07680024
223	0xbe862fcd	-0.26208344
224	0x3c565aab	0.01308314
225	0xbf06d25f	-0.5266475
226	0x3d87decb	0.06634291
227	0xbc03ea89	-0.008051523
228	0x3f1caa9a	0.6119782
229	0x3f90ad9d	1.1302983
230	0x3bd3fcb7	0.006469335
231	0xbcb4e356	-0.022081058
232	0x3da9c609	0.08289725
233	0x3d49ef38	0.049300402
234	0xbe627b79	-0.22117414
235	0x3ebfb83b	0.37445244
236	0xbf10005d	-0.56250554
237	0xbebe51b9	-0.37171724
238	0x3fd633da	1.6734574
239	0x3f340b2d	0.7032955
240	0x3f7deaf5	0.9918664
241	0x3db4b918	0.08824366
242	0x3d6b4829	0.057441864
243	0xbf8b3914	-1.0876794
244	0xbf595267	-0.8489136
245	0x3ffcd438	1.9752264
246	0x3f94a802	1.1613772
247	0xbe94a155	-0.29029337
248	0x3cbc78a2	0.023006741
249	0xbf8ac10a	-1.0840161
250	0x3d9fc911	0.07802022
251	0xbeffe1a8	-0.4997685
252	0x3f669df7	0.90084785
253	0xbfa21b9f	-1.2664679
254	0xbf3f873b	-0.7481572
255	0x3f0f29f0	0.55923367

net.4.bias f4 [4]
0	0x3e8249e7	0.25447008
1	0xbdd81d77	-0.10552495
2	0x3ee9dc1e	0.4567575
3	0xbb0f0495	-0.00218228
