experiments/LunarLander-v2-descrete-hyperpra-tunnig/bz/128/model.pt (torch, 114135 bytes, 6 tensors)

net.0.weight f4 [200, 8]
00000000: b297 49be 761f 48bf fb9f 2b3f 9d53 debf
00000010: adbb 6bbf 5b19 4e3f 1db7 1dc0 d903 e73e
00000020: 8bae 8cbf befa f9bf 1052 e2be 3ea7 b33f
00000030: 0e14 7f3f 8ae5 c8be 7b39 073f e1be 0c3f
00000040: 826c 5fbd 93cf 0fbf 2bf8 6bbd bf5b 01bf
00000050: 71c2 a03e 2202 83bd 8aab 57be dbc3 ef3d
00000060: 50f2 be3e 12d0 9e3c 4067 9b3c 6cc2 80bf
00000070: c368 b1bf c730 ca3f a26d 4cbf e09b 78be
00000080: 15e6 66bf 860b 9fbd 5d40 28be e9f3 713c
00000090: 4335 70bf c696 973f 4524 6bbf e297 643e
000000a0: 333a bebd 31b8 c4be a08a dbbe 3d39 ebbf
000000b0: 77b1 ed3f 70c9 a6be 7271 55bf a876 babf
000000c0: 7743 cdbe 8ecf b0be d110 aa3e 1186 12bf
000000d0: 3b5f c43f 7ac6 953e 2508 8bbf 9ee1 653f
000000e0: 7cd6 16bc 9c6b 43bd c35e e83d cbdd 133d
000000f0: c69e 43c0 e32a e83a 2415 a7be 19ef 6dbe
00000100: 894b a33f bf9a a5be 6672 303f aade b6bf
00000110: 02b8 b4bf cc27 383f 64df 8ebe 96e3 50bd
00000120: a800 96bf 180b 583f 3c5d a33f b99c a33d
00000130: fa1c 0ec0 8010 88be fd73 93bf 1ae1 853f
00000140: 6cdb af3d 40c1 5abf 970f c3be 5295 eebe
00000150: 74cb 4f3e 618f d93f bb43 6e3f bf7e 96bb
00000160: 4730 273f fab9 05c0 177b 0fbe e673 0ac0
00000170: c39d bfbf 79d9 15bf 5bad fc3e 5c33 4c3f
00000180: c31f a93e af6b 963e 93eb ecbe 3959 5fbf
00000190: 3710 c13e 1b6f 24bf f352 033f ad4c 90bf
000001a0: b580 a0be f3a3 83bf 45ea 67bf a791 61bf
000001b0: 426d e23f 77ed 963f 5371 703f 8285 28be
000001c0: 8015 ac3d 7191 2dc0 5ab1 84be 82c5 14c0
000001d0: 0e1f 8bbf 3849 113e 1009 a73e bf32 4bbb
000001e0: 1d25 c63e e24f 86bf 3a9e f23d 5da0 80be
000001f0: f623 9cbe 87de d5be 11ba a0bf afd1 813e
00000200: 00c2 c0be 5b0b 483f 9eee 53bf d38d 613e
00000210: 0ef8 82bf 32d7 753f fe21 043d 12c4 4d3c
00000220: 62fd 56be 55e6 2c3e 101c a1bf 29dc 463e
00000230: ab05 0dc0 07f1 cdbf d1fd 5dbf 6390 293e
00000240: 3c66 0940 e00b 76be 35d8 183f a1bf 1f3f
00000250: 5320 913f 4c7c ae3e c119 24be 8243 9d3e
00000260: bde4 febe 86a7 3abe 6f7e a03f cd21 d8bf
00000270: 68df 543f 5cd9 863e 01e1 10c0 9e4a 3dbf
00000280: ff39 20be 4088 fabe 3f21 1a3f b9c8 d5bf
00000290: 5b54 48bd b752 a2be 0dca 40be 2b52 863e
000002a0: e360 90bf 19db bbbf 1ba6 06bf b612 9dbf
000002b0: cd63 89be c945 2bbf 33aa cebe ab3a 92be
000002c0: 3cd2 1ebc 26fe 5f3f c0fc 84bd e0c4 2ebf
000002d0: 7234 6dbf c67d e83f cba6 743d 004d 1abf
000002e0: 8af1 8bbf 0f3d c7bf 04a7 803d 7f45 58be
000002f0: fea9 19c0 3370 9e3f cf39 293f ebb3 edbe
00000300: dd2b fbbd f061 063f 912a f7bd a659 2dbf
00000310: c0dc 14be c945 af3e 3a68 923e d5ef 58bf
00000320: ce80 08bf c54c aabf 3387 17c0 4cac 7cbe
00000330: 024b 37bf 53a9 8abf a063 313e 35b3 773d
00000340: 4ae2 2d40 d5f7 7bbf 0104 dcbe c7be 263f
00000350: 0ab7 0640 1ea4 003e 4a0f edbe 94a7 fe3e
00000360: b45d 383f 5d20 973f 909a 883f 9c70 4a3e
00000370: 7622 49be 71ae 883d 7f49 763e 271f 2f3f
00000380: 1eac 72bf aeb4 92bd 0c86 4fbf 6396 e7bf
00000390: 8180 673f 31f2 08be 2703 9a3e e364 88bd
000003a0: 10ca d2be 4163 38be 40f4 a2bf 9c46 d33d
000003b0: 5bc0 9f3e 24b9 dbbe f753 26bf 12ba 09bf
000003c0: ac07 71be c663 c4bf 4b22 343f cea3 17bf
000003d0: 83e3 babf 9c4c 0d3f 60d7 e63e d5c3 87be
000003e0: 16da 1b3f 964b d3bf 7911 e93d 791a b3bf
000003f0: a450 1ebe b830 f83c 4eef c0bf 9e49 993e
-0.19686773 -0.78173006 0.67040986 -1.7369267 -0.92083246 0.8050744 -2.4643013 0.45120123
-1.0990766 -1.9529645 -0.44203234 1.4035413 0.99639976 -0.39237624 0.52822083 0.5497876
-0.05454684 -0.5617611 -0.05760972 -0.5053062 0.31398347 -0.06396891 -0.2106153 0.11707278
0.37294245 0.019386325 0.018970132 -1.0059333 -1.3860096 1.5796136 -0.79854786 -0.24278212
-0.9019483 -0.0776587 -0.16430803 0.014767625 -0.9383127 1.1842887 -0.9185222 0.22323564
-0.09288444 -0.38421777 -0.428792 -1.8376843 1.8569783 -0.3257556 -0.8337623 -1.4567461
-0.40090534 -0.34533352 0.33215955 -0.5723582 1.5341562 0.29252988 -1.086186 0.8979739
-0.0092064105 -0.047710046 0.11346199 0.03610019 -3.0565658 0.0017712977 -0.32633317 -0.2323574
1.2757427 -0.32344624 0.6892456 -1.4286702 -1.4118655 0.71935725 -0.2790481 -0.050998293
-1.171895 0.8439193 1.2762828 0.07988877 -2.2205186 -0.26575089 -1.1519772 1.045932
0.08586773 -0.85451126 -0.38097832 -0.46598297 0.20292455 1.6996881 0.930721 -0.004592746
0.6530804 -2.089476 -0.14011799 -2.1633239 -1.497002 -0.5853496 0.4935101 0.7976587
0.33032045 0.2937903 -0.4627348 -0.8724552 0.37707683 -0.64232033 0.51298445 -1.12734
-0.31348196 -1.0284408 -0.9059184 -0.8811287 1.7689593 1.1791219 0.9392292 -0.16457179
0.08402538 -2.712002 -0.25916559 -2.324555 -1.0868852 0.14188087 0.32624102 -0.0031005589
0.3870019 -1.0493128 0.118465856 -0.25122347 -0.30496186 -0.41771337 -1.2556783 0.25355288
-0.3764801 0.7814233 -0.82785976 0.22026758 -1.023195 0.96031487 0.03225898 0.012558954
-0.20995095 0.1688474 -1.2586689 0.19419922 -2.203471 -1.6089181 -0.8671542 0.16558985
2.146865 -0.24027967 0.59704906 0.6240178 1.133799 0.34079206 -0.1602545 0.30715567
-0.49783888 -0.18227968 1.2538584 -1.6885315 0.8315339 0.26337707 -2.2637331 -0.7394198
-0.15647124 -0.48932076 0.6020698 -1.6701881 -0.048908573 -0.3170373 -0.18827076 0.26234564
-1.1279567 -1.4676238 -0.52597207 -1.2271335 -0.26833954 -0.6690336 -0.40364227 -0.28560385
-0.0096936785 0.87497175 -0.06493521 -0.6826916 -0.9265815 1.8163383 0.05972938 -0.6027374
-1.0933087 -1.5565509 0.06281856 -0.2112026 -2.4010005 1.237799 0.66103834 -0.4642633
-0.12264226 0.5249319 -0.12068666 -0.6771492 -0.14537334 0.3423293 0.28595144 -0.84740955
-0.5332154 -1.3304678 -2.367627 -0.24675101 -0.7159883 -1.0832924 0.1732316 0.06047364
2.7169366 -0.98425037 -0.42971805 0.65134853 2.1049218 0.12562606 -0.46300727 0.49737227
0.7201798 1.1806751 1.0672169 0.1976952 -0.19642052 0.06673897 0.24051474 0.6840691
-0.9479388 -0.07163368 -0.81063914 -1.8092769 0.90430456 -0.13373639 0.3008053 -0.066598676
-0.41169786 -0.18006612 -1.2730789 0.10316202 0.31201443 -0.4291469 -0.6497187 -0.53799546
-0.23538083 -1.5342948 0.70364827 -0.5923432 -1.4600681 0.5519502 0.45086193 -0.26516595
0.6087965 -1.6507442 0.11380286 -1.3992454 -0.1546045 0.030296668 -1.507303 0.29938978

net.0.bias f4 [200]
00000000: 5372 6e3e 061c e6be e495 dd3e 0f75 3d3f
00000010: 955a 163e 1cea 71be cc00 c5be 973c 8b3d
00000020: 650d 973e ad35 1fbf c653 d53e fe80 53be
00000030: 64fb 203d 29b6 a8be e294 00bf 0731 093f
00000040: 7fb7 f23d 47e7 083e b530 363e 298a 7a3e
00000050: f86e b539 9267 533f 07da 113e e746 8dbd
00000060: 0ab6 ec3e f953 f9bd c4c9 9bbf 1c3e 4dbf
00000070: a9d0 dcbe 4948 aabd c528 973d 9ef1 5d3f
00000080: c833 02bf 4df7 833e a3d3 6cbf 8d09 da3e
00000090: 1db1 993e c3fc 6abf d049 77be 51e3 52bf
000000a0: 8082 eabd 50b9 d0be e256 583f 8641 8fbf
000000b0: 30ef 5dbc 7027 41bf ab38 0c3f 9d78 083f
000000c0: 50b9 adbd f0ed a9be a985 fdbd 8217 4b3e
000000d0: 93ca 943e a910 143f 491b e23d 2b52 6cbe
000000e0: 65f1 023f f433 d13e 9ef5 293f db0d 4ebf
000000f0: 6276 8abe 1568 0c3d ed5a 833d e25f 1c3f
00000100: 62ad 94be f934 663f 36e8 f33e 758a 513f
00000110: 5d90 fabd aaed 0b3f 247b fcbe 2f85 b03f
00000120: 069e cfbd ab76 87bf e6ca 6e3e fd82 a5bf
00000130: bcb3 9dbe 7974 3abf 70e9 cf3e 08e5 2fbf
00000140: 4972 c5bd af04 31be 68b1 153e 622d 72bf
00000150: 01a1 93bc c8e8 34bf 84cc b53e 0345 0a3f
00000160: 9713 babe b865 a23f d4cf 48bf 7f5f 823e
00000170: ac92 5abf c562 343b 5d07 213f 4404 87bf
00000180: 0830 6c3f 51b2 0cbe 4e7a 02be cf4c 163e
00000190: 1970 fabe 3c97 433e ca58 2dbf ff87 92bf
000001a0: 03cc bf3b 1211 b53d ab90 a0bf 78a8 6d3f
000001b0: c37c b83e 53c0 d7be eb2b 6c3e 7946 f83d
000001c0: e28d c13e 846e 0bbf 3991 eabd b33c bf3d
000001d0: c51e 2ebf 8d51 db3e ad14 7abf 32f6 b9be
000001e0: 8e0f 823e e495 cfbe 91fd fabe b433 77be
000001f0: 033c 13bf 36de 66be 1093 fb3c 2439 fbbe
00000200: 7771 84bf 7d36 9f3e 39fb 4cbf 135d 0cbf
00000210: 7e48 413e 8fe1 0ebf 4690 51bf d3c6 f43e
00000220: 5b78 983b d880 8cbf a53b bcbe b7e0 5abe
00000230: 1108 e33e c9d8 dabe 3750 e5be f3b0 763d
00000240: 9c41 37bf 21d9 b2bb d9c7 1e3e 3ed9 f3be
00000250: 1d9d 2cbc 36ad 04be fc7d 39bc bc95 9dbe
00000260: 8b22 333d 3f0b 7c3e f60a 64be 4367 2abe
00000270: 6a29 8d3e cab9 5ebf 37e2 b7be 0ecf 42bf
00000280: f40d 32bf fa4b 15be af34 463e ed29 cdbe
00000290: 01aa d6be fb2f 773e 7777 6abf 6476 313f
000002a0: f936 873f 8f01 1bbe debf 3d3f e953 1abf
000002b0: 896a 003f fcbc c5bd 678d 7cbf bc69 1dbe
000002c0: 7abd f73e 6450 593e 67e0 583f 21c8 abbe
000002d0: 02b6 86bf ca10 a5be 69c2 be3e 7892 17be
000002e0: 0022 30bf 636f f83e 7771 06be 90ab bd3c
000002f0: e4f7 913c 7787 b63e b9d1 103c f1e8 44bf
00000300: fe7c 38bf 0e6b a9bd 43bd 11bf 7d30 0f3f
00000310: a33c a9be 4526 083e 13a1 e5be 4713 37be
0.23285799 -0.44943255 0.4327842 0.7400674 0.14682992 -0.23624462 -0.3847717 0.06798666
0.29502407 -0.6219128 0.41665477 -0.20654675 0.039302245 -0.32951477 -0.5022718 0.53590435
0.11851405 0.13369475 0.17792018 0.24466766 0.00034605688 0.8257991 0.14243327 -0.06898289
0.46232635 -0.1217422 -1.2170949 -0.80172896 -0.43127945 -0.083145685 0.07380823 0.86696804
-0.5086026 0.25774613 -0.9251043 0.42585412 0.3001794 -0.91791934 -0.24149251 -0.8237811
-0.11450672 -0.40766382 0.8450757 -1.1191871 -0.013545796 -0.754508 0.5477397 0.5330904
-0.08482611 -0.33189344 -0.12379009 0.19833186 0.29060802 0.5783792 0.110403605 -0.2307822
0.5114959 0.4085995 0.6639041 -0.8048989 -0.27043444 0.034278948 0.06413827 0.61083806
-0.2903853 0.8992458 0.476381 0.81851894 -0.12234566 0.5465952 -0.493127 1.3790644
-0.101375625 -1.058309 0.23319587 -1.29306 -0.3080119 -0.72833973 0.40607786 -0.6870885
-0.09640939 -0.17286943 0.14618456 -0.946005 -0.018021109 -0.70667696 0.35507596 0.54011554
-0.3634307 1.2687292 -0.7844212 0.25463483 -0.85380054 0.0027524692 0.6290186 -1.0548177
0.9226079 -0.13739897 -0.12741968 0.14677738 -0.4891365 0.1910066 -0.67713606 -1.1447753
0.0058531775 0.088411465 -1.2544149 0.9283519 0.36032686 -0.4213892 0.23063628 0.121228166
0.3780356 -0.5446551 -0.1145348 0.09337749 -0.680157 0.42835656 -0.976878 -0.36320645
0.25402492 -0.40544045 -0.4902158 -0.24140817 -0.57513446 -0.22545704 0.030709773 -0.49067032
-1.0347127 0.3109626 -0.80070835 -0.5482952 0.1887531 -0.55812925 -0.8186077 0.4780794
0.0046530194 -1.097682 -0.36764255 -0.21374784 0.44342092 -0.4274352 -0.44787762 0.060227346
-0.71584487 -0.0054580127 0.15505923 -0.4762668 -0.010535506 -0.129567 -0.011321541 -0.307783
0.043734115 0.24613665 -0.22269806 -0.16640954 0.2757066 -0.8700224 -0.35914776 -0.7609719
-0.6955254 -0.14579764 0.19356035 -0.4007105 -0.41926578 0.24139397 -0.9158854 0.69321275
1.0563651 -0.15137313 0.7412089 -0.60284287 0.5016256 -0.096551865 -0.9865326 -0.15372366
0.48386747 0.21222073 0.8471741 -0.33551124 -1.0524294 -0.32239372 0.37257698 -0.14801967
-0.6880188 0.4852248 -0.13129221 0.023153096 0.017818399 0.35650226 0.008839064 -0.7691794
-0.7206572 -0.08272372 -0.56929415 0.5593336 -0.33054075 0.13295849 -0.44849452 -0.17878447

net.2.weight f4 [128, 200]
00000000: 891b 76bd f581 103d 07b3 e83c fb53 1ebd
00000010: 2b5f 55bd 1951 8b3d 078b 40bd d2e9 59bd
00000020: cd17 90bd 4983 adbc eb20 4b3c 88d6 8bbd
00000030: eac4 c0bc 241d 1bbd 552f 573c 1ba5 b03c
00000040: 30bd e43c f081 08bd a13f fe3c d680 9639
00000050: 4dd2 89bd deff 4cbd 828c 1ebd b927 2ebd
00000060: 5eda a93b cd6a 043c 6ee4 c8bd 2fbf c53c
00000070: e24c 8f3d 86a4 5dbc cd04 0dbd 81dc 823d
00000080: 4fef 11bd d770 00bd 71e2 a2bc 977e 6abc
00000090: 38cb 5fbd 69a2 1a3d f513 4dbd d223 b4bd
000000a0: 1952 85bb 4a44 3dbb d820 5ebd 31ed 79bd
000000b0: eac1 86bb f5a7 36bd 6e00 0e3d 71e2 d9bc
000000c0: ad25 e3bc df1f 0e3d 89a7 95bc 918a c93c
000000d0: 76e7 98bd 07d9 d6bc 5fcd 22bd 0c3e 723c
000000e0: ade2 6bbc 971f c83c 82df 643d f83f e3bb
000000f0: 17e0 7fbd 0d1d 43bc 1b8a 653d e969 63bd
00000100: 2351 21bd ec71 46bd c2ad 803d 4cdb c8bd
00000110: f846 99bd b1be 493c 529d 89bb c836 bbbc
00000120: f74a 37bd f62a 1cbd d8b2 953c 154b f1bc
00000130: 2639 26bd a8f5 4bbd edca 403d 0172 98bd
00000140: 69f6 93bd af55 df3c 9579 163d 5f33 bcbd
00000150: 7395 543d 7cf7 3c3d f477 a2bd 88fe ba3c
00000160: 510e 313d 0ffd 73bd 15d6 bcbd 53d5 713d
00000170: 8af8 2fbc ceaf f7ba 35d7 e8bc 6745 cdbc
00000180: 17be 17ba ec75 f6bc c645 94bd 7cad 043d
00000190: 4def eebc 625b b2bd 775f 91bd 87b9 173d
000001a0: cf3f 88bd 4f7b 3b3d 29f8 cb3a 726c 3fbd
000001b0: f5d6 84bd 89e7 87bb 4a23 efbc bbbb d7bc
000001c0: f6fe babd bc08 fcbc df5d 3ebd 012b 6abd
000001d0: c629 18bd fa1a f1bc c5a3 8bbd 948a af3b
000001e0: 897a 3dbd ceeb dfbc 6851 2bbd 622b 4bbb
000001f0: 9423 3b3d ff56 67bd 662e 2a3d 3a61 a5bd
00000200: ace2 d93c 9785 b0bd 8d8f 8cbd 7c34 79bd
00000210: cef9 ac3c 0368 b9bc 69a0 873c 91db a0bd
00000220: bcef 2f3b 520b 32bd efa7 0cbd 68e8 80bd
00000230: c960 2bbd ff0f d13c 1021 cbbd 687e 1f3d
00000240: 2769 92bc 0021 9ebd ea6a bebd a893 6bbd
00000250: 270e 663c b67a 42bd 53a6 2bbc 2915 a6bd
00000260: 77e6 313d 039d 64bd 683a 82bd fff0 0abd
00000270: 72d1 7ebd 0229 293d f9a3 563d a0f4 013d
00000280: 8a6e 17bd 790c 92bd a80d 8e3b d239 5e3d
00000290: f966 683d aa4d 1d3d 98f8 80bd f409 213d
000002a0: d186 243c 6621 aebd 81d0 483d 6089 40bd
000002b0: ade6 213d c453 6abd 0fdc 2f3d 0839 f43c
000002c0: b27f abbc dbcc 8e39 122f b3bd d76b 9bbd
000002d0: 416d 3a3d 7032 89bd f38a 0ebd 8c7a f3bb
000002e0: d62f 95bc 0f2d 1f3c b95c 7fbd 5a46 98bd
000002f0: cb4b 52bc 07f8 d7bc 8bb5 3fbd aca4 7dbd
00000300: d60f c6bc 380d 493d 915d c1bc a58b d43c
00000310: a129 10bd 409d 4ebd 0be2 643d be51 b1bd
00000320: 8f63 6e3f 9407 6cbe 90c4 57bf 2bff a0bf
00000330: 5768 043f 20e9 633e 2953 203e 0d84 543d
00000340: 612b 6f3f 9e41 cabe fc24 86c0 e698 39c0
00000350: d121 3f3f fba6 67c0 1c6e 0f3e 5e34 85bf
00000360: 4516 813c d14e 0dc0 e9ca 243f 2b91 b23f
00000370: 9e9c 0f3d 3eee b8bd cbf4 493f e8bc 20be
00000380: 8f1d 133f aa91 8ebe 4db5 833c ee10 973e
00000390: ae82 17bf 7100 3abf 84a8 43c0 6825 323f
000003a0: 4329 fcbf 652c ecbf ceee 67c0 afdc 843f
000003b0: 7d80 763f 8328 aa3e 510a 1e3f 26a7 1ac1
000003c0: fdef 273e 10c4 833f 13fe 793f 5e98 8abf
000003d0: 3982 8dbf 35ab b7c0 a0a0 f23e 1dca 0b3f
000003e0: 64ba 243f 8ad8 31c0 351a a83e f35a 9ebf
000003f0: 3c78 c0bf 9380 6e3f 564e 303f e1ff 21be
-0.060084853 0.035280187 0.02840568 -0.03865431 -0.052092712 0.068025775 -0.047007587 -0.053201504
-0.0703579 -0.021180766 0.012397985 -0.06828028 -0.023531396 -0.037869588 0.013133843 0.021563103
0.027922243 -0.033327043 0.0310362 0.0002870622 -0.06729565 -0.0500487 -0.038708217 -0.04251835
0.005183502 0.008082104 -0.098091945 0.024139015 0.06997086 -0.013527995 -0.034428407 0.06389714
-0.035628613 -0.031357612 -0.019883366 -0.014312408 -0.054637164 0.037752543 -0.05006786 -0.08795895
-0.0040686247 -0.0028879815 -0.05423054 -0.06101722 -0.004112472 -0.04459377 0.03466838 -0.026597233
-0.027727926 0.034698363 -0.018268364 0.024602206 -0.07466023 -0.026226534 -0.03974664 0.014785301
-0.014397305 0.024429126 0.055877216 -0.006935116 -0.062469568 -0.011908782 0.05603991 -0.055520926
-0.03938402 -0.048448488 0.06283142 -0.098074526 -0.07484239 0.012313531 -0.0041996622 -0.02285327
-0.044749226 -0.03812691 0.018273756 -0.029454747 -0.040581845 -0.049794823 0.047068525 -0.074436195
-0.072247334 0.027262537 0.036737043 -0.09189486 0.05190034 0.046134457 -0.079330355 0.022826448
0.043226544 -0.059567507 -0.092205204 0.059041332 -0.010740409 -0.0018896998 -0.028422931 -0.025057508
-0.00057885185 -0.030085526 -0.07239871 0.03239201 -0.029166842 -0.08708836 -0.070982866 0.037042167
-0.066527955 0.045771893 0.0015561628 -0.04673428 -0.06486312 -0.004147474 -0.029191632 -0.026334634
-0.09130661 -0.030765884 -0.04647624 -0.057169918 -0.037149213 -0.029431809 -0.06818346 0.005357096
-0.046259437 -0.02733412 -0.041825682 -0.00310012 0.045688227 -0.05647945 0.041548155 -0.08075185
0.026597343 -0.0861923 -0.06863318 -0.06084107 0.02111521 -0.022632604 0.016555982 -0.07854379
0.0026845774 -0.043467827 -0.03433984 -0.06294328 -0.04184035 0.025520323 -0.099184155 0.03893891
-0.017872406 -0.07721138 -0.09297736 -0.057513863 0.01404146 -0.047480308 -0.0104766665 -0.08109505
0.04343268 -0.0558138 -0.06358796 -0.033921238 -0.06221146 0.041298874 0.05240247 0.031727433
-0.036970653 -0.07131285 0.004335124 0.05425436 0.056738827 0.038404144 -0.062974155 0.039316133
0.010041908 -0.08502464 0.04902697 -0.04700601 0.03952663 -0.05720879 0.042934474 0.02981235
-0.020934913 0.0002723698 -0.08749212 -0.07588928 0.04551435 -0.06699073 -0.03480048 -0.00743038
-0.018211287 0.009715333 -0.062344287 -0.074352935 -0.012835453 -0.026363386 -0.046803992 -0.06192462
-0.024177473 0.049084872 -0.023604186 0.025945494 -0.03519595 -0.050442934 0.055879634 -0.08658169
0.93120664 -0.23049766 -0.84284306 -1.2577871 0.5172171 0.22256899 0.15656723 0.051883746
0.93425566 -0.39503187 -4.1920147 -2.8999572 0.74660975 -3.6195667 0.14006847 -1.0406606
0.01575769 -2.2079356 0.64372116 1.3950552 0.03506147 -0.09029816 0.7888915 -0.15697062
0.5746698 -0.27845508 0.016077662 0.29505104 -0.59183776 -0.72656924 -3.0571604 0.6958833
-1.9700092 -1.8451048 -3.6239505 1.0379847 0.9628981 0.33234033 0.6173449 -9.665808
0.16400142 1.0294209 0.9765331 -1.0827749 -1.1055366 -5.7396493 0.47388172 0.54605275
0.6434691 -2.7788415 0.32832494 -1.2371505 -1.5036693 0.9316494 0.6886953 -0.15820266

net.2.bias f4 [128]
00000000: 47d0 5cbc 3342 403f 983b 8ebe 2780 a0be
00000010: 23cc d0bd e661 2c3d 06d7 f8be abd2 94bd
00000020: 3f88 403e 8d15 afbd d414 9abd 9205 963e
00000030: 51f3 613e e17f 8f3e edc3 99bd 45e5 a8bd
00000040: 0728 42bc 27bd 2d3e d3be 033e b0ef 6a3b
00000050: f516 0ebe 6c47 18be 5d17 b4bd 7174 9bbd
00000060: f350 c6bd 55a8 adbd 77bd 863d 872a f4bd
00000070: 1389 3a3c fdb7 853e 8b33 4abf 1e5c d43d
00000080: 85a3 87bd 5a66 adbd 6339 cb3e 2d8a 293d
00000090: e2a9 52bc ef36 c9bc ab7f 88bc ccde 8d3e
000000a0: 8483 4d3f 72c6 5e3e a97d b6bd 887c 013d
000000b0: a88d da3c c8d0 0abe 2c64 203e 8bd5 713d
000000c0: 710c d0be 33bb 54be 0d9c c73e 1bb5 eb3d
000000d0: 8bcf 6f3e 22f1 933e 3297 13bd bf24 c73b
000000e0: b8fe ecbe d5dc 693e 8b6b 0bbd efca 043e
000000f0: f5be 2d3e cbaa a03e 338b c13e 8be0 27bc
00000100: 6b28 3abf 5588 bebc 054e a1bd 5152 b7be
00000110: ab87 69bd a2d2 5ebb 863e 97be a632 a4bd
00000120: be2f f1bd 57c8 b73e 973e 843e 8bcd e13b
00000130: 82be 3fbd 7a2b e63c 575b 71bb a64c 5cbd
00000140: dc8e babd 08a3 e9bc e11b 583e a202 73bd
00000150: ed68 763b 8abc 4a3e ecea b63e 0aed d33d
00000160: 52cf 9ebc cd60 85bc 946a 01be dc90 8bbe
00000170: 6dff debd 6153 c43c af2d 693e 80be 42be
00000180: 43c4 493e 052a 1a3e c684 3fbd 0e88 c23e
00000190: 2029 a3bd a410 8dbd a3c1 463f 75e6 fdbc
000001a0: cb28 84bd e553 8bbd 947a 1f3f 7914 e73b
000001b0: 68a4 cc3d 1f00 86be fdf8 90bd 67d3 f2bc
000001c0: 6709 3bbd ad39 b93d 9f46 393e 7cc1 58bd
000001d0: 0165 e7bd fb63 0e3e f90d 2b3e 5a0e 9dbe
000001e0: 2cdb 37bd e545 233e 44bb cebd 5539 a53e
000001f0: 4cf4 aebd beb0 8fbc 6286 b6ba ccab 97bd
-0.013477392 0.7510101 -0.2777984 -0.31347772 -0.10195186 0.04208555 -0.4860155 -0.07266744
0.18801974 -0.08549032 -0.07523504 0.29301125 0.22065474 0.2802725 -0.07508073 -0.08246855
-0.011850364 0.16966687 0.12865762 0.0035848431 -0.13875945 -0.14870995 -0.08793519 -0.07590569
-0.096834086 -0.084793724 0.06579106 -0.11922174 0.01138522 0.26116934 -0.789849 0.103691325
-0.06622986 -0.08466788 0.3969222 0.04139154 -0.012857886 -0.024562327 -0.01666244 0.27709043
0.802788 0.21755388 -0.089106865 0.031612903 0.026678875 -0.13556206 0.15663213 0.05904154
-0.40634492 -0.20774536 0.38986245 0.115091525 0.23419015 0.28894907 -0.036032863 0.0060773785
-0.46288085 0.22838147 -0.034038108 0.12968038 0.16967376 0.31380305 0.37801513 -0.010246406
-0.7271792 -0.023258368 -0.07876209 -0.3580499 -0.05701415 -0.0034000059 -0.2953989 -0.08017473
-0.11776684 0.35895035 0.25829002 0.0068909577 -0.04681254 0.028096903 -0.0036828124 -0.053784035
-0.091092795 -0.028520122 0.21104385 -0.059328683 0.0037599162 0.19798484 0.35726106 0.10347946
-0.019385967 -0.01628151 -0.12638313 -0.27258956 -0.10888562 0.02396554 0.22771333 -0.19017982
0.19703774 0.15055092 -0.046757482 0.37994426 -0.07966828 -0.068879396 0.77639216 -0.03099368
-0.06453093 -0.06803111 0.62296414 0.007052001 0.099922955 -0.26171967 -0.07078741 -0.02964182
-0.045663264 0.09044204 0.18093346 -0.052918896 -0.11298562 0.13905327 0.16704549 -0.30675012
-0.044886753 0.15944631 -0.10094312 0.32270303 -0.0854269 -0.017540332 -0.0013925547 -0.074058145

net.4.weight f4 [4, 128]
00000000: 115c 593d dfe1 e33f ed2e 1c40 11be febf
00000010: b338 f43c 570e 0cbf f171 893f 903b f4bc
00000020: 1ec3 33bf d94d 7abd 2f26 6b3d 031e 3bbf
00000030: 3407 49bf 0a7f 98bf 1bc6 b8bc a74a af3c
00000040: bd94 7e3d 6a25 0cbf 6df5 31bf 2bfc 70bd
00000050: a8d9 163d 9f9f 8ebe 3cab 96be 4f77 73bc
00000060: c074 13bf 10a1 313d b9ed ec3f df3b c0bf
00000070: dc02 c63f 0b6a 0dbf 928a 5bbf 3b04 4b3e
00000080: d839 343f 58d0 693d 7b5b 37bf 93e9 38bf
00000090: 59f1 7e3d a25a 39bc 032b 69bc 88f3 1abf
000000a0: f3f3 923f 7f19 63bf 3387 f43f af67 1040
000000b0: 0900 50bf a802 153d 23f6 2440 1c2b 46bf
000000c0: 863a 123f c355 1ebf 0921 bf3e 4b6c 133f
000000d0: 19d1 69bf 0df9 873f e707 9f3d abd6 bcbc
000000e0: 43aa d9bf 85d3 e7be 6f01 75bb 914f d63f
000000f0: 5b95 24bf a6d1 0940 278a cfbf b1a5 603d
00000100: 0f3e 593b 0d07 62bf d36c 35bd b6eb 5ebf
00000110: a4bd 963f 3c95 e3bc be10 c2bf e702 aa3d
00000120: 7488 ae3d 215b 053f ca8f 9dbf 2ebf 9bbf
00000130: 2644 11bd 083f 113d 2525 5cba 9ab1 4a3d
00000140: 97d1 b8bc fb98 7cbf 6401 d93f c960 d23c
00000150: a4d0 783d 1584 19bd 2764 d0be e6b2 473f
00000160: aa4e 2ebb 38b4 013d f912 0b3e f43c 90bf
00000170: 380e 263d b2cc 933c d5c4 7dbf 0f26 803f
00000180: 3ace 3e40 dd12 8a3f 8dd4 6e3d 9e1b bc3f
00000190: 5ac5 3a40 c038 34bf 2baf ed3f 83a7 18bf
000001a0: b7a4 00bd f148 ec3f 063b 88bf ef48 50bc
000001b0: 6baf bebf 10a4 85bf a95f a4bc d108 b93c
000001c0: 8c45 613d d2e4 b53f 0b9d efbe 8de1 923d
000001d0: cbef a6bc bd77 953f af67 743f ccc1 15c0
000001e0: bac2 ab3d 3272 c9bf 6922 e93b 7b9a c1be
000001f0: 0f18 0b40 d641 583d f0a1 8bbd fbab 013c
00000200: 4c23 a63d eebf f03f 3938 a33f 8421 06c0
00000210: f1d4 c63c ad78 73bf e8f5 8a3f ddb8 dcbd
00000220: 6697 8ebd 9727 cbbd c0d0 a73d c1b3 a2be
00000230: e5a2 913f 9a24 90bf 8cff e73b 5488 973d
00000240: 1925 2dbd 1b7e 8ebf f6a2 78bf e442 293c
00000250: 5487 84bf b688 dfbf a927 3ebf b28a 2e3d
00000260: 721f 553f 7dcd 823c b50b fa3f a58a d23e
00000270: 226e 7e3f e8da 523e b4ea bebf 2c06 783f
00000280: 9a43 863c 8009 e4bc 5adc 56bf 3d67 ff3d
00000290: 40bb 673d 940e 80bc 9bbf 7fbc 0e00 41bd
000002a0: 787e ad3f 065e 38bf e2bd ec3f 1e97 1040
000002b0: 7521 7fbf 1728 253d 9c94 5abf 20d4 8dbf
000002c0: 7ea3 773f f72d 1abf f3b0 eabe 0f0d 673f
000002d0: ec93 32bf 9ebe 6c3f f147 bdbd a75e 333c
000002e0: c0c2 83bf 7ba5 4dbf 09e5 ec3b 3750 0740
000002f0: e4e6 43bf 3725 0140 ee60 f3bf a9a8 4dbd
00000300: a23d c1bc 5ab2 46bf e977 8abc d43e a3bf
00000310: bb9b 75bf 5794 f93c f49b a6bf 19a5 5b3d
00000320: 3fa7 f03e 44ec c9bd 5ac3 50bf a139 a0bf
00000330: bf8e b5bc 2aad bb3b 79fe 7a3c b36b b7bb
00000340: 2e95 9c3d e10c 20be 345c c43f b13a d6bc
00000350: 4edc 383c 575f 3d3f 64bc 6cbf 2b10 1840
00000360: 79be aabc ce4a c3bc 4039 6c3c 48d4 76bf
00000370: ad39 dbbc 60f3 8abd fe78 c5be 35c5 883f
00000380: 558d 6e40 5a14 e43f 4028 e13c 5cb6 ca3f
00000390: ee79 3840 d9bf 2fbf 1dea dc3f c5d1 9abd
000003a0: e276 313d 0178 9f3f ee95 81bf 4057 1b3c
000003b0: e9bf 92bf 5e4e 15bf 934a fabc f440 003d
000003c0: 8034 ecbc 1142 cc3f fdab 17bf fef2 a53d
000003d0: e709 0e3e 2322 7dbe c012 8a3f 2047 c8bf
000003e0: 72f7 be3c 4e88 133e c1ed fe3c 459e 43bf
000003f0: 0236 21bd 358a f13c b4cc 8c3c 51f7 c9bb
0.053066317 1.7803305 2.4403641 -1.9901754 0.029812193 -0.5470938 1.0737897 -0.029813558
-0.702196 -0.061109398 0.05740946 -0.7309267 -0.78526616 -1.1913769 -0.022555402 0.021397902
0.062153567 -0.5474459 -0.69515115 -0.058834236 0.036828667 -0.27856156 -0.29427516 -0.014859988
-0.5760002 0.04336649 1.8510047 -1.5018271 1.5469623 -0.55239934 -0.85758317 0.19825833
0.7040076 0.057083458 -0.71623963 -0.72231406 0.062241886 -0.011313112 -0.014231446 -0.6052785
1.1480697 -0.8871078 1.910376 2.2563283 -0.81250054 0.036379486 2.577523 -0.7740953
0.5712055 -0.6184961 0.3732989 0.57587117 -0.9133468 1.0622879 0.07765179 -0.02305158
-1.7005085 -0.45278564 -0.0037384888 1.6743032 -0.642904 2.153421 -1.6214036 0.054845516
0.0033148562 -0.8829201 -0.044293236 -0.87078416 1.1776624 -0.027781121 -1.5161359 0.08301335
0.0852212 0.52092177 -1.2309506 -1.2167718 -0.035465382 0.035460502 -0.0008397869 0.04948578
-0.022560878 -0.9867093 1.6953549 0.025680916 0.06074585 -0.03747948 -0.4070141 0.7800735
-0.002659718 0.03166601 0.13581456 -1.1268601 0.040540904 0.018041942 -0.99128467 1.0011615
2.981337 1.0787007 0.058308173 1.4695928 2.9182954 -0.70399094 1.8569082 -0.596306
-0.031407084 1.845976 -1.0643013 -0.012712701 -1.4897283 -1.0440693 -0.020065146 0.022587212
0.054997966 1.4210455 -0.46799502 0.07171927 -0.020378014 1.1677166 0.9547071 -2.3399534
0.083867505 -1.5737975 0.0071146977 -0.37813172 2.1733434 0.05279716 -0.068179965 0.0079145385
0.08112201 1.8808572 1.2751533 -2.0957956 0.02427146 -0.9510601 1.0856295 -0.107774474
-0.06962471 -0.099196605 0.08194113 -0.31777766 1.1377836 -1.126117 0.007080024 0.073990494
-0.042271707 -1.1132234 -0.9712366 0.010330889 -1.0353799 -1.7463596 -0.74279267 0.04261274
0.83251107 0.015967125 1.9534823 0.41121402 0.993868 0.20591319 -1.4915376 0.9688442
0.016389657 -0.027836561 -0.8392998 0.12470863 0.05657506 -0.015631951 -0.015609647 -0.047119193
1.355422 -0.7201847 1.8495448 2.2592235 -0.99660426 0.040321436 -0.8538301 -1.108036
0.96733844 -0.60226387 -0.45838127 0.902543 -0.6975696 0.9247836 -0.09242237 0.01094786
-1.0293808 -0.8033063 0.0072294516 2.114271 -0.76524186 2.0178964 -1.9013956 -0.050209675
-0.02358896 -0.7761589 -0.01690288 -1.2753549 -0.9594075 0.030466242 -1.3016343 0.053624246
0.470026 -0.09859517 -0.8154808 -1.2517587 -0.022162793 0.00572743 0.01531946 -0.0055975555
0.07645641 -0.15629913 1.5340638 -0.026151033 0.0112829935 0.739736 -0.9247496 2.3759868
-0.020842778 -0.02383938 0.014417946 -0.96417665 -0.0267609 -0.06784701 -0.38568872 1.0685183
3.7273762 1.7818711 0.027485013 1.5836902 2.882442 -0.6865211 1.7258946 -0.075595416
0.043326266 1.2458497 -1.012388 0.009481251 -1.1464816 -0.58322704 -0.030553138 0.031311944
-0.028833628 1.5957662 -0.5924681 0.08102988 0.13870965 -0.24720053 1.0786972 -1.5646706
0.02331135 0.14407465 0.03111923 -0.76413375 -0.039358146 0.029484848 0.017187454 -0.0061635156

net.4.bias f4 [4]
00000000: 4326 5f3e bfbc c03d 6baa 303f 03d4 563e
0.2179194 0.094110005 0.6901004 0.20979314
