experiments/LunarLander-v2-descrete-hyperpra-tunnig/lr/0.0001/model.pt (torch, 114135 bytes, 6 tensors)

net.0.weight f4 [200, 8]
00000000: 681f 9abe 95e6 51bd 5c2e dc3a 7c5b ca3d
00000010: e3e5 ac3e 6b82 523e c6ab a73d d7b0 9a3e
00000020: 398b 54be 5941 52be ad62 01bf 1710 853f
00000030: 7444 2ebe de91 373c 86b0 99be 3b25 4e3a
00000040: c7ac 0abe 92fc 763e 85f6 f43e 3e5b e33d
00000050: a958 333f a109 03bc eb97 07be f7ae cabd
00000060: 4533 023e b289 c03e 99f5 2dbc b7fc 40bf
00000070: b39c 3cbc 8b34 a5be 2a3a fabe 5ab7 d33e
00000080: df68 50bd 024a c2be dba6 16bf 87fd 4bbf
00000090: 8431 e33d f10e bebd 5d68 0cbc 2640 413d
000000a0: ec43 1abc abf4 333e 0aa0 043f e6ab 86bd
000000b0: 9c3a c6be 7908 cbbe 7d60 123e 292b 723e
000000c0: c77f f23d 99bf 36be a79c 733d 0924 bd3d
000000d0: 4ff1 df3f cdf7 85be ecfb 9ebd e5a2 953e
000000e0: 1b5a 8c3e a56a 44bd c0bb 0b3f 7c22 1fbd
000000f0: 314a 6c3f c114 0a3f 2787 2e3e fe7e 8f3e
00000100: d1c5 0bbe 016f 293e 9d63 e13e 0f34 633e
00000110: a121 60be d7dc b83e 0955 823e 2a90 8a3e
00000120: 0c89 923e 6380 0c3e 9190 08be 35b5 f4be
00000130: 3262 34bf 1639 403e 7afe eabd 4f46 86be
00000140: 37a4 f33c 203d 0dbe 0bd3 95bf e74a ab3e
00000150: 2ff3 463f 4f81 a23c b405 21bd 91bf ed3e
00000160: d85f 4b3d 81b1 8dbf 1588 de3d d8a8 d0be
00000170: 15ef eb3e 07a8 22be 62ea 6a3e 9895 73be
00000180: 795c ac3c 1f37 113e 7d6f acbd c90b e6be
00000190: fa31 4f3f 93b5 f53e 3bdd 353e 0495 8f3b
000001a0: c131 943e 8fce 443c 12a5 11bd 4046 8c3e
000001b0: 6173 52bd 5a7c d9be e4fd f1be 9fbd 4b3e
000001c0: 147c 983e 407a 533e c86e 40be 4b13 3d3e
000001d0: 3e09 fbbd e73e e8bd f846 203e 26cd 263e
000001e0: ea7a 893d ae17 fe3d 3a44 08bf 875a 6a3e
000001f0: eff4 fdbe e159 8a3e b33e 69be 072d ec3d
00000200: 9dcc 52be e7a1 77be d5ef 9abe 9751 71bf
00000210: 63ee f3be 9b5a 10be 1cb0 a7bc abd8 933e
00000220: 5bbc a3bd 9d8a 5bbe 172a 473e f90a c1be
00000230: decc 12bf 0c95 20be 8faa b0be 3903 083f
00000240: 8fc6 bd3e 2b83 8a3e 589c c2bd d5c8 9abe
00000250: 6781 e83c fcf6 85be 3132 98be 10a2 a1bd
00000260: 9695 ed3e f8b8 8ebe eab4 ec3e c501 283e
00000270: 5ccf 10bf e6de 963e 64c2 04be e914 8dbe
00000280: 236f e33d 13d7 853e f7bb 8dbd a912 093f
00000290: 184b 48bf 9e0e 8dbd b3aa f0be 4aff e53d
000002a0: c987 24bf 09b0 1fbe 9386 dfbe 9b71 a33c
000002b0: ee7a 9e3e 3d07 623e 8182 b8be b118 ab3d
000002c0: 7033 80be a446 583e 9f5d ab3e 172f 0c3f
000002d0: a444 5dbf 4a5b af3e 1811 eabe 1c5c 043f
000002e0: ca60 2c3f e961 73b9 1eb4 d2be 9ff5 72bf
000002f0: bcb6 15b9 830f 1bbf ea91 6fbe 2f5c 1c3f
00000300: e4c8 6d3c 4f28 233e d321 da3e 4ec7 913e
00000310: 07fe 2bbe 9d24 01bf e357 9bbe 5d0b 5b3e
00000320: c881 19be 2660 76bf 6386 c8bc ab08 bb3e
00000330: 012e 75bd d292 0c3f 0284 d0bc ec95 a9be
00000340: 7e39 b73e 1c18 e2be 5de1 3f3f 943d 3ebd
00000350: 9aec 0f3f e653 a7bc 2149 a43e 28e4 043e
00000360: 89f4 3dbd 84d6 d1bd 67c0 11be 2642 bbbe
00000370: ebde b7be 3857 2ebe cbf7 383e 07a4 063f
00000380: d9e4 01bd ebf2 e0be cea2 1b3e ac92 59be
00000390: 6918 bebe 6fe6 d1be 0b11 4d3e 4c26 8f3e
000003a0: 0760 e7be da09 babd 9443 0c3f f990 d1be
000003b0: b3bf 13bd d51e df3e d760 1f3e 1597 fdbe
000003c0: 9909 63be 77c1 3f3d cda2 02be 5d2f 45bd
000003d0: 60da 083f ee63 1dbd eba3 1dbd dab2 213f
000003e0: 2b77 3b3e 39d5 753e d884 3f3d d868 c83e
000003f0: 3fee f8be 1ead e2bd 7b7a 3bbe 3400 e7bd
-0.30102086 -0.05124529 0.0016798484 0.098807305 0.3376914 0.20557563 0.0818706 0.30213043
-0.20756234 -0.2053274 -0.5054119 1.0395535 -0.170183 0.011204211 -0.3001749 0.0007863824
-0.13542472 0.24119785 0.4784433 0.111013874 0.7005716 -0.007997901 -0.13241546 -0.09896653
0.1271487 0.37605053 -0.010617637 -0.7538561 -0.011511969 -0.3226665 -0.488725 0.41350824
-0.050881263 -0.37947088 -0.5884835 -0.7968373 0.11093429 -0.092801936 -0.008569804 0.047180317
-0.009415608 0.17573802 0.518067 -0.06575756 -0.3871659 -0.39654902 0.1429462 0.23649277
0.11840778 -0.17846526 0.059475567 0.09235389 1.7495517 -0.2616562 -0.07762894 0.2922584
0.27412495 -0.047953267 0.5458336 -0.038851246 0.9230071 0.5393792 0.17043744 0.28026575
-0.1364968 0.16546251 0.4402131 0.22187828 -0.21887828 0.36105987 0.25455502 0.27063113
0.28620183 0.1372085 -0.13336398 -0.477945 -0.70462334 0.18771777 -0.11474319 -0.26225516
0.02974139 -0.13792849 -1.170503 0.33455583 0.7771482 0.01983705 -0.03931208 0.46435216
0.04965195 -1.1069795 0.10865799 -0.40753818 0.46080843 -0.1588441 0.22940972 -0.23787534
0.021040188 0.14181183 -0.08419702 -0.44930866 0.80935633 0.47990093 0.17760174 0.0043817777
0.2894421 0.012012138 -0.035557814 0.27397346 -0.051379565 -0.42477685 -0.47264016 0.19896553
0.29782164 0.20652103 -0.1879226 0.18464391 -0.12257622 -0.11340123 0.15652072 0.16289195
0.06712897 0.1240686 -0.53229105 0.22886096 -0.49600932 0.27021697 -0.22777824 0.11532026
-0.20585866 -0.24182855 -0.30261102 -0.9426512 -0.47642812 -0.14097063 -0.020469718 0.28876242
-0.0799491 -0.21439596 0.1944965 -0.37703684 -0.5734385 -0.15681857 -0.34505126 0.5312992
0.3706555 0.27053198 -0.095024765 -0.30231348 0.028382016 -0.26164997 -0.29725793 -0.07892239
0.46403188 -0.27875495 0.46231776 0.16406925 -0.56566405 0.29466933 -0.12964779 -0.27555016
0.11105182 0.2614065 -0.06920617 0.535441 -0.78239584 -0.06887554 -0.47005233 0.11230333
-0.6426969 -0.15594496 -0.4365736 0.019951632 0.30953163 0.22073074 -0.36037067 0.08354319
-0.25039244 0.21120697 0.33469865 0.54759353 -0.8643286 0.34249336 -0.45716166 0.5170305
0.6733519 -0.0002321076 -0.41153044 -0.9490604 -0.00014277821 -0.60570544 -0.23395506 0.6107816
0.014513228 0.15933345 0.4260393 0.2847237 -0.16796122 -0.5044649 -0.3034049 0.21391053
-0.14990914 -0.9624046 -0.024478143 0.3653005 -0.059858326 0.5491153 -0.025453571 -0.33122194
0.3578605 -0.4415902 0.7495325 -0.046445444 0.562204 -0.020425748 0.32087043 0.1297766
-0.046375785 -0.10245994 -0.14233552 -0.36573905 -0.3591226 -0.17025459 0.18063276 0.52594036
-0.031712387 -0.43935332 0.15198824 -0.21247357 -0.37127998 -0.4099612 0.20026033 0.27958906
-0.4519045 -0.0908391 0.54790616 -0.40930918 -0.03607149 0.4357821 0.15564285 -0.4952933
-0.2217163 0.04681536 -0.12757416 -0.048140872 0.53458214 -0.03842538 -0.038486402 0.6316353
0.18307178 0.24007119 0.04675755 0.3914249 -0.48619267 -0.11068176 -0.18308441 -0.112793356

net.0.bias f4 [200]
00000000: 1c63 7a3e c6dd 80bd e991 793e 6da8 803e
00000010: aa5c 023f 0f77 823e cbb3 d03e f5f1 333d
00000020: b342 d4be 9d6c 263f 46ab 2d3d 41fa 8bbe
00000030: 0571 26bd a024 bc3e 8259 043e 7252 c73e
00000040: f5c5 203f ca9f 713a 65ea aabe fe6c 813e
00000050: 52c9 923e 299c 8dbd 37fe 6a3d b0cc edbd
00000060: 4096 1d3e 26c3 a4bd 266c b2be ab4e e03e
00000070: 8fda 29bd 0c9a efbd f875 583e 9d78 c33d
00000080: da74 ce3d 1266 90be 419a bf3d a59a bb3e
00000090: 1f32 4bbe aee1 20bd ba83 8f3e 53f3 543c
000000a0: 8904 5fbe 73d4 113e ad79 bebe 332f c83c
000000b0: 2a2a 4dbe 7224 e43e 9de6 633e c33b 9dbe
000000c0: 3d4b 07bd fcf7 603e 039a e13e 35d3 803d
000000d0: 1574 97be f15c 97be 255e 0f3f 342e 40be
000000e0: a3d9 e2bd 2cd5 1b3f 0428 3f3e 6962 223e
000000f0: edc1 063f 5f8b 7fbc 0f32 ddbd a004 c13b
00000100: 2b3b 92bd d565 7bba cd11 aa3e 9432 71bd
00000110: e7dd bb3e 6b53 6b3e fedd fc3e 22b2 afbe
00000120: 2959 153e 3d2f 25ba 662e 1dbe 50f5 ea3d
00000130: 5e10 c13e dc18 f93d c9f5 1b3e f0ff bd3e
00000140: 844d 0f3f 64b8 193e a050 d4be 38e8 8dbe
00000150: 0ea9 043f f66c c03e 86b0 113f a8e9 1abe
00000160: 8053 1b3c 7bd6 9cbe 7aa2 8ebe ea0d 043f
00000170: 6308 2a3e 5cf4 cc3e 7d0d fc3e 939a d13c
00000180: bc27 813e 105c cdbd ad6d d23e cf9b 9a3d
00000190: dc36 3b3e 83a9 dc3e 660c e73e 45f6 dc3e
000001a0: f529 a23e 17ca b43e 6ccb 52bd 64c3 2e3d
000001b0: 2d67 91bc cc0e 903d a017 d13e 599f 103f
000001c0: 3f7b d9be fa6d b53e ffb4 e33e c511 293e
000001d0: 95b9 e43e c254 393e 308b c23e 40dc 9e3e
000001e0: a395 833e 926f 4a3e cbfa 6f3e 17c0 25be
000001f0: 13b3 b73d d49e ff3e 55eb 54be 684d 1b3f
00000200: 4a7d db3d b726 b9bc fc57 bf3e 9b52 c63d
00000210: 5908 453d b6a0 133f e709 d13e 77b6 833e
00000220: 9fde 103c 1383 f43e 6fd8 203f 6777 bd3e
00000230: 9818 ad3e ff91 4f3e f59e 1bbe c27b ffbd
00000240: 8de8 aa3e 3847 cebd ea4f 9ebe 3009 a1be
00000250: 4bda 3b3d 6b5e a13e 3484 5c3e d179 213f
00000260: ad72 a7be f623 2a3e 7ed8 6c3e c648 eabd
00000270: 3252 6f3e 974a aabd 9081 f23e 1487 f3bb
00000280: 1558 09bc f293 593b 70a5 b63e ed6f 25be
00000290: 4777 563d 38fe 6abc 7322 5e3e 4dd0 6f3e
000002a0: d9ba fabe 5ea7 803d 1bbf ea3e a6fd ab3e
000002b0: 6bab 013a 237c 093b 0a43 ba3e f0d7 fa3e
000002c0: a4b8 de3e d6b7 893e df9c 343d da64 b4bd
000002d0: 884a 553e fa05 c73d 1ea2 d63c 093b 6f3e
000002e0: bd77 d93e a84c 6abc 908c 163f 7d96 8f3e
000002f0: 2fb1 153f 3c24 23be ff95 2a3e 5779 3ebd
00000300: bb8c dfbd ce15 a33e 8d58 f1bd 0ead 79be
00000310: 806c c23d cff3 fa3b 2de3 66be b965 ba3e
0.2445187 -0.062923 0.24372067 0.251285 0.50922644 0.2548146 0.4076217 0.04393192
-0.41457137 0.6500948 0.042399667 -0.27339366 -0.040635128 0.36746693 0.1292477 0.38930088
0.6280206 0.0009217231 -0.33381954 0.25278467 0.2866922 -0.06914551 0.057371344 -0.11611307
0.15389347 -0.08045034 -0.34848136 0.4381002 -0.0414682 -0.11699304 0.21138752 0.095444895
0.100808814 -0.28202873 0.093555935 0.36641422 -0.19843338 -0.039277725 0.28030187 0.012997466
-0.21779074 0.14241199 -0.37202206 0.024436569 -0.20035616 0.44559056 0.2225594 -0.30709657
-0.033030737 0.21969599 0.44062814 0.062902845 -0.2958075 -0.29563096 0.5600303 -0.18767625
-0.11076667 0.6087215 0.18667608 0.15857853 0.5263966 -0.0155971935 -0.108005635 0.005890444
-0.07140192 -0.00095900643 0.33216706 -0.058886126 0.36692736 0.2298104 0.49388117 -0.34315592
0.14584793 -0.00063012895 -0.15349731 0.11472571 0.377078 0.12162945 0.15230478 0.37109327
0.55977654 0.15011746 -0.41467762 -0.2771623 0.51820457 0.3758313 0.5690998 -0.15128195
0.009480357 -0.30632386 -0.27858335 0.5158373 0.16604762 0.4003018 0.4922904 0.025586402
0.25225627 -0.10027325 0.410993 0.075492494 0.18282646 0.43098077 0.45126647 0.4315664
0.31672636 0.35310432 -0.05146353 0.042666808 -0.017749393 0.07034072 0.40838337 0.56493145
-0.42476842 0.35435468 0.44474027 0.16510685 0.44672838 0.18098739 0.37996817 0.31027412
0.257001 0.19769123 0.23435514 -0.16186558 0.089697026 0.49925864 -0.20792897 0.6066499
0.10717256 -0.022601468 0.37371814 0.096837245 0.048103664 0.576671 0.40827867 0.25725147
0.0088421395 0.47756252 0.6283025 0.3700516 0.33807826 0.20270537 -0.15197356 -0.12474777
0.33380547 -0.10072178 -0.30920345 -0.31452322 0.045862477 0.31517348 0.21534806 0.630765
-0.32704678 0.1661528 0.2312946 -0.11439662 0.23371199 -0.08315008 0.47364473 -0.007431874
-0.008382817 0.0033199755 0.35673094 -0.16155978 0.052359845 -0.014342837 0.21692829 0.23419304
-0.48970678 0.06281923 0.45848927 0.33591956 0.0004946503 0.0020978532 0.36379272 0.48992872
0.43500245 0.26898068 0.044094916 -0.088082984 0.20829213 0.09717937 0.02620035 0.23362364
0.42474166 -0.014300503 0.5880823 0.280445 0.58473486 -0.15931791 0.16658781 -0.046502437
-0.10915514 0.31852573 -0.11784468 -0.24382421 0.09493351 0.007658459 -0.22547598 0.36405733

net.2.weight f4 [128, 200]
00000000: f40e 0f3d 1a22 df3e a6ed 113e 33ff dc3d
00000010: 3960 9c3e c8f2 c4bd bed3 24be 389f 203e
00000020: 0ac9 3e3e 9573 6f3e 9574 d7be 6194 6d3b
00000030: 48f1 25bd 045b 3bbd 7993 7fbe 49c2 153e
00000040: 62ad 53bd 8b2c 59be 3e95 c7be eb0b cd3e
00000050: 8242 953e ea38 f73e 3894 953e 32e4 19be
00000060: c816 013d 3fac e73e ce83 673e fff2 833e
00000070: f42b 25be 5d74 173f 6adb 973d f7c5 3e3d
00000080: 5a74 6d3e e834 e83e 888f 2b3e cdb2 1b3e
00000090: 77a0 103f 6108 e73c f423 cc3e 9c63 e73e
000000a0: 3e77 d33e e5c8 1b3e 4426 303e c0fb 153e
000000b0: f6c9 cabe f5d1 23be 0f8d 593e 6d8f 0cbf
000000c0: 4ce6 77be 1355 bf3d 7af4 5a3e 8282 2fbf
000000d0: ecb2 f1be a652 adbe 7e91 253e 1eac c7be
000000e0: 4854 75bd 3ba0 0b3d 1b2c 153e 9bfc 633e
000000f0: ff25 4e3e c075 0dbe c527 953e f272 3c3e
00000100: 6f80 45be bc39 533e 3359 3d3e 2e02 a2bd
00000110: 71e4 dc3d b358 e2bd 962f e53d 253e 2ebf
00000120: 297c 113e 3c25 403e 7219 59be 5c6f 0cbe
00000130: 517f 5fbd 1967 2fbc ba54 5a3e 63f7 7f3d
00000140: b5de 353e 917b 9a3e 5e3f 6d3e 4c72 dc3e
00000150: 248b 953e 4a79 ee3d e6f8 033e a99a 2fbe
00000160: 1823 8f3e 1a23 d43e 1cf1 0b3f b5e3 793e
00000170: f1aa afbe a338 10be 1f8d 9c3e 01bd 943c
00000180: 6d0d aa3e 61f2 e13d cf06 603e e06d 793c
00000190: eee6 923e c5b0 c2bc 622e 94bd c76d dc3d
000001a0: 37d6 afbe 4e8c 943e 7eae b5bc 5078 123e
000001b0: b4a7 16bd 99e9 933d d583 6cbe 9191 933e
000001c0: 0a7d 8f3e 8d79 6a3e 3521 463e dbac 123d
000001d0: 7ab7 1dbe 3fb0 753e 1111 563e 00f6 e93d
000001e0: 2efa 393d 3c8a 9dbe 0efe 4c3e da0d 083f
000001f0: 6f41 183e 63ad 09bf e675 b8be 062a 6e3e
00000200: 16d2 b23e ea3b 84be c819 263e 4ea5 16bd
00000210: 66fd f43c 1358 043e 9c0d 1e3e c769 403e
00000220: 3588 733e 1d35 ccbd b5ab 3d3e 1340 b7be
00000230: 3c0f 433e 90d5 96be d0f2 55bc bbed 7abf
00000240: 56f8 8d3d a2f0 2ebf 2805 eb3e 8ec0 66be
00000250: a456 013e c59f 7d3d 3170 613d dad9 d83c
00000260: 8271 f8be 132d 3b3e e169 3a3e 8100 583e
00000270: b2d1 de3e 93af 7f3d 1879 d7bc 0679 c4bf
00000280: e3da 02bf 470d 47bf fe42 b63d f451 a4be
00000290: ec4f 163e 2306 91bd 68a9 123e ac8d 423d
000002a0: f462 cabd 719e 04be e8dd dd3c d313 4dbe
000002b0: bc1f 9cbe 2f40 bbbf 35ab 583e 03e1 e83d
000002c0: a4f2 5d3e 54fc 423d ec9d 8f3e 7c5e 0abf
000002d0: 0631 fc3d ec87 86be b9a3 153f f46a 5d3e
000002e0: cb9c f5bd a2d3 913e e5cd 993d 6a43 3e3e
000002f0: df55 ac3e 03dc 273e 0641 25bd 13e9 5fbe
00000300: c3bc 11be 18fd 0c3e a4f3 85be 65c3 d0be
00000310: 5c47 193e 9b75 373e 7f5a 8ebe ffc2 6d3e
00000320: 45a3 edbd 3396 293e 8bce 1f3e 8815 f83e
00000330: 23b2 8dbf fb89 873e 8a0d 453d 8919 18be
00000340: d9f4 47bf 1ac3 8b3e 018a 233f 9760 19bf
00000350: d0fa a9be a7bc 14bf 9cbc 09bf 424c 513e
00000360: a079 703f 35ce 35be 778f e4be c44a e5be
00000370: a4fb 2ebf e644 17bf a74b 9b3e 1443 dc3b
00000380: 291a 77bf 6d36 d23d e46b 4bbe 6324 ce3d
00000390: 2263 c0be e39c 1cbe a6e3 42be ec09 a5be
000003a0: 5665 48bf 18a5 8dbe 5ca7 b53c 7b68 55be
000003b0: 2c83 6dbf 6058 c8be 9118 28bf edb6 15be
000003c0: 9030 8cbf 8a38 4cbf 3033 90bf 813f 8bbf
000003d0: a7b5 71bf f176 a43e af82 ecbe ecb0 513f
000003e0: 4871 6abf 28f7 b0bd bd22 a53d c044 5b3e
000003f0: 0010 6fbf 066f b1bf 8fe6 cb3b 6512 31bf
0.03492637 0.43580705 0.14250812 0.10790863 0.30542162 -0.09616619 -0.16096398 0.15685737
0.18631378 0.23383935 -0.42081133 0.003625177 -0.040513307 -0.045741096 -0.249586 0.14624895
-0.051679023 -0.21208398 -0.3898105 0.40048155 0.29152304 0.4828561 0.29214644 -0.15028456
0.031515867 0.452486 0.22608873 0.2577133 -0.16130048 0.5916193 0.07414897 0.046575513
0.23188916 0.45352864 0.16753972 0.15204926 0.5649485 0.028202238 0.3987118 0.45193183
0.41301912 0.15213354 0.17202097 0.14646816 -0.3960721 -0.15998061 0.21245216 -0.5490635
-0.24208945 0.093423985 0.21382323 -0.68558514 -0.4720682 -0.33852118 0.16168782 -0.38998502
-0.05989483 0.034088355 0.14567606 0.2226433 0.20131682 -0.1381445 0.29131904 0.18403223
-0.19287275 0.20627493 0.18491058 -0.07910572 0.10785759 -0.11052074 0.11190717 -0.68063575
0.1420752 0.18764204 -0.21201113 -0.13714355 -0.054564778 -0.010705733 0.21321383 0.062491786
0.17760737 0.301724 0.23168704 0.43055952 0.29207718 0.11644228 0.12887916 -0.17148842
0.27956462 0.4143303 0.5466478 0.2440327 -0.34310105 -0.14084105 0.30576417 0.01815653
0.33213368 0.11032558 0.21877597 0.01522395 0.2869181 -0.02376593 -0.07235409 0.10763126
-0.3434312 0.29013294 -0.02217793 0.14303708 -0.036781028 0.072222896 -0.23097165 0.28821996
0.28025085 0.2289793 0.19348605 0.03580938 -0.15402022 0.23993014 0.20904948 0.11423874
0.045404606 -0.30769527 0.20018789 0.53146136 0.14868711 -0.5378019 -0.3602745 0.23258218
0.34925908 -0.2582696 0.16220772 -0.03677874 0.029905986 0.12924223 0.15434879 0.18790351
0.23782428 -0.09971068 0.18522532 -0.35791072 0.1904878 -0.2945981 -0.013058379 -0.98019
0.06932132 -0.68335927 0.4590237 -0.22534391 0.12630707 0.061919946 0.055038635 0.026471067
-0.485241 0.18278913 0.18204452 0.21093942 0.4351936 0.0624233 -0.02630286 -1.5349433
-0.51115245 -0.77754635 0.088994965 -0.32093775 0.14678925 -0.070812486 0.14322436 0.04749839
-0.09882155 -0.12951066 0.027083352 -0.20027094 -0.3049296 -1.4628962 0.2115906 0.113710426
0.21674591 0.04760392 0.28050172 -0.5405042 0.12314038 -0.26275575 0.58452946 0.2162283
-0.119927965 0.28481776 0.075099744 0.18580404 0.33659264 0.16392522 -0.040345214 -0.21866255
-0.14232163 0.13768423 -0.26162446 -0.40774074 0.14968628 0.17915957 -0.27803418 0.23218916
-0.11603407 0.16561203 0.15606134 0.48453927 -1.1069988 0.26472458 0.048108615 -0.14853491
-0.7810798 0.27297288 0.6388245 -0.5991301 -0.33199167 -0.5810036 -0.5380342 0.20439246
0.93935585 -0.17754443 -0.44640705 -0.44783604 -0.68352723 -0.59089506 0.30331156 0.0067218635
-0.9652429 0.10264287 -0.19865376 0.10065534 -0.37575632 -0.15294223 -0.19032153 -0.32234132
-0.78279626 -0.2766502 0.02217453 -0.20840637 -0.9277828 -0.39129925 -0.65662485 -0.14620562
-1.095232 -0.7977377 -1.1265621 -1.0878755 -0.94417804 0.32121995 -0.46193454 0.81910586
-0.91579103 -0.08640891 0.080632664 0.21412945 -0.9338379 -1.3862007 0.006222553 -0.6916869

net.2.bias f4 [128]
00000000: 89b9 493e e675 503e 9ba8 4d3d 9fb6 913c
00000010: 9468 853b 4580 613e 33db df3d 25f4 8a3b
00000020: 9c09 a13e 2594 8ebd e39d 063d 8dc6 943d
00000030: 73f8 2f3e c351 0c3d f788 82bc f20d 57bc
00000040: ec3f b23c e63c 1c3d 8560 3d3e dd26 093e
00000050: 4f86 d33d 2e2a 823d 5e4b a33e ac8a 113e
00000060: 4bb1 cd3d f120 af3e 1ddb e33d 2cb7 373e
00000070: 0805 04bd a256 083e 773b c83d 2ec3 233e
00000080: eb92 80bc 5bcd e43c 9c08 a13b ec43 043e
00000090: 12da f9bc 8bc9 08ba 3a7e b6bd e7df 463d
000000a0: c17d d0bc 92f1 a43c 683f da3d 09e9 c13c
000000b0: 3d23 6b3e 3857 253e 4eca c83d fa2b 73bd
000000c0: b9d6 1dbe 9e28 a03c 4064 d13d 1af7 f93c
000000d0: b70e b03d 6617 063e 2bb5 8d3d e9da 5bbc
000000e0: ac53 113d 867c 98bd a855 5a3d fe89 39bc
000000f0: aa0d d3bc 3be2 4d3e 8c84 903d 9dc3 483e
00000100: fb25 61bd a323 6a3d 7668 52bd f099 1b3e
00000110: ff3e 01bc 5fac 1d3e 2899 5a3d ad8f b03c
00000120: b112 d63d 62ab 843e 3896 ff3c 5220 e13c
00000130: c9d9 cf3d 2a13 afbc 7dfb 18bd f761 3b3e
00000140: 9ffb 883c 3638 0e3d 0f4a 843d 8424 1e3d
00000150: d86a 13bd d50b 8a3e 94e0 193e 0faa da3d
00000160: 2e26 663e 9248 e03d b42b ab3e 60d5 c93d
00000170: 97ae 123e 620d 033e 2108 ec3a 3333 0f3e
00000180: 38e9 ce3d d107 c63d bd9b 2e3d 1d83 9f3d
00000190: 77ef 883e f415 8b3d b064 6e3d 02f8 7dbd
000001a0: 6391 d13c 1c18 4c3e 5e0f 113d b601 1dbd
000001b0: 7114 503d 823d f83d bb47 70bd 434b c83c
000001c0: 82df 2bbd bc52 0d3d ce20 263c 7be6 7dbc
000001d0: 5928 453d 5266 003e ff78 2abd d659 413d
000001e0: 7645 2a3e 83ee a93a 216d b33d 2a74 9f3d
000001f0: d408 3e3e 63cd 803d 790f d43d dbfb cc3e
0.19699682 0.20357475 0.050209623 0.017787276 0.0040713046 0.22021587 0.10930481 0.00424053
0.31452644 -0.0696185 0.032865416 0.07264433 0.1718462 0.03425766 -0.01593445 -0.013125883
0.021758996 0.038144015 0.1849385 0.13393731 0.10328352 0.063557014 0.31893438 0.14213055
0.100435816 0.3420482 0.11125777 0.17940968 -0.03223136 0.13314298 0.09776967 0.15992424
-0.015695056 0.027929952 0.0049143564 0.12916535 -0.030499492 -0.00052180205 -0.089107946 0.048553374
-0.02545059 0.020134721 0.10656625 0.02367069 0.22962661 0.16146553 0.098042116 -0.05936811
-0.15413941 0.019550618 0.10224199 0.030513335 0.08596557 0.13094863 0.06919321 -0.0134188915
0.035480186 -0.07445626 0.053304344 -0.011324404 -0.025763351 0.20105831 0.07056531 0.1960587
-0.05496786 0.057162892 -0.051369153 0.15195441 -0.007888555 0.15397786 0.053368717 0.021552885
0.10452784 0.25912005 0.03119956 0.027481232 0.10148961 -0.021371443 -0.037349213 0.1829909
0.016721545 0.034721576 0.06459438 0.038609043 -0.035990566 0.26962152 0.15027076 0.10676967
0.22475502 0.10951342 0.3343178 0.09855151 0.14324413 0.12798074 0.0018007794 0.13984375
0.10103077 0.096694596 0.042628992 0.0778868 0.26745197 0.067912966 0.05820149 -0.062004097
0.025582021 0.19931072 0.035415046 -0.03833171 0.050800744 0.12121107 -0.058662158 0.02444995
-0.0419612 0.03450273 0.010139657 -0.015496845 0.04813418 0.12539032 -0.041619297 0.047204815
0.1662806 0.0012964759 0.08761049 0.077858284 0.18558055 0.062891744 0.10354514 0.400359

net.4.weight f4 [4, 128]
00000000: 68a6 87be e9cb 0b40 276c 753b fe1c 4fbe
00000010: b2f7 803d 44dc 94be 4d71 5bbe f12e b43f
00000020: 49e8 843f e85d c5bc f48b 9fbe 1ba0 34be
00000030: ddd6 a3be 7a76 c2be 35be 93be fe96 923d
00000040: 55ff 57be fc7f 92be 6728 a1be 2325 7cbe
00000050: 34d1 50be 62c5 b53f c56e 803f b8fd 59be
00000060: ea6f 75be ca91 503f db1b ffbe 9dc8 79be
00000070: 9f50 133d 0366 1abe e68f 97be 03d0 c5be
00000080: 72b0 d4be f048 36be 04ea ccbe eeeb 64be
00000090: 7395 223d abc2 b0be 0fdf 793f 8055 a0be
000000a0: a81c 303d a6b6 71bd 75c7 60be 1a9b 60be
000000b0: 3207 0840 350a 8dbe 6b42 8fbe 6e33 9d3d
000000c0: 54e8 67bd 90bd 88bc ed62 aabe 0d74 81be
000000d0: 3232 00be 4ea8 1ebe b05a 8abe 7a6e c8bd
000000e0: cfce 1abe c12f 7ebd 5876 37be dca2 c1bc
000000f0: bdf2 d6be 5310 d63e e5de 4bbe 6b2d 69bd
00000100: 23f6 b9bd 61bd f1bd a0f6 b1bb 7fe4 a3be
00000110: 8bb1 53be e648 8abe c7d6 24be 3f07 2ebc
00000120: 0ee6 08be 7b8a 9bbe a872 903e a6c9 69bc
00000130: 51dd a7be 68cb 2ebd 3a35 e2be 5b3f 81be
00000140: 3b25 843d b44c 823d e3a0 89be 33c3 fbbe
00000150: bb6f d4bc ca4e f63e 9ccb 3dbe 0f05 81be
00000160: e1e5 c63f 1083 3dbe 9bad c3bd ab14 d63e
00000170: 3f1a 8dbe 8696 db3f 2e49 ca3f 384e ebbe
00000180: b22b 2e3f 8f81 69be 3c36 bbbe cf62 e1be
00000190: eee8 943f 126e 35be b80d 9c3e b9b9 8dbd
000001a0: 86b0 29be 3bfd 0b40 530b 1bbe 54f2 903d
000001b0: 7bc4 a8be 2055 fbbe 3d63 8fbb 0ef4 dabe
000001c0: 0d57 05bb 7290 20be 2d68 65be 6073 67bd
000001d0: 09cc 8abe a4a0 c4be 5315 95bd b703 95be
000001e0: aff8 91be 9f09 0ebe 1a20 f2bd bf3a d9be
000001f0: 9dbb 88be e6c5 fbbd edeb 04bf aff4 893f
00000200: a481 f2be 329f 0040 ac52 e6be df02 61be
00000210: e821 9ebc 7b17 fbbd 3e97 04be 93e3 c03f
00000220: 65e3 863f d544 fd3c 28ae dbbd 5c05 83be
00000230: 8def 14bf bd73 3dbe def2 f9be 557e 463d
00000240: afc8 51be 1897 3fbe c5c9 bbbe b79f 4dbe
00000250: 7662 0abe ad74 f13f 5774 f03e 4349 86be
00000260: ca1a 0fbd e110 863f 5f4f 92bd dfeb bfbe
00000270: 5600 05bd 2272 78be 8c2f 4cbe 16fc ddbe
00000280: b6e5 b9be 9928 70be d9ff dcbe db1e a4bd
00000290: 9971 fbb8 ba0e a9be 5f12 b53f c33c f0be
000002a0: f0d8 b83c bf9f 9abc c163 ffbd 348f 54be
000002b0: 5829 0140 d4a0 50be ee82 55be b5f1 8ebd
000002c0: 6056 af3e 7d1d 31bd 0a2d 20bf c889 63bd
000002d0: 92c1 0dbe b1e1 00bf 5250 9bbe 55bb 70be
000002e0: 6d5e 0cbe 7bdf 61bd 98fb 393c f3c8 57bb
000002f0: 6c38 66be 1261 2e3f 44be 04be 1bdd 78be
00000300: b9eb 50be d553 2abe e325 03bc 9bf2 9fbe
00000310: 8298 013d 65e5 79be f223 53be 5e3c 53bf
00000320: 0bad e2bd 9a5a 48be c09b 4d3e 71bd 213b
00000330: a758 a1be 9c73 d3bc cadf b1be 5e82 e6be
00000340: 73e0 1abd 62f3 3b3d 4fae 0ebe 916a c0be
00000350: b8c3 95be e494 233f 6710 eabe 1fbd bcbd
00000360: 46da fc3f 3578 60be e2bb 87be fbb9 7c3e
00000370: 3042 81be 0743 c73f d75f ae3f b961 2fbf
00000380: 17f5 533f a642 24bf c8cd ebbe 93de 21be
00000390: 60a4 443f 3d6c 2bbe d249 483e 3908 a93d
000003a0: 8fae 5bbe 10b6 1d40 1c2b 39be 47a0 ff3c
000003b0: e2d7 e6be d96d ecbe 53cb 003c f22c babe
000003c0: 5fd6 9b3d b97d 89be 7239 f4bd 885f 0a3d
000003d0: a40a 2abe 6a6f 19be d826 1e3d c376 c5bd
000003e0: 6d35 5fbe 25eb 49be 9084 a9bd 8edf cfbe
000003f0: 8cdc 57be 081f 3ebe a0f0 52be 7339 3b3f
-0.26494145 2.1843207 0.0037448497 -0.20225903 0.06297244 -0.290743 -0.2142994 1.4076825
1.0383388 -0.02409263 -0.31161463 -0.176392 -0.31999865 -0.37981015 -0.28856054 0.07157706
-0.21093495 -0.2861327 -0.31476137 -0.24623542 -0.20392305 1.4200861 1.0033804 -0.21288192
-0.23968473 0.81472456 -0.4982594 -0.24392934 0.03596556 -0.15077977 -0.29601973 -0.38635263
-0.41540867 -0.17801261 -0.4002229 -0.22355625 0.039693307 -0.3452352 0.97605985 -0.3131523
0.04299608 -0.059012078 -0.21951087 -0.21934167 2.1254392 -0.2754685 -0.2798036 0.07675825
-0.05661805 -0.016691953 -0.332786 -0.25283852 -0.12519148 -0.1549389 -0.27022314 -0.09786697
-0.15117954 -0.06205726 -0.17916238 -0.023637228 -0.4198207 0.4180933 -0.19909246 -0.05692808
-0.0908015 -0.11803699 -0.0054310113 -0.32010266 -0.20673196 -0.27008742 -0.16097556 -0.010621845
-0.13369009 -0.3037909 0.28212476 -0.014269268 -0.3278604 -0.042674452 -0.44181234 -0.2524365
0.06452414 0.06362286 -0.2688056 -0.49172363 -0.025932183 0.48106986 -0.18534702 -0.25199172
1.5538903 -0.18507028 -0.09554597 0.41812643 -0.27559087 1.7155311 1.5803583 -0.45958114
0.68035424 -0.22803329 -0.36564815 -0.44020697 1.1633584 -0.1771777 0.30479217 -0.069201894
-0.16571245 2.187331 -0.15141039 0.070774704 -0.32962403 -0.49088383 -0.004375844 -0.42764324
-0.0020346076 -0.15680102 -0.22403021 -0.056506515 -0.2710879 -0.3840381 -0.07279458 -0.29104397
-0.28510043 -0.13870858 -0.11822529 -0.42427632 -0.26705638 -0.122936055 -0.51922494 1.0777797
-0.47364533 2.0097165 -0.4498495 -0.21973751 -0.019303277 -0.12260338 -0.1294832 1.506945
1.0538145 0.03091661 -0.10726577 -0.25590026 -0.58178025 -0.18501182 -0.48818105 0.048460323
-0.20486711 -0.18709981 -0.36677375 -0.20080458 -0.13514122 1.8863732 0.4696376 -0.2622777
-0.034937657 1.0473901 -0.07144045 -0.37484643 -0.032471023 -0.24262288 -0.19940013 -0.4335639
-0.36308068 -0.23452987 -0.43163946 -0.08013698 -0.00011989772 -0.33019048 1.4146231 -0.46921358
0.022564381 -0.018875001 -0.124701984 -0.20757753 2.0181484 -0.20373851 -0.20850727 -0.06979696
0.34245586 -0.043241013 -0.62568724 -0.05555132 -0.13843372 -0.5034438 -0.30334717 -0.23508961
-0.13707896 -0.05514477 0.0113514885 -0.0032926172 -0.2248246 0.6811687 -0.12963206 -0.24303095
-0.20402421 -0.16633542 -0.008004638 -0.3123978 0.031639583 -0.24403913 -0.20619181 -0.8251399
-0.110681616 -0.19565812 0.20078945 0.0024679566 -0.3151295 -0.025811963 -0.3474105 -0.45021337
-0.037811708 0.045886405 -0.13933681 -0.37581304 -0.29250884 0.63899064 -0.4571564 -0.092157595
1.9754112 -0.21920855 -0.2651053 0.24680321 -0.2524581 1.556733 1.3622998 -0.6850849
0.8279585 -0.641642 -0.46055436 -0.15807562 0.76813316 -0.16740508 0.1955941 0.082535215
-0.21453308 2.4642372 -0.18082851 0.031204356 -0.4508658 -0.46177557 0.007860976 -0.36362416
0.076092474 -0.2685373 -0.11925019 0.033782512 -0.16605622 -0.14983907 0.038611263 -0.096417926
-0.21797724 -0.19718607 -0.082772374 -0.40600246 -0.21080226 -0.18566525 -0.20599604 0.73134536

net.4.bias f4 [4]
00000000: 5fe9 8dbe ed8d babd 00de 603e fb59 f53d
-0.2771711 -0.091091014 0.21959686 0.11980053
