experiments/LunarLander-v2-descrete-hyperpra-tunnig/bz/256/model.pt (torch, 114135 bytes, 6 tensors)

net.0.weight f4 [200, 8]
000000 0b 2b b2 bd a1 29 fd 3e da 5c 85 3f 97 1a 15 bf
       -0.08699616 0.49445823 1.0418961 -0.582437
000010 0a 0a a9 be 7e 80 2b bf 86 15 b1 bf aa 50 b3 3e
       -0.33015472 -0.6699294 -1.3834693 0.3502248
000020 fd 82 d9 3d b6 62 84 be 5c ef 9c be 7b 0d 1e 3e
       0.10620687 -0.2585656 -0.30651367 0.1543483
000030 df 83 9a bf b3 09 2f bf 2c bb 2a 3d ee 61 8a be
       -1.2071494 -0.68374175 0.041682407 -0.2702784
000040 c4 b3 d0 be 79 c5 54 bf c6 e9 67 bf 0f fb 97 bf
       -0.4076215 -0.8311382 -0.90591085 -1.1873492
000050 c5 5e 89 3f e0 ca 17 3f 57 02 10 3f 29 e8 80 3c
       1.0732046 0.5929394 0.5625357 0.015735703
000060 7c 02 43 3f c9 d2 82 3e 7f 09 cf 3f 03 c3 83 be
       0.76175666 0.2555144 1.6174773 -0.2573472
000070 23 bc 8f be f2 f4 65 bc 4a 90 66 3f b3 b1 5d 3f
       -0.28073224 -0.01403545 0.9006392 0.8659927
000080 6d 9e c0 bf 89 82 9f be 6b f5 4a bf bc 9e f0 bd
       -1.5048348 -0.31154278 -0.7928073 -0.11749026
000090 41 6b f1 bf 14 8b 5b bd 39 cf 0e be ca bf ed 3e
       -1.8860856 -0.053599432 -0.13946237 0.46435386
0000a0 30 df d2 3f e5 eb 62 be 8c ff b3 3f ba 89 43 be
       1.6474361 -0.22160299 1.4062362 -0.19095507
0000b0 31 08 97 3d fe 6f 82 3e 85 0a b6 3e fb b2 04 3e
       0.07374609 0.25476068 0.355549 0.129589
0000c0 46 fa 3d bf 90 98 3a bd 46 1f aa 3d d4 ad 85 be
       -0.7421001 -0.04555565 0.08306746 -0.26109183
0000d0 23 f2 5b bf 9f cd f2 3e ce 8f 28 bd d5 3a 21 c0
       -0.85916346 0.474225 -0.041152768 -2.5192158
0000e0 8d f8 6d 3f a3 ec f5 bd fa cc a3 bf 4e 34 a8 3f
       0.92957383 -0.120080255 -1.2796929 1.3140962
0000f0 7c a9 95 be 44 02 11 3f a5 dc fb 3e f9 37 5e bf
       -0.2923087 0.5664408 0.49191776 -0.8680416
000100 ed f3 04 c0 c3 82 b5 c0 dd 49 36 40 c2 d8 0e c0
       -2.077388 -5.672212 2.8482583 -2.2319798
000110 11 19 86 3f 62 65 92 3d 03 52 69 bc fa 9e 88 be
       1.04764 0.071482435 -0.0142407445 -0.2668379
000120 9e c1 f9 3d 3d 30 29 bf 0c 67 66 be 2f e0 aa bd
       0.12195133 -0.6608923 -0.22500247 -0.08343541
000130 8f 6c d0 3e ff 71 77 bf 89 3c e8 3c 28 8a 03 3f
       0.40707824 -0.9665832 0.028349178 0.51382685
000140 ba 17 03 3e a5 98 07 bf 6f 3e ad bd 1a d4 9a be
       0.1280202 -0.5296729 -0.08459174 -0.30239946
000150 e0 a4 aa be 73 90 6f b9 7a 3a cc be 18 67 35 bd
       -0.33328915 -0.00022846628 -0.39888364 -0.04428777
000160 b9 a1 5b 3e 45 13 a1 3e 39 54 e0 be c3 83 5d 3e
       0.21448411 0.31460014 -0.43814257 0.21632294
000170 ed 73 9f 3f 23 73 ae be fe 92 01 c0 a7 c7 21 3f
       1.2457253 -0.34072217 -2.0245967 0.6319527
000180 33 ba 38 be 47 fc 05 be ed e9 0e 3f 35 3f 86 bf
       -0.1803978 -0.13084517 0.5582569 -1.0488039
000190 6d 0b 3a bf a4 24 e4 be 67 82 0f be 02 cb 67 be
       -0.72673684 -0.44559205 -0.14014588 -0.22636035
0001a0 5a 56 8e bd a7 c0 bb be 6e e5 1f be e0 ed 7b bf
       -0.06950064 -0.3667042 -0.15614864 -0.98409843
0001b0 4a bf 4d bf 87 5b 57 bf 49 f3 b9 be 3c 75 22 3e
       -0.8037001 -0.84124035 -0.36318424 0.15865034
0001c0 32 b6 4e 3f a9 dc c0 bf 1c 51 dc 3e 7c f8 a3 bf
       0.8074676 -1.506734 0.43030632 -1.2810206
0001d0 15 e4 3e 3f cd 82 09 3e d1 de 87 bf 63 e3 82 bf
       0.74566776 0.13428803 -1.0614873 -1.0225643
0001e0 26 b8 cf 3f 26 18 17 bf 05 7a 41 3f 1c 19 f3 be
       1.6228073 -0.5902122 0.7557681 -0.47480094
0001f0 0a 8f c7 be b5 84 27 bf 1c 57 f3 3e ac 74 9d 3e
       -0.38976318 -0.6543687 0.47527397 0.30753076
000200 a7 83 a0 3f 07 d7 40 be 34 e4 8a 3f 1e 04 94 be
       1.2540177 -0.18832026 1.0850892 -0.2890939
000210 9a 0f 99 bf 36 47 b2 3e 48 cc e9 3d ac 87 6c 3e
       -1.1957886 0.34819955 0.11415917 0.2309863
000220 12 dc 9d bd c4 0b 58 be 98 21 06 bf de 77 aa bc
       -0.07707991 -0.21098238 -0.5239501 -0.02080911
000230 b7 f5 ef bf 53 09 90 bf 91 c3 26 3e 72 de 2b 3f
       -1.8746861 -1.1252846 0.1628554 0.671363
000240 3e 8d 19 bf 74 3c e9 bd 79 07 f7 be 98 bc 32 3f
       -0.59981143 -0.11388484 -0.4824789 0.6981902
000250 c2 e0 35 3e 03 7c 8d bf 4f 8d 5e 3e 17 3c 86 3e
       0.1776152 -1.105347 0.21733592 0.2621772
000260 37 41 d2 bf 71 c9 08 be 40 5d aa bf c9 59 1e bf
       -1.6426152 -0.13358094 -1.3309708 -0.6185575
000270 f9 09 98 3e 9c 4e 46 3e 83 a7 db 3d d2 29 ed be
       0.2969511 0.19365925 0.1072531 -0.4632097
000280 55 a2 63 be ed 4e 27 3f 60 2b 61 bf 6c 9e 34 3e
       -0.22229894 0.65354806 -0.8795681 0.17638558
000290 fd 50 01 3e 83 b2 91 bf 3c 3d 88 be 78 7a 2a bf
       0.12628551 -1.1382602 -0.26609218 -0.6659312
0002a0 eb c2 51 3f 01 68 32 3e 5f a5 45 bf 0a 53 4a bf
       0.81938046 0.17422487 -0.7720546 -0.7903296
0002b0 42 27 d1 bf 01 0d a8 bc 40 62 df 3e cf 15 6e be
       -1.6340106 -0.020514013 0.43629646 -0.23250507
0002c0 f5 c3 85 be a1 fb 96 3e 9b 29 3a bf 93 b6 34 bf
       -0.26126066 0.29488853 -0.72719735 -0.70591086
0002d0 d3 f4 f1 3d c7 f3 97 bf 44 b8 80 bf 35 5a 61 be
       0.11814275 -1.187127 -1.0056233 -0.22007068
0002e0 f7 1e 12 be bf 4d 0a 3f 38 a6 5c 3f 13 12 eb be
       -0.14269625 0.5402488 0.8619113 -0.45912227
0002f0 bf 12 23 3f 33 e2 ca be 81 23 90 be b2 22 0f 3e
       0.6370048 -0.396257 -0.28152087 0.13978079
000300 47 26 30 3f 75 23 08 bd 9f 5b 0e bf 38 fd 9f be
       0.68808407 -0.03323694 -0.5560855 -0.31247878
000310 ec a2 82 bf 74 16 b4 bf 27 96 71 c0 71 0c bb 3e
       -1.020597 -1.4069352 -3.7747896 0.3653293
000320 3e a8 6d bf af d6 3c be 4a 55 19 3f 13 2a 55 bf
       -0.9283484 -0.1844127 0.59895766 -0.83267325
000330 02 33 86 3f 54 50 de 3e 21 83 0d 3f f6 26 f7 3c
       1.0484316 0.4342066 0.5527821 0.030169945
000340 34 da 99 3d 44 ad 67 be 13 f4 bc be f7 f3 83 bd
       0.07512322 -0.2262469 -0.36904964 -0.06443017
000350 e0 92 8a bf 82 c0 d4 be 64 b0 b4 3d 83 74 94 3f
       -1.0826073 -0.41553122 0.08822706 1.1598057
000360 07 3c 91 3e 79 1c ad bf d5 da 32 3f bb 7a a2 be
       0.2836611 -1.3524314 0.6986516 -0.3173426
000370 10 8c 59 3f 4e fd 22 bf 32 e2 a3 3d 39 c0 9e 3d
       0.84979343 -0.6366776 0.08002128 0.07751507
000380 c3 32 90 be 5c b4 e1 3e a9 e6 c2 3e 44 f9 46 3f
       -0.28163728 0.44082916 0.38066605 0.777241
000390 b2 24 23 be 22 72 08 3f ed a7 44 3f ec a6 05 c0
       -0.15931967 0.5329915 0.76818734 -2.088313
0003a0 bd b0 f7 3e 2d 31 f2 bf 94 f0 80 3f c0 fc f0 bf
       0.48377028 -1.8921257 1.0073419 -1.8827133
0003b0 ce de a4 bf 1a 51 d9 be 96 c6 29 3f d1 e2 d0 3e
       -1.2880495 -0.42444688 0.66318643 0.40798047
0003c0 43 fa bf 3f 9b 99 da 3e 56 6c 71 3f 38 6d 3d be
       1.4998249 0.42695317 0.9430593 -0.18498695
0003d0 a3 e7 b6 3d c5 62 04 40 75 1d 55 c0 3d ab 26 bf
       0.089309 2.0685284 -3.329923 -0.6510504
0003e0 9c 78 a9 3e 34 81 42 be 52 3a 30 3d 46 c2 0f be
       0.3309983 -0.189946 0.04302437 -0.14038953
0003f0 b3 ca d1 3e 40 6d be be 96 0d 84 be 06 89 7c bd
       0.4097496 -0.37192726 -0.25791615 -0.061654113

net.0.bias f4 [200]
000000 19 66 81 3d 24 48 fc 3e b7 ac 5f be 6a d4 57 bf
       0.06318302 0.4927379 -0.21843229 -0.84308493
000010 24 c7 f3 3e a3 c5 1c 3f 2b 99 d4 3e 93 fc 54 3e
       0.4761287 0.6123907 0.41523108 0.20799474
000020 fa 37 8e 3f 3f c1 3b 3f ce b9 15 3f 5c ce 89 be
       1.1110833 0.73341745 0.5848664 -0.26915252
000030 c5 e2 01 3f 8a f8 06 3f b7 36 03 3f 18 a0 b7 3e
       0.5073665 0.5272299 0.51255363 0.3586433
000040 9f 35 1a 3f 24 e0 98 3e 05 39 ff bc 49 62 39 3f
       0.6023807 0.29858506 -0.031155119 0.72415596
000050 5c 4a 98 3e ed 35 0f 3e f0 97 3a bf 43 93 8a 3e
       0.29744232 0.13985415 -0.7288809 0.27065477
000060 f2 9f 65 3e ca ce b1 bd 00 28 ff 3e 3b ea 9d 3e
       0.22424296 -0.0868202 0.49835205 0.30842766
000070 d4 a1 2e 3f 0f f8 e7 3e 64 2e 07 3f a7 58 a0 3e
       0.6821568 0.4530644 0.5280516 0.31317636
000080 78 18 d5 3e 58 35 28 bf 36 d6 2c be c2 7b 57 3f
       0.4162023 -0.65706396 -0.1687859 0.84173214
000090 9f e4 33 bf a5 e2 ca bd 12 63 1d 3f 53 ce f9 3e
       -0.70270723 -0.0990651 0.61479294 0.48790225
0000a0 a2 61 89 3e f6 42 1b 3f d1 80 2a bf 01 42 99 3e
       0.268323 0.6064905 -0.6660281 0.2993317
0000b0 19 2a 88 bf 82 04 ff be 44 1a 84 3e 4a fc ea bd
       -1.0637847 -0.49808127 0.2580129 -0.114739016
0000c0 3f cc 93 bd 0a ba 9b 3e ba 23 12 3f 7b a0 12 3f
       -0.07216691 0.30415374 0.57085764 0.57276124
0000d0 2c fa a3 bd 2b 8e c0 3d c7 06 d5 3d a9 1d bb 3e
       -0.08006701 0.094021164 0.10401683 0.36546066
0000e0 65 d2 f8 bd 97 72 36 3f 5a 2f 4f bf 18 21 f1 be
       -0.121495046 0.712686 -0.8093163 -0.4709556
0000f0 ec 51 24 bf d3 dc e1 bd b8 26 32 bf 40 1b 53 be
       -0.641875 -0.11028447 -0.6959033 -0.20615864
000100 07 41 c7 3e 4f 2f 55 3e e1 c8 e6 bd c7 a4 eb 3e
       0.389168 0.20818828 -0.11268783 0.46024153
000110 55 b0 bc be 5e 3b 8a 3c c4 0f 83 3e 6c 80 06 3f
       -0.3685328 0.016874012 0.25597966 0.52539706
000120 5a b0 10 bf 01 53 c8 be 4b f7 3f bf f9 c7 2f 3f
       -0.5651909 -0.39125827 -0.74986714 0.6866451
000130 64 f4 a9 3e 66 60 c6 3e 6c 01 17 3f ac 6a 20 3f
       0.33194268 0.3874542 0.58986545 0.6266277
000140 e4 f4 15 3f b7 36 c9 3d f0 64 57 3f 61 8b 45 3f
       0.585768 0.09824889 0.84138393 0.771658
000150 3d 6f 74 bd 12 c6 ad 3c 33 2b 16 3f 28 3e 38 be
       -0.059676398 0.021212611 0.58659667 -0.1799246
000160 11 a4 9f be ad c4 12 3f 87 ab fd bd ec 13 2c 3f
       -0.3117986 0.57331353 -0.12386232 0.672179
000170 04 51 42 3e 31 bb 51 3f 1b 06 b3 3e 24 df ea 3e
       0.18976218 0.81926256 0.34965596 0.45873368
000180 32 e7 fb be f9 82 46 bb 08 e4 81 3f 42 8e 00 be
       -0.49199826 -0.0030290468 1.0147715 -0.12554267
000190 e2 c0 9e be bf 38 5e bc f3 0c b5 3e 90 c1 01 3f
       -0.31006533 -0.013563334 0.35361442 0.5068598
0001a0 f6 a6 0b 3f 3f 93 15 3f 84 e0 f7 3e d4 4c 19 3f
       0.5455164 0.58427805 0.4841348 0.59882855
0001b0 25 3c ad 3e 25 eb c1 3d 59 2b 3d 3f 7a d6 bd bb
       0.3383495 0.094686784 0.7389427 -0.00579339
0001c0 53 68 3d bf 4b d0 55 3f e3 56 a7 bd 73 27 ef 3e
       -0.7398731 0.83520955 -0.08170869 0.46709785
0001d0 4a 0a e6 be d6 04 48 3e 3c db 22 bf 15 5c 0b 3f
       -0.44929725 0.19533095 -0.63615775 0.5443738
0001e0 d5 59 f9 bd 6b b8 84 3e 61 4e a7 bf 1b 4e 0e 3f
       -0.12175337 0.2592195 -1.3070794 0.5558793
0001f0 f0 84 e0 3e 63 3a 18 bf 03 9f 84 3e b9 9d 8d 3e
       0.43851423 -0.5946409 0.25902566 0.27659395
000200 b4 42 4e 3f 68 49 a7 3d c0 3d 04 3e 7f f9 c0 3e
       0.8057053 0.08168298 0.12914181 0.3769035
000210 e8 01 30 bf 25 4e 1c 3f 93 3e 64 3e 9d b1 e2 be
       -0.6875291 0.6105674 0.22289495 -0.44276133
000220 87 d6 4f 3f 0b 37 17 3f f5 b4 1c 3f 73 77 7e be
       0.8118672 0.59068364 0.6121362 -0.24850254
000230 9d 02 0c 3f d2 87 41 3e 0a 1d 3b be b2 61 8b 3e
       0.5469149 0.18899468 -0.18272796 0.27222973
000240 85 ee e0 3e 42 2e 4f 3f a4 bf dd 3e 6b 84 89 bd
       0.43931976 0.8092996 0.43310273 -0.0671471
000250 1f 48 b9 bd 7b ca 85 be 8c 11 00 3f 9d 2d 09 3e
       -0.09046959 -0.26131043 0.50026774 0.13396306
000260 fc 15 bf 3e 24 be e9 3e 94 07 2f be b2 54 a9 bd
       0.3732146 0.45652878 -0.17092735 -0.082681075
000270 4a d0 fd 3d bf ef 8b be a3 04 16 3f 74 c9 f3 3e
       0.123932436 -0.2733135 0.58600825 0.47614634
000280 30 8c 04 bf 1a bc b4 3e 0f 9c ed 3e 5c 6d c4 3e
       -0.5177641 0.3529976 0.46408126 0.38364685
000290 5f dd 95 3d 35 f3 0a 3f cc ef 8f 3d 2c bf 39 bf
       0.07317614 0.54277354 0.070281595 -0.7255733
0002a0 b5 be b4 bd 44 0c ce 3e 40 f1 0e bf 4e 09 a6 3e
       -0.08825437 0.40243733 -0.5583687 0.32428974
0002b0 e8 c9 34 3f 2c 1f a2 bd 1a 1f 0f 3e f6 39 27 bf
       0.70620584 -0.07916102 0.13976708 -0.65322816
0002c0 8e 96 90 3d fe ce 9d be 1f 68 e2 3e a9 5a 58 3f
       0.07059966 -0.30821985 0.44220063 0.84513336
0002d0 a9 7c 69 bf 91 5a 65 3d 39 0b db 3e bb 25 36 3e
       -0.9120584 0.055994574 0.42782 0.1778783
0002e0 1a 40 37 3e 9b 48 97 3f 78 95 83 3e 09 f9 05 3f
       0.17895547 1.1819032 0.25699973 0.5233312
0002f0 93 d6 a1 3f d7 dc 08 bd c1 18 2d 3e a1 cc 3b 3f
       1.2643608 -0.033413734 0.16903974 0.73359114
000300 f5 b9 1f 3f d2 2e 0a be 7e 10 53 3e ed e1 cd be
       0.6239312 -0.13494423 0.2061176 -0.4021143
000310 d7 47 6c be 79 ea 13 3d 47 11 40 3e 35 f1 8f 3e
       -0.2307428 0.036112282 0.18756591 0.28113714

net.2.weight f4 [128, 200]
000000 1d 30 8f 3e 83 a4 7c 3e 23 87 3d be f3 00 7d bf
       0.27966395 0.24672131 -0.18508582 -0.98829573
000010 23 e1 5f be 9c ce b2 be 9f 01 18 3e e5 1c b4 3e
       -0.21863227 -0.34923255 0.14844368 0.35178295
000020 82 bb 90 bf 7b 6e 99 be aa 9b ce 3e 66 db e6 3c
       -1.1307223 -0.29967102 0.40353137 0.02818079
000030 78 87 d6 bd 7c aa ee be eb b4 90 be 84 0c e9 bd
       -0.10475057 -0.46614444 -0.2826303 -0.1137934
000040 4b aa bf be 4f e2 54 bf de 84 5f 3e 18 19 e7 3d
       -0.3743461 -0.8315782 0.21828029 0.11284083
000050 5d 23 9b be 7c 21 31 3e 70 b3 c2 bf a9 df ec 3d
       -0.30300418 0.1729793 -1.521101 0.11566097
000060 d2 59 13 3e 1e d5 74 3e 0b 4c e5 bc 6f a6 50 3f
       0.14389732 0.23909423 -0.027990362 0.8150396
000070 4a 3c 18 3f d1 18 1f 3d 1b 58 5e bf ee ad a3 3e
       0.59466994 0.038842026 -0.8685319 0.31968635
000080 8a ba 66 be 68 1f 36 be 3b 46 06 3f c6 32 83 3d
       -0.22532097 -0.17785418 0.52450913 0.06406169
000090 5f e5 a5 be c5 5b 55 be 65 c5 fd 3e 20 70 90 bc
       -0.3240156 -0.20835789 0.49564663 -0.01763159
0000a0 cf 69 7f 3e ff 80 10 3f dd 0a 20 c1 c6 3b ff 3e
       0.24942707 0.5644683 -10.002652 0.4985029
0000b0 ce ae 17 c0 7b 5e e8 be a1 14 7b be 4c 60 d0 3e
       -2.3700442 -0.45384583 -0.24519588 0.4069847
0000c0 25 98 ee be 4f 20 8e 3e 2d 93 3d 3f 8a 29 99 bf
       -0.46600452 0.27759025 0.740527 -1.1965802
0000d0 60 a9 a6 3e cb c5 01 bf 5c e3 3a 3e 3a fa ac 3e
       0.32551098 -0.50692433 0.18250793 0.33784658
0000e0 34 6b aa 3e 47 c9 44 3f 6d 8f 86 c0 be db d9 c0
       0.33284914 0.76869625 -4.205008 -6.808074
0000f0 d4 ee aa bd 07 dc d5 3e 84 37 4e c0 b3 7c 0d c0
       -0.08346334 0.4176943 -3.2221384 -2.210736
000100 bd ed dc be 45 24 06 3f 60 11 67 c0 6f cf 05 3e
       -0.4315013 0.5239909 -3.6104355 0.13067411
000110 51 00 9d bf 17 9c 7e bf fb 4b 60 3e 4f c9 3f 3f
       -1.2265722 -0.99456924 0.21903984 0.7491655
000120 6a 0c 4f bf 7d ef 63 3d 15 fb e6 bf eb fb 76 3e
       -0.8087832 0.055648316 -1.8045374 0.24119537
000130 c6 63 1c 3f 05 67 9f 3e 9e a4 eb 3e 61 2e 20 3f
       0.6108974 0.31133285 0.4602403 0.6257077
000140 c8 ba be 3e 0f af d9 be 4b 61 2e 3e 07 47 d6 3e
       0.37251878 -0.42516372 0.17029302 0.41851065
000150 f9 61 dd bd e7 8b 3c c0 99 4a a4 3e a5 76 ca 3e
       -0.108097024 -2.946039 0.32088163 0.39543644
000160 dc ac 48 3e 39 57 d1 3e 53 ae 57 3f 37 f4 0f 3f
       0.1959719 0.40886858 0.8425037 0.5623202
000170 dd b3 22 3f 62 3d 9b 3e a0 d6 c8 3d 26 cd 15 3f
       0.635557 0.3032027 0.098065615 0.58516157
000180 d7 ea 39 3d c1 41 08 bf 99 bd ad be aa 05 39 3e
       0.045389976 -0.5322533 -0.33933714 0.18068567
000190 40 e3 9f 3d 44 f5 37 bf 84 a9 71 3e d6 a0 20 bd
       0.078070164 -0.7185862 0.23599821 -0.039215885
0001a0 ec f2 e7 3e f9 b1 94 3e ea 3b 83 3e 38 39 15 3f
       0.45302522 0.29042032 0.25631648 0.58290434
0001b0 a7 f8 0a c0 b1 9e 2e bf 59 de b8 3e 59 70 56 be
       -2.1714265 -0.68210894 0.36107138 -0.20941295
0001c0 22 47 6b 3e 1b 18 f7 be 2c 45 91 bf ae b7 07 3f
       0.22976354 -0.4826058 -1.1349235 0.5301465
0001d0 2a da ad 3f 33 86 84 bf 78 3d 00 c0 a5 dc 03 3e
       1.3582203 -1.0353454 -2.0037518 0.12877138
0001e0 df 99 91 bd 23 c2 99 bc 77 76 f4 3e e5 8f c4 bf
       -0.07109427 -0.01876933 0.47746632 -1.5356413
0001f0 a0 87 f4 bd 2d e7 f3 bd 79 54 24 3e 14 0e c7 3d
       -0.11939931 -0.11909328 0.16047849 0.09719482
000200 fe cd 17 3f 5e d9 53 bf ca e4 4d bf f8 8c bb 3e
       0.59298694 -0.8275355 -0.8042723 0.36630988
000210 12 02 b7 3e 89 5b f3 bc 99 b8 23 be 04 9e bb 3f
       0.35743767 -0.029706733 -0.15988387 1.4657598
000220 0d 48 e6 3e 09 4c b3 be 0d ee 9d 3e 7d ba 27 3f
       0.44976845 -0.35018948 0.3084568 0.65518934
000230 db 28 7b bf e3 82 f5 be 14 99 6d 3e 8d a4 d5 3d
       -0.98109215 -0.4795142 0.23202926 0.10431776
000240 0c 3c 49 3e c9 29 ee 3a 4d b2 44 bc 2f 91 3e be
       0.19651812 0.0018170412 -0.012005401 -0.1861007
000250 40 cf a3 bb 8f 42 8f bf d7 b2 ce be 13 a4 45 3c
       -0.0049990714 -1.1192187 -0.4037082 0.012063044
000260 e6 10 00 be d0 a0 93 3e 2c 4b 0c 3f 24 cc 99 3a
       -0.12506446 0.28833628 0.54802203 0.0011733812
000270 9d 06 bd 3e ed 04 23 3d 6f f7 e6 bd 8f 8b 63 3e
       0.36919108 0.03979962 -0.11277663 0.22221206
000280 b2 99 f7 3d 4a be ae 3e 7a c9 dd be 7f cc 98 3e
       0.12089862 0.34129554 -0.43317777 0.29843518
000290 cd a5 1e 3f 60 66 b8 3c 08 6f f1 3e 58 32 b0 3e
       0.6197174 0.022509754 0.47155023 0.3441341
0002a0 29 76 25 3f c1 54 c3 3d 8b 41 de bf 94 6b 54 3e
       0.64633423 0.0953765 -1.7363752 0.20744163
0002b0 8a e2 a1 bd 69 77 86 be c2 2e 84 3e 17 92 90 bf
       -0.07904537 -0.26262978 0.25816923 -1.1294583
0002c0 54 d3 d3 3e f3 1d cb bf 73 cb ea bc bb 9c 34 3f
       0.41372168 -1.5868515 -0.028661465 0.7055165
0002d0 4b bf b0 c0 b4 6a f7 3c 30 18 01 3f d1 96 06 3f
       -5.523351 0.030202247 0.5042753 0.5257388
0002e0 ad 14 0a bf 67 8d ea 3e 79 7b fa 3d a2 5e 5f bc
       -0.539378 0.45811006 0.12230582 -0.013633402
0002f0 4a 3a 12 3f 30 1e 1e be e5 44 0a be 5d 55 b3 3e
       0.5712019 -0.15441203 -0.13502844 0.35026065
000300 c3 da 0e 3e ad 1c 33 c0 e6 47 a1 3d af af 8e 3f
       0.13950638 -2.7986252 0.07875042 1.1147364
000310 9c ec 31 bf 8e 98 51 bf bf 5f 99 bc 33 12 14 3f
       -0.6950166 -0.81873405 -0.018722413 0.5784027
000320 65 cc 94 3e 05 a8 5f 3e e2 52 1f 3f 22 69 92 bb
       0.2906219 0.21841438 0.62235844 -0.004468099
000330 42 c9 d7 be bb c1 dc bc 17 3b 26 3e 41 44 6b be
       -0.42145735 -0.026947847 0.16233478 -0.22975256
000340 e9 c9 a1 bd 45 8d 79 bf 8f de 87 3e a2 62 06 3f
       -0.078998394 -0.97481185 0.26536986 0.5249425
000350 f2 54 3c 3e 80 93 11 3f 25 c1 06 c0 dc b3 70 3e
       0.18391779 0.5686569 -2.1055386 0.23506111
000360 74 a8 d4 bd 91 8a 76 be 4c 32 a1 bf 50 2b 0e bf
       -0.103836924 -0.24076296 -1.2593474 -0.5553484
000370 08 da 11 bf e2 f1 24 3d 1c a7 30 3f 22 f6 64 3e
       -0.56973314 0.04026974 0.6900499 0.22359517
000380 43 69 68 3f 16 f2 c6 be 60 a3 9c 3e 5c 22 16 bd
       0.90785617 -0.38856572 0.30593395 -0.03665386
000390 45 c3 9d 3e ca 4b e3 3e 15 af b5 be f4 49 bb 3d
       0.3081304 0.4439376 -0.3548514 0.09144965
0003a0 64 b3 46 bf 57 e5 89 bd 99 e6 62 be a5 03 44 be
       -0.7761748 -0.06733196 -0.22158279 -0.19142015
0003b0 f9 82 a8 3f 01 09 0f 3e 9e cf c9 3d ce 61 83 3e
       1.316497 0.13968278 0.09854053 0.25660557
0003c0 78 66 c2 bd 58 2b 9c 3e 31 cc 09 40 7a 3e 8c 3e
       -0.094922006 0.3050182 2.1530879 0.27391416
0003d0 7d 3d 50 3f 85 49 8c 3e 7b b9 11 3e c6 d2 d5 be
       0.81343824 0.2739984 0.14230911 -0.4176237
0003e0 1e b1 09 bf ed 45 16 3e b9 c2 04 3e 3d e9 8d be
       -0.53785884 0.14675112 0.12964906 -0.2771701
0003f0 a9 1a 9f 3e f8 dd 8a bf 22 74 8e 3e 89 49 8f 3e
       0.31075028 -1.084899 0.27822977 0.2798579

net.2.bias f4 [128]
000000 0f 82 f8 3e 25 b6 61 3e ea dd 9b be c0 f4 f8 bd
       0.48536727 0.22042139 -0.30442744 -0.12156057
000010 4c a1 8d 3e 3d f7 36 3a cd 09 d0 3e bf d3 7e 3e
       0.27662122 0.00069795904 0.40632477 0.24885462
000020 f1 0a 06 3d 4c b2 7d 3e 0f b4 c9 3c dd b6 2d 3e
       0.03272528 0.24775046 0.024621991 0.16964288
000030 6f 58 1d bd 77 a1 b3 3e d2 a1 07 3e a4 ee 12 3f
       -0.038414415 0.35084125 0.13245323 0.57395387
000040 fe aa 1f 3f 8f 06 06 3d 68 98 6d bd 77 2e a4 bd
       0.6237029 0.0327211 -0.058006674 -0.08016675
000050 b4 e6 3e 3e 39 6a f9 3d 11 33 b9 3d ad fc aa bc
       0.18642694 0.121784635 0.09042943 -0.020872438
000060 60 31 e2 3e b7 b7 55 3e 8a 2e 9a 3c d4 e8 87 bd
       0.44178295 0.20870863 0.01882102 -0.06636205
000070 6e 61 38 bd b1 b0 4c bd 43 0a f5 3b e3 56 9f 3e
       -0.04501479 -0.049973194 0.00747803 0.31120977
000080 6c 0a 06 bc 2c d1 9f 3e 5f 07 c2 3e 4a 2a 80 bd
       -0.008181196 0.31214273 0.3789625 -0.06258066
000090 26 8d 40 be ed af 72 3d 78 af 78 3e 7e 4f a8 3d
       -0.18803844 0.059249807 0.24285686 0.08218287
0000a0 41 36 f1 be 1c 63 fe 3c 26 cd 04 3e 39 cc 1f bd
       -0.47111705 0.031053118 0.12968883 -0.03901312
0000b0 74 89 44 3e 70 a3 c8 be a3 8f 86 3e bc 99 94 3e
       0.19193059 -0.39187193 0.2628146 0.2902354
0000c0 f9 57 cc 3e 35 2e c4 3e e4 b6 77 bd ef 33 d0 3d
       0.39910868 0.38316503 -0.060477152 0.101661555
0000d0 f3 cb 5d 3a e5 06 87 3e bf f4 c9 3e 94 1d a0 bd
       0.0008460872 0.26372448 0.3944454 -0.078181416
0000e0 93 c6 0f 3f a5 3d a1 bb ce 2d 80 bd 55 f4 44 bd
       0.56162375 -0.0049206787 -0.062587366 -0.048084576
0000f0 06 65 93 bd e2 06 6f bc 10 f1 8a bd a2 70 af bd
       -0.07197003 -0.014589043 -0.0678426 -0.08566405
000100 47 e3 4f bd c6 5a 25 bb 8d 35 0f 3f 4e 9d 07 3f
       -0.050753858 -0.0025231107 0.55941087 0.529744
000110 9b ff e5 ba 6e be 52 3d 3b d6 35 3d e8 01 92 3e
       -0.001754749 0.05145114 0.04439376 0.2851708
000120 61 d2 bf 3e ad fb 73 3d 40 78 ea 3d 32 2c 12 bc
       0.37465194 0.05956619 0.11448717 -0.00892167
000130 6b 39 36 bd 0e 9c 97 be ad 07 78 3e 39 d6 a9 3e
       -0.04448835 -0.29611248 0.24221678 0.3317125
000140 8a 10 96 3e d1 5f 9d 3c 21 e5 85 be 4b d7 83 3e
       0.29309493 0.019210728 -0.26151374 0.25750193
000150 2b 0a c0 3e 2c af 83 3d e6 5a 9e bd e9 7d 3c 3e
       0.37507758 0.06429896 -0.07732181 0.18407406
000160 f3 84 1b 3f 2d 52 e3 bb 1b da 39 bd fb fe 50 3e
       0.6074974 -0.0069372864 -0.045374017 0.20409767
000170 71 15 4d bd b5 5a 29 3d 83 6f c3 3e 78 d6 e2 3e
       -0.050069276 0.04134627 0.38171014 0.44304252
000180 33 8b 07 3e 61 01 be bd 89 86 62 3e e0 90 82 bc
       0.13236694 -0.09277607 0.22121634 -0.015938222
000190 a1 92 bf 3e 57 dc 81 be 28 fe 03 bd b9 32 15 bb
       0.37416556 -0.25363418 -0.032224804 -0.0022765829
0001a0 e3 51 15 be 79 77 3c 3e cb c4 85 3e 37 0d 09 bd
       -0.14582019 0.1840495 0.26126704 -0.03345987
0001b0 97 49 1a 3d 01 9b 2e bd cc 4a e4 3d 15 88 08 bd
       0.037667837 -0.042628292 0.11147079 -0.033332903
0001c0 21 ea 4f 3e 52 fe 75 bd 01 36 69 3e 17 bd 49 3d
       0.20304157 -0.060056992 0.22774507 0.049252596
0001d0 aa 29 00 be c9 e7 a0 3e 47 e0 ca 3e b3 ad ab 3e
       -0.12515894 0.31426838 0.39624235 0.3353096
0001e0 6a 41 75 3e 6a 31 04 3f 7c 7b 09 bf a3 88 e5 bd
       0.23950735 0.516379 -0.5370405 -0.11207702
0001f0 cc 25 e8 bd 74 cf 81 bd 5a 0f 78 3e 06 48 ae 3c
       -0.11335334 -0.06338397 0.24224606 0.021274578

net.4.weight f4 [4, 128]
000000 06 b3 17 bf e5 e2 2d 3f b9 2d 8a bf ed 1c ce bf
       -0.59257543 0.6792434 -1.0795203 -1.6102577
000010 8d ae 57 bf a8 16 a8 bf 6a 7a a1 bf 49 ce b6 bf
       -0.8425072 -1.3131914 -1.2615483 -1.4281703
000020 39 5b 70 bf ed 21 42 bf 47 8d 59 bd a6 a5 a2 bf
       -0.93889195 -0.75833017 -0.05311325 -1.2706802
000030 f4 e0 a1 3e 04 cc 9e be b7 e1 b9 be 11 8d 48 bf
       0.31616938 -0.31015027 -0.3630502 -0.7834025
000040 39 20 a5 3f 45 81 3b bc 02 6c 1b bc b3 3f 3b 3d
       1.2900459 -0.0114443945 -0.0094862 0.045715045
000050 c8 53 89 bf e8 e9 ae be 52 1c 28 c0 fb 53 ec 3f
       -1.0728693 -0.3416283 -2.6267285 1.8463129
000060 42 83 a2 bf 1d b7 45 bf f3 ac b6 3c 5f 05 19 bd
       -1.2696307 -0.77232534 0.022299265 -0.037358638
000070 9c af e6 3c a9 0f cb ba 2b 63 25 bf b3 4e 52 bf
       0.028159909 -0.0015492338 -0.64604443 -0.82151335
000080 09 18 d4 3c 43 5b eb bf 28 47 8e bf da 25 1b bc
       0.025890367 -1.8387226 -1.1115465 -0.009469474
000090 32 fd 14 40 fc a0 f0 3e 58 77 be bf 3a 9b a8 bf
       2.3279538 0.4699782 -1.4880171 -1.3172371
0000a0 14 66 40 c0 dd e7 52 3d 1f bc 9b be 71 cd fb 3c
       -3.0062304 0.051490653 -0.30416963 0.03073761
0000b0 98 32 2d 3c 6a c7 49 40 e0 c0 98 bf 06 14 b5 be
       0.0105711445 3.1527963 -1.1933861 -0.3536684
0000c0 b8 57 94 3e 6c 78 35 bf bc bd a3 3d 13 2f 40 40
       0.28973174 -0.70886874 0.07995173 3.0028732
0000d0 14 3c 6c ba 81 dc b3 bf 6c c8 5f bf e2 ea 2f bd
       -0.0009011638 -1.4051667 -0.87415195 -0.04294861
0000e0 83 34 ee 3f 3b 74 1f bf cf 37 69 3d 93 3d 78 3d
       1.8609775 -0.6228673 0.05693799 0.060605597
0000f0 fa 4c 04 3d 92 1d b9 3e bb 10 4f 3d dc 3e 83 3d
       0.032299973 0.36155373 0.050553065 0.06408474
000100 14 54 0e bd 4b 53 21 bf 44 c3 a6 3f 88 ea a1 3f
       -0.034748152 -0.6301772 1.302834 1.2649698
000110 ee 65 34 bf 0e f7 ba 3c ca 50 a2 bf ea 59 fe be
       -0.7046803 0.022822883 -1.2680905 -0.49677974
000120 4a f2 b5 3f 8f e1 7a 3e 5f cc e7 be 5e 64 9c bc
       1.4214566 0.24500106 -0.4527311 -0.019090828
000130 29 85 6d bd 84 21 b1 bf 36 62 2a bf 81 34 ba 3f
       -0.05798832 -1.3838353 -0.6655611 1.4547273
000140 3f e6 4f bf ab 01 ee bc 9c 76 21 c0 f6 9d 0b bf
       -0.812107 -0.02905353 -2.5228643 -0.54537904
000150 5f cd 54 bf fa 51 66 be 95 59 37 3d d2 a3 7c 3e
       -0.8312587 -0.22492209 0.044763166 0.24671867
000160 51 60 af 3f 4e d9 90 bc 86 10 4b bf 99 7b 97 be
       1.3701268 -0.017681744 -0.7932209 -0.29586485
000170 c7 c5 3a 3d ad 4f 5e 3d 10 77 88 bf 42 78 78 bf
       0.04559877 0.054275203 -1.0661335 -0.970585
000180 e4 bb b9 bf b4 03 bd 3a 4e 91 80 bf 9c 0d 2c bc
       -1.4510465 0.0014420659 -1.0044343 -0.010501292
000190 2d f0 a7 3f fa 74 e5 bf 95 0c 09 bd 7c 62 8c 3d
       1.3120171 -1.7926323 -0.033459265 0.06854722
0001a0 71 9a 09 c0 c4 fa 8b be 15 d3 13 bf 63 fd fc 3b
       -2.1500514 -0.27339756 -0.5774396 0.0077206357
0001b0 b3 00 6b bd f9 f3 c2 3c a5 54 b3 bf 3f 00 4d 3d
       -0.057373714 0.023797976 -1.4010206 0.050049063
0001c0 49 e6 da 3d ad 1d 9f 3b 7e 34 4e bf fe c5 86 bf
       0.10688455 0.0048558326 -0.80548847 -1.0529172
0001d0 73 13 1a bf f9 a5 bf 3f a6 45 8c c0 5c c4 5f bf
       -0.6018593 1.4972526 -4.383502 -0.87408996
0001e0 4a 2c 2e bf b0 ab 20 bf af e2 20 3f 0f 9a 92 3d
       -0.6803633 -0.62761974 0.6284589 0.071582906
0001f0 a3 16 da bf 3d 3e bb 3c f0 65 9d 3e ab e0 ed bb
       -1.7038158 0.022856826 0.30741835 -0.0072594485
000200 1b 75 46 bf 9a ea 20 3e 8a 6f 01 c0 b8 a0 95 bf
       -0.7752244 0.15714493 -2.0224328 -1.1689672
000210 02 aa 77 bf 3f 0e 8d bf 4d 36 b3 bf d0 5b b0 bf
       -0.96743786 -1.1019973 -1.4000946 -1.3778019
000220 98 db 33 bf 51 9c fb be 78 e1 3a 3d 5c c6 3d bf
       -0.7025695 -0.49142697 0.04562518 -0.741308
000230 48 c4 75 3f 5a 96 11 be 0b 35 3d 3e 7d 10 8b be
       0.96002626 -0.14217511 0.18477266 -0.27161017
000240 61 e5 cf 3f 6d 8d 27 3d fe 53 84 3d f6 7e cf bb
       1.6241876 0.04090636 0.06461333 -0.0063322736
000250 a4 03 5c bf 80 29 c1 be 99 53 eb bf e0 43 b4 3f
       -0.85943055 -0.37726974 -1.8384887 1.4083214
000260 9d 61 08 bf 2c f5 25 bf f9 ab 89 3d c2 96 c9 3c
       -0.53273946 -0.6482723 0.06722254 0.02460802
000270 8a d5 b5 bc ce 29 1c bd de 67 1f c0 eb 7e 89 bf
       -0.02219655 -0.038125806 -2.4907146 -1.0741857
000280 c3 8b 82 bd 3f 12 ac bf 0d 91 9f bf 76 46 23 be
       -0.06374314 -1.3443068 -1.2466141 -0.15944847
000290 7a 89 e4 3f ec a4 19 3e 71 b1 5c bf 78 d4 d1 bf
       1.7854455 0.15004319 -0.86208254 -1.6392965
0002a0 cb 70 12 c0 2b 76 ca bd b0 8e 33 bf a0 00 23 bd
       -2.2881343 -0.0988582 -0.701396 -0.039795518
0002b0 48 aa 8d 3f 74 cc 72 40 db 96 8f bf 52 ab a3 bf
       1.1067591 3.7937288 -1.1217912 -1.2786658
0002c0 30 4c 06 bd 4a 6f 39 bf db e3 89 bd ef 0c 34 40
       -0.0327875 -0.7243544 -0.06732913 2.8132894
0002d0 35 54 30 bb 85 7f 9e bf e0 2e 63 bf 3b c3 bd 3d
       -0.002690566 -1.2382666 -0.887434 0.09265753
0002e0 c1 c9 c7 3f d5 96 a2 be 70 cf 8f 3c 8c b7 8c bd
       1.5608445 -0.317557 0.017554969 -0.06870946
0002f0 61 96 09 3d 5b 4e c6 3f 3b da b6 3c 2c 99 45 3d
       0.033590678 1.5492662 0.022320857 0.04824178
000300 f4 89 1f 3d d2 26 c3 bf 5f a6 c5 3f 0c 7a c3 3f
       0.03894992 -1.5246222 1.5441397 1.5271621
000310 ae 53 70 bf 73 21 90 3d cf 9d be bf 88 5a a8 bd
       -0.93877685 0.0703763 -1.4891909 -0.082203925
000320 9f f8 ab 3f aa 94 35 bf af 02 ff be ef 00 0d bd
       1.3435248 -0.7092997 -0.49806735 -0.03442472
000330 2e f0 27 3d ea ff ea bf a7 d7 cb be 88 2e 5a 3f
       0.041000538 -1.8359349 -0.39812967 0.8522725
000340 5b ee 2c bf 30 42 aa 3d 9d 12 1f c0 cb fa 1a bf
       -0.675512 0.083134055 -2.485511 -0.6053893
000350 c3 3f 8f bf 8c 66 9d bf 8b 62 e5 bb c9 a5 a8 3e
       -1.1191334 -1.229692 -0.0070002726 0.32938984
000360 76 23 bd 3f 7b c9 83 3d 51 1e 2a bf 62 c4 1a bf
       1.4776447 0.06434914 -0.6645251 -0.60455906
000370 3c b0 0b 3d 26 38 09 bc 09 ac 68 bf 6f af 86 bf
       0.034103617 -0.008375203 -0.90887505 -1.0522288
000380 f6 8a 9b bf e4 78 8a 3d d7 b3 8a bf 26 31 5b 3d
       -1.2151783 0.06761339 -1.0836133 0.05351367
000390 3a d8 4c 3f 09 82 ee bf 02 c2 90 bc aa bc 11 bd
       0.80017436 -1.8633434 -0.017670635 -0.035580315
0003a0 2b 6a f8 bf aa 7a 78 bf e8 05 61 bf e3 0c 96 3d
       -1.94074 -0.9706217 -0.8789964 0.07326677
0003b0 d3 11 23 3d a3 53 5b 3c ed 78 f8 bf 63 6e 34 bd
       0.03981192 0.01338664 -1.9411904 -0.044050585
0003c0 4f 36 5b 3f bc f9 e7 3b a3 50 4b bf 09 ef 7e bf
       0.85629743 0.007079331 -0.79419917 -0.9958349
0003d0 ea 22 d6 bf 9f 85 b7 3f c2 06 14 c0 09 df 55 bc
       -1.6729405 1.4337653 -2.3129125 -0.013053664
0003e0 75 e1 6b bf cc d9 27 3e 50 c5 3c bf e6 b9 66 bc
       -0.92140895 0.16391677 -0.73738575 -0.014082408
0003f0 0b c8 bd bf d0 59 63 3d fc a6 26 bf d8 cc 73 3c
       -1.4826673 0.055505574 -0.6509855 0.0148803815

net.4.bias f4 [4]
000000 d0 38 d4 3d e6 65 30 3e da be d5 3d d6 46 44 be
       0.103623986 0.17226371 0.10436793 -0.19167647
