experiments/LunarLander-v2-descrete-hyperpra-tunnig/ed/0.005/model.pt (torch, 114135 bytes, 6 tensors)

net.0.weight f4 [200, 8]
0	0x3ed606c5	0.4180204
1	0xbf0f1727	-0.558947
2	0x3c908487	0.017641319
3	0x3e9fea0f	0.3123326
4	0x3f36b771	0.7137366
5	0xbd133f7e	-0.035949223
6	0xbfa2b551	-1.2711583
7	0x3f1428e5	0.578749
8	0x3f4ccf04	0.8000338
9	0xc089a4b4	-4.3013554
10	0xbf7a15e8	-0.97689676
11	0xbeea92f6	-0.45815247
12	0xbe8b4f6c	-0.27209032
13	0xbfb11886	-1.3835609
14	0xbe034ada	-0.12821522
15	0x3c8e395e	0.01736134
16	0x3e6db040	0.23211765
17	0xbf21801c	-0.63086104
18	0x3f066452	0.52496827
19	0xbe3cfeab	-0.18456523
20	0xc009c3d8	-2.1525784
21	0xbe5f6a45	-0.21817882
22	0xbf13cb15	-0.57731754
23	0xbf53053d	-0.8242987
24	0x3f63e30e	0.8901833
25	0xbe4933c7	-0.19648658
26	0xbebba988	-0.3665278
27	0xbf7548d8	-0.95814276
28	0x3f6fe39c	0.9370668
29	0xbe8a4847	-0.27008268
30	0x3f21e025	0.6323264
31	0xbef70d68	-0.48252416
32	0xbf51d2ce	-0.8196229
33	0xbf0819fc	-0.5316465
34	0xbebe53f2	-0.3717342
35	0x3f43b087	0.76441234
36	0xbfc18a56	-1.5120342
37	0xbebd4b3d	-0.36971465
38	0x3e0c4f23	0.13702063
39	0xbe189f42	-0.14904502
40	0x3e39774a	0.18111911
41	0x3e6b5444	0.22981364
42	0x3ef5a9a7	0.47980997
43	0x3f26b008	0.6511235
44	0xbfa5c466	-1.2950561
45	0xbdc88d3f	-0.097925656
46	0x3dda2c97	0.10653036
47	0xbe3847dc	-0.17996162
48	0xbe3e4f1f	-0.1858487
49	0xbefc17ac	-0.4923681
50	0xbea2fb40	-0.31832314
51	0x3f85aeb1	1.0443937
52	0x3ea5a151	0.32349637
53	0x3ef5909a	0.47961885
54	0x3c799862	0.015234085
55	0x3dde0819	0.10841388
56	0xbf354be6	-0.70818937
57	0xbee001b6	-0.43751305
58	0x3f80456c	1.0021186
59	0x3d8377a9	0.06419308
60	0x3efee4bc	0.49783885
61	0xbf20c8dd	-0.62806493
62	0x3f0dde12	0.5541698
63	0xbfba9783	-1.4577488
64	0xbfc102ff	-1.5079039
65	0xbfd391f9	-1.6528922
66	0xbf121f88	-0.5707936
67	0x3ee3ac38	0.4446733
68	0x3fd74d49	1.682046
69	0x3e4b35b7	0.1984471
70	0xbdcf568b	-0.10123929
71	0xbe09e460	-0.13466024
72	0x3f386e9f	0.72043794
73	0xbf12cfcb	-0.57348317
74	0x3fa2df2a	1.2724354
75	0x3ef2c83a	0.47418386
76	0x3f59bea8	0.85056543
77	0xbecd0f3e	-0.4005069
78	0x3e25c67b	0.16188996
79	0xbd0cdbb3	-0.03438921
80	0x3baa622a	0.0051996903
81	0xbe8a34db	-0.2699345
82	0xbe85ea43	-0.2615529
83	0x3adecbd0	0.0016997997
84	0xbfdcb99f	-1.7244147
85	0x3e70e8ab	0.23526256
86	0xbe71c6c9	-0.23610987
87	0xbb7304ce	-0.0037081721
88	0xbfab3c77	-1.3377827
89	0x3dcf666a	0.10126956
90	0xbecadfb1	-0.39623788
91	0xbc2813b5	-0.010258605
92	0xbf2e63f8	-0.6812129
93	0xbe21bad7	-0.1579393
94	0x3ea6730f	0.32509658
95	0xbddd558b	-0.10807332
96	0x3dc374a6	0.09543733
97	0x3edcc291	0.43117192
98	0xbde38e26	-0.11111097
99	0xbf1f0860	-0.62122154
100	0xbfab739e	-1.3394659
101	0x3f869da5	1.0516859
102	0xbe4f75af	-0.20259736
103	0xbf04fca3	-0.51947993
104	0xbebeade2	-0.37242037
105	0xbf5f780e	-0.87292564
106	0x3bd15f5a	0.0063895406
107	0xbe498743	-0.19680505
108	0xbe0e22f0	-0.13880515
109	0x3f8aea9c	1.0852847
110	0x3d2b387b	0.04180191
111	0x3ea7037d	0.3261985
112	0x3ddbf81a	0.10740681
113	0xbefa6af5	-0.48909727
114	0xbe959c50	-0.2922082
115	0xbec1621a	-0.37770158
116	0x3f2f6908	0.6851964
117	0x3f11f552	0.57014954
118	0x3f118c79	0.5685497
119	0xbf27caad	-0.65543634
120	0xbf1dcba9	-0.61638886
121	0xbe5e6e0b	-0.21721666
122	0x3d9cfa0b	0.076648794
123	0xbe9fdff8	-0.31225562
124	0xbe54407c	-0.20727724
125	0x3f727f82	0.9472581
126	0xbe5da11f	-0.21643494
127	0xbecac9e0	-0.39607143
128	0xbec95133	-0.39319763
129	0xbf02a142	-0.5102731
130	0x3ed543e0	0.41653347
131	0xbd401d73	-0.046903085
132	0xbef73f55	-0.48290506
133	0x3f7f91b5	0.99831706
134	0xbe0a4d95	-0.13506158
135	0x3f29bd57	0.66304535
136	0xbf51b336	-0.8191408
137	0xbe7eed56	-0.24895224
138	0xbf1dd7a9	-0.61657196
139	0xbf8fc57f	-1.1232146
140	0xbe84b0b9	-0.2591608
141	0xbe1d14a6	-0.15339908
142	0xbefc0cdc	-0.4922856
143	0xbfd925c3	-1.6964649
144	0x3f978aff	1.1839293
145	0xbf1cf111	-0.6130534
146	0x3f37a2fb	0.71733063
147	0xbe2246b2	-0.1584728
148	0xbea1cfeb	-0.3160394
149	0xbe9222a1	-0.28542045
150	0xbd04e3e6	-0.032443903
151	0xbdfdbe21	-0.1238978
152	0xbe02532a	-0.12727037
153	0xbdf6375a	-0.12022276
154	0x3f15ffd6	0.585935
155	0xbf73dc3a	-0.95257914
156	0xbd521d5b	-0.051297527
157	0x3d89e5a6	0.06733255
158	0xbf8345fd	-1.0255734
159	0x3d38f797	0.045157995
160	0xbe535391	-0.20637347
161	0x3e2eeb18	0.17081869
162	0xbf302a97	-0.68814987
163	0xbec10d9f	-0.37705705
164	0x3ed54727	0.41655847
165	0xbfa880ff	-1.3164366
166	0xbe41075e	-0.18850467
167	0x3c97e505	0.018541822
168	0x3e183355	0.14863332
169	0xbf65dc8e	-0.89789665
170	0x3f79d9d7	0.9759802
171	0xbee914a7	-0.4552357
172	0xbee31308	-0.44350457
173	0xbdd05359	-0.10172147
174	0xbd2ce2c9	-0.042208467
175	0xbfa23ca9	-1.2674762
176	0xbeb17e47	-0.34666654
177	0x3f019bd5	0.50628406
178	0xbedefa12	-0.43550164
179	0x3f5f9638	0.8733859
180	0x3ebfd1a4	0.3746463
181	0x3f60a244	0.877476
182	0x3e0d7eee	0.13817951
183	0xbe353239	-0.1769494
184	0xbe5a2b3b	-0.21305554
185	0xc033e0a8	-2.810587
186	0x3e5d3435	0.21601947
187	0x3ca63ff6	0.02029417
188	0xbf44112d	-0.7658871
189	0x3eb26212	0.34840447
190	0xbc92821b	-0.017884305
191	0x3b928543	0.0044714524
192	0xbf6effe2	-0.93359196
193	0xc001346a	-2.018824
194	0x3e0f3028	0.13983214
195	0xbe357b7c	-0.17722887
196	0xbf5c2ce4	-0.86006
197	0x39e216b9	0.0004312301
198	0xbe3a0ec8	-0.18169701
199	0x3addb512	0.0016914925
200	0xbd3675bb	-0.04454587
201	0xbec96625	-0.39335743
202	0x3dcd6c03	0.10030367
203	0xbecc9660	-0.39958477
204	0xbf0cba9d	-0.5497225
205	0xbb373e36	-0.0027960665
206	0x3ec6e9bc	0.388502
207	0xbf74af32	-0.95579827
208	0xbdafdb11	-0.085867055
209	0xbf0798bf	-0.5296745
210	0xbeccb008	-0.3997805
211	0xbf495f49	-0.7866102
212	0x3da8cd5e	0.08242296
213	0xbfa869d7	-1.31573
214	0xbf6054db	-0.8762948
215	0x3ecdbf72	0.40185124
216	0x3f9a9e5b	1.2079576
217	0xbeb27bc5	-0.34860054
218	0xbf1ae440	-0.6050453
219	0x3f9d7cc4	1.23037
220	0x3f918bc6	1.137078
221	0xbf56a7ed	-0.83849984
222	0x3f1fa1f3	0.6235649
223	0xbfb18cde	-1.3871114
224	0x3ed09329	0.40737274
225	0xbdbab481	-0.0911646
226	0xbeb7023b	-0.3574389
227	0x3f3af670	0.73032284
228	0x3fa91b9e	1.3211553
229	0x3eac1d44	0.33616078
230	0x3f0701c5	0.52737075
231	0xbef836b7	-0.48479244
232	0x3ddb926b	0.107212864
233	0xbfd6c30c	-1.6778274
234	0xbf1d2eaf	-0.6139936
235	0xbf8e0734	-1.1095948
236	0x3f23b306	0.63945043
237	0x3d65555e	0.055989616
238	0xbfafb114	-1.3725915
239	0x3f097e44	0.5370829
240	0xbf4de4d1	-0.8042727
241	0x3ef04e9a	0.46934968
242	0x3ea8b3e6	0.32949752
243	0xbf519b81	-0.81877905
244	0xbe8d4152	-0.27588898
245	0xbe3a919f	-0.18219613
246	0x3de5ee89	0.112271376
247	0xbe8c998b	-0.27460894
248	0xbd9ce7cc	-0.07661399
249	0x3e8b800b	0.27246127
250	0x3f3a5f5c	0.72801757
251	0xbf39e082	-0.72608197
252	0xbf7d2f76	-0.98900545
253	0xbf24ec05	-0.6442264
254	0x3db3122e	0.08743702
255	0xbf7f39e6	-0.9969772

net.0.bias f4 [200]
0	0xbe846d0d	-0.2586445
1	0xbe8a14b1	-0.2696891
2	0xbdf5635c	-0.11981842
3	0x3d66aba2	0.056316026
4	0x3ec09828	0.37616086
5	0x3efbac0d	0.49154702
6	0x3f4d85cd	0.8028229
7	0xbe143717	-0.1447414
8	0x3ec26b61	0.3797255
9	0x3df6056d	0.12012754
10	0x3e3195d9	0.17342319
11	0xbf24b5df	-0.64340013
12	0x3f19b866	0.60046995
13	0xbeb29c57	-0.34884903
14	0xbe9a3d09	-0.3012469
15	0x3ec1e383	0.3786889
16	0x3e725354	0.236646
17	0x3ee4695f	0.44611642
18	0x3e424280	0.1897068
19	0x3e6afdf3	0.22948436
20	0x3ca0f1fc	0.019646637
21	0xbdb7c0ed	-0.089723445
22	0x3ed92b19	0.42415693
23	0x3ecb470a	0.39702636
24	0x3f566de8	0.83761454
25	0x3f0032c6	0.50077474
26	0x3e84f207	0.25965902
27	0xbf74af31	-0.9557982
28	0xbe915fef	-0.28393504
29	0xbe7d4e6d	-0.24736948
30	0x3eb2f378	0.34951377
31	0xbda7141a	-0.08158131
32	0xbf4c9088	-0.7990804
33	0x3eec09c2	0.46101195
34	0x3f043a78	0.51651716
35	0xbd3f0b95	-0.046641905
36	0xbe869c0b	-0.26290926
37	0xbf4429cb	-0.7662627
38	0x3e858821	0.2608042
39	0x3f72a3b1	0.94781023
40	0xbd796e66	-0.0608963
41	0xbf37680d	-0.71643144
42	0xbd043d68	-0.032285124
43	0x3f2bd6e8	0.67124796
44	0xbf1ba12e	-0.60792816
45	0x3e06b8ff	0.13156508
46	0x3f277605	0.6541446
47	0x3f1f07e5	0.6212142
48	0xbe85c221	-0.2612467
49	0x3e9a62d9	0.3015354
50	0x3ca7123f	0.020394443
51	0xbe1f1323	-0.15534644
52	0x3f14f32a	0.5818354
53	0xbefec961	-0.49763015
54	0xbefd8c6f	-0.49521205
55	0x3eacd0dc	0.33753097
56	0x3ef1ed75	0.47251478
57	0xbd089fdc	-0.03335558
58	0x3f30d336	0.6907228
59	0x3e0082cd	0.12549897
60	0x3ebb6919	0.3660362
61	0x3e2c13f6	0.1680449
62	0x3e7cc5a3	0.24684767
63	0xbd2f4202	-0.04278756
64	0x3e995d72	0.29954106
65	0x3f00da4f	0.5033311
66	0xbe93c06a	-0.28857738
67	0xbf14e9d1	-0.58169276
68	0x3eee84f0	0.46585798
69	0xbe06defc	-0.13171
70	0xbe9e2494	-0.30887282
71	0x3f0da84c	0.55334926
72	0xbed2901d	-0.41125575
73	0x3d665569	0.056233797
74	0xbf3b1b02	-0.73088086
75	0xbe6c84e9	-0.23097576
76	0x3ecc70d7	0.3992984
77	0xbf281af2	-0.65666115
78	0x3e8e2235	0.27760473
79	0x3eaa8f25	0.33312336
80	0xbbdfc33d	-0.006828694
81	0xbdc28e4a	-0.09499796
82	0xbf7790f1	-0.9670554
83	0x3e9b57fa	0.30340558
84	0x3db15c76	0.08660214
85	0x3df0f50b	0.11765488
86	0x3f37ad66	0.7174896
87	0x3eb7c979	0.358959
88	0xbd0be5ee	-0.034154825
89	0x3eca8ece	0.39562076
90	0xbe7fdead	-0.24987288
91	0xbb418bc1	-0.0029532763
92	0xbf287634	-0.65805364
93	0xbf688ae6	-0.9083694
94	0x3f68c16c	0.9092014
95	0xbe8a5d03	-0.27024087
96	0xbf906657	-1.1281232
97	0x3e674e37	0.2258843
98	0x3f0a0aa9	0.53922516
99	0xbef853a7	-0.48501322
100	0x3e8c5a3f	0.27412602
101	0xbedca6f6	-0.4309613
102	0x3f318caf	0.6935529
103	0xbca6c5b6	-0.020357948
104	0xbd9ca549	-0.07648713
105	0x3e9dc67a	0.30815488
106	0x3eb6a405	0.35672012
107	0xbf10b614	-0.5652783
108	0x3e918c00	0.28427124
109	0x3f78a680	0.9712906
110	0x3dab9753	0.08378472
111	0x3f2b69e7	0.6695847
112	0x3e03e65a	0.12880841
113	0x3e837b3f	0.25679967
114	0xbee07284	-0.43837368
115	0x3eeee889	0.46661785
116	0x3d623a48	0.055231363
117	0xbed7949f	-0.42105576
118	0xbf2abfca	-0.66698897
119	0x3ebaa0ae	0.36450714
120	0x3e167a5b	0.14695112
121	0x3f2eee9c	0.6833284
122	0xbde1bf88	-0.1102286
123	0x3e86024b	0.26173624
124	0xbe20b2aa	-0.15693155
125	0xbd075de9	-0.033048544
126	0xbf5ce278	-0.86283064
127	0x3e8bfc9f	0.27341172
128	0x3ee4bc23	0.44674787
129	0xbc0d2bf1	-0.0086164335
130	0x3f13a8c4	0.5767939
131	0x3eaef845	0.3417379
132	0x3e343737	0.17599188
133	0x3e962602	0.29325873
134	0xbf1a1a20	-0.60196114
135	0xbf85433a	-1.0411141
136	0xbdd45a0c	-0.103687376
137	0x3ef5aaf8	0.47982
138	0x3f5f3be8	0.87200785
139	0xbf38a57a	-0.721275
140	0x3e96bc0c	0.29440343
141	0x3f0e3506	0.5554966
142	0x3f13a440	0.576725
143	0xbe1478fb	-0.14499275
144	0x3ec3a24a	0.38209754
145	0x3d39cd5a	0.045361854
146	0xbf73d168	-0.95241404
147	0xbea0488f	-0.31305358
148	0x3e75e010	0.24011254
149	0xbdb82c7a	-0.08992858
150	0x3f16d429	0.5891748
151	0xbe96c177	-0.29444477
152	0x3e04d575	0.12972052
153	0xbf0fe574	-0.5620949
154	0xbe7c3da7	-0.24632894
155	0xbe641aa4	-0.22275788
156	0x3ea9d21d	0.33168116
157	0x3d712501	0.05887318
158	0xbe1d2e5a	-0.15349713
159	0x3d7daeaf	0.06193417
160	0xbe54dfae	-0.20788452
161	0x3e1eaaff	0.15494917
162	0xbf78eb60	-0.97234154
163	0xbeae5ab9	-0.3405359
164	0x3f41694d	0.755513
165	0xbc9903c1	-0.018678548
166	0xbe8f9f10	-0.28051043
167	0x3e30df7b	0.17272751
168	0x3f046a98	0.5172515
169	0xbf3097ac	-0.6898143
170	0x3f0c284f	0.54749006
171	0x3e89a063	0.26880178
172	0x3d84e634	0.0648922
173	0xbc44838a	-0.011994252
174	0x3eec6304	0.46169293
175	0x3df1be01	0.118038185
176	0x3f3288ed	0.6974018
177	0x3eb427c4	0.3518659
178	0xbf1fc645	-0.6241191
179	0x3f8d87da	1.1057084
180	0xbeead514	-0.4586569
181	0x3ea1f813	0.31634578
182	0xbdc5ad29	-0.09652168
183	0x3e7238db	0.23654501
184	0x3eb38905	0.35065475
185	0x3e146ff1	0.14495827
186	0x3e7960be	0.2435331
187	0x3f1c5e6c	0.61081576
188	0xbed273a6	-0.41103858
189	0x3e8feb50	0.28109217
190	0x3f3b213b	0.7309758
191	0xbef0df6d	-0.4704546
192	0x3f297c84	0.6620562
193	0x3daaba8f	0.083363645
194	0xbc8be097	-0.017074866
195	0xbf08d6eb	-0.5345294
196	0x3d11759f	0.035512563
197	0xbdacb0c4	-0.08432153
198	0xbe99d4c5	-0.30045143
199	0x3f5c17c2	0.8597375

net.2.weight f4 [128, 200]
0	0xbc3c4cb1	-0.011492894
1	0xbd1a509d	-0.037674535
2	0x3d1b744c	0.037952706
3	0x3c85cf48	0.016334191
4	0xbd86d7c7	-0.06584125
5	0xbcb67fc6	-0.022277724
6	0xbc036f72	-0.008022176
7	0x3aff8ae4	0.0019496349
8	0x3c8e9a20	0.017407477
9	0xbdbe8a05	-0.09303669
10	0xbb5c380e	-0.0033602747
11	0xbc772c92	-0.01508631
12	0x3be726f8	0.007054206
13	0xbc54b882	-0.012983443
14	0x3aa5b22e	0.0012641603
15	0xbdaed175	-0.085360445
16	0xbd7aef45	-0.06126334
17	0xbda703cd	-0.08155022
18	0xbd0726ae	-0.032995872
19	0x3cd7716f	0.026299207
20	0xbd23ac38	-0.039959162
21	0x3dafdc13	0.08586898
22	0xbd1f51d4	-0.038896397
23	0xbb5864f5	-0.003301916
24	0xbd417292	-0.047228403
25	0xbda1370f	-0.0787183
26	0xbdacae8d	-0.084317304
27	0xbd9603ad	-0.0732492
28	0x3cb5daec	0.022199117
29	0x3c0b3cdd	0.008498398
30	0xbd96a94d	-0.0735651
31	0x3ca968eb	0.020679912
32	0x3caa685d	0.020801717
33	0xbd4a3601	-0.04936791
34	0xbd906ad3	-0.07051625
35	0x3c869a25	0.016430924
36	0x3ba40170	0.005005054
37	0x3ccd382a	0.025051195
38	0xbdec3d36	-0.115351126
39	0x3c2a3fa7	0.010391152
40	0xbc6da25a	-0.01450404
41	0xbd785161	-0.060624484
42	0xbbb835a0	-0.005621627
43	0xbdc81f71	-0.09771622
44	0xbce667df	-0.028125701
45	0xbdd4812d	-0.10376201
46	0xbd2af203	-0.041734707
47	0xbcaad235	-0.020852188
48	0x3ce2992a	0.027660925
49	0xbd9a3cde	-0.07531141
50	0xbc4ebab8	-0.012617759
51	0xbcdebf5b	-0.027190855
52	0xbd0344b5	-0.032047946
53	0xbdab1425	-0.08353452
54	0x3b5b7a10	0.0033489503
55	0x3c66fa21	0.014097721
56	0xbc25cdf2	-0.010119902
57	0xbda5617c	-0.08075234
58	0x3b5401b5	0.003234965
59	0xbdb64c2f	-0.089012496
60	0x3cf3c533	0.029757118
61	0xbd9df7b7	-0.077132635
62	0x3b44aaf1	0.0030009116
63	0xbc65aa2d	-0.014017624
64	0x3ca76950	0.02043596
65	0xbd858fbc	-0.06521556
66	0xbd5b9900	-0.05361271
67	0x3c055148	0.008137055
68	0x3cc6cf6b	0.024268826
69	0xbd97487d	-0.07386873
70	0x3d1b5374	0.037921384
71	0xbd0aa491	-0.03384835
72	0x3d5ba118	0.053620428
73	0xbca3106e	-0.019905295
74	0xbd965b71	-0.0734166
75	0xbb955434	-0.004557157
76	0xbc5c98b7	-0.013464144
77	0xbd5ecc6b	-0.054394167
78	0xbb498977	-0.0030752101
79	0xbda2b0f0	-0.079439044
80	0x3d504505	0.050847072
81	0xbd8d5546	-0.0690103
82	0xbda88dcf	-0.08230173
83	0xbd8f70bb	-0.070039235
84	0xbdb87807	-0.090072684
85	0xbd926e08	-0.07149893
86	0xbdb45f1d	-0.08807204
87	0xbd01e525	-0.03171267
88	0x3d5dd880	0.05416155
89	0xbd009fbb	-0.03140233
90	0xbd09acd1	-0.033612076
91	0xbda96c6b	-0.08272632
92	0xbc156edd	-0.00912067
93	0x3bea58d6	0.0071517034
94	0xbc18a530	-0.0093167275
95	0xbda14cea	-0.07875998
96	0xbd83e45c	-0.064400405
97	0xbdf7d9dd	-0.12102101
98	0x3c4239a0	0.011854559
99	0xbd11b3f6	-0.035572015
100	0xbd11c96e	-0.03559249
101	0xbd9ea3aa	-0.0774606
102	0xbdbf75a5	-0.09348611
103	0xbd5e2aed	-0.054240156
104	0xbcdd871d	-0.027041966
105	0x3baf8ac4	0.0053571183
106	0xbd500fb6	-0.050796233
107	0x3cc7d9b2	0.024395797
108	0xbdaa8b95	-0.083274044
109	0xbde0f329	-0.10983879
110	0xbd56e4ca	-0.052464284
111	0xbd03e0b1	-0.032196704
112	0xbdaaeaa5	-0.08345536
113	0x3cb573db	0.02214997
114	0xbd17fef4	-0.037108377
115	0xbc3fd918	-0.011709474
116	0xbdaa4f4b	-0.08315905
117	0x3cb71d5d	0.022352869
118	0xbdce3042	-0.10067798
119	0x3baff255	0.0053694644
120	0xbd11d8e9	-0.035607252
121	0xbdd611bb	-0.104526006
122	0xbdb86a06	-0.09004597
123	0xbc5e5a0c	-0.013571274
124	0xbd791646	-0.060812257
125	0xbd2b0b00	-0.041758537
126	0x3dc15a03	0.094409965
127	0xbd990601	-0.07471848
128	0xbd943898	-0.07237357
129	0xbdc605fe	-0.09669112
130	0xbde96047	-0.113953166
131	0x3c268763	0.010164115
132	0x3c41642c	0.011803668
133	0xbcd95bdd	-0.026533062
134	0xbcfa1c82	-0.030531172
135	0xbd99348c	-0.07480726
136	0xbd45a072	-0.048248716
137	0x3cb98485	0.022646198
138	0x395c3af9	0.00021002804
139	0xba2dc208	-0.0006628339
140	0xbd8c5dd0	-0.06853831
141	0xbd05433c	-0.032534823
142	0xbd4648b1	-0.048409168
143	0xbdbad757	-0.09123104
144	0xbd686448	-0.05673626
145	0xbda3161d	-0.07963202
146	0xba072a17	-0.0005156113
147	0xbc7bdc65	-0.01537237
148	0xbc422cd3	-0.011851507
149	0x3d9d89c5	0.07692293
150	0x3c3b47b2	0.011430668
151	0xbd847e7e	-0.06469439
152	0xbd943534	-0.0723671
153	0xbce7296b	-0.028217992
154	0xbd8103f0	-0.06299579
155	0xbd9b0a7a	-0.075703576
156	0xbdf70402	-0.12061311
157	0x3bcf3dd2	0.006324508
158	0xbd367f5f	-0.044555064
159	0x3d0c5b59	0.034266803
160	0xbdcba439	-0.09943432
161	0xbcb08221	-0.021546425
162	0xbcf16532	-0.029467199
163	0xbd02a399	-0.0318943
164	0xbd46a646	-0.048498414
165	0xbcbb353c	-0.022852533
166	0xbd6c3f24	-0.057677403
167	0x3ce908f8	0.02844666
168	0xbdc0a60f	-0.09406673
169	0x3c3d2fdc	0.011547055
170	0xbd0de96d	-0.03464644
171	0x3cd5c96a	0.026097018
172	0xbc9f732a	-0.019464094
173	0xbd59eb27	-0.053202774
174	0xbd818986	-0.06325059
175	0x3b49e00e	0.0030803713
176	0x3cbd6161	0.023117723
177	0xbd93acb6	-0.07210676
178	0xbd6fd178	-0.058549374
179	0x3cbddcb1	0.023176523
180	0xbd9c2edd	-0.07626126
181	0xbd061774	-0.03273721
182	0xbd0ed25a	-0.034868576
183	0xbb93047f	-0.00448662
184	0xbdeb5a28	-0.11491805
185	0xbd5f6221	-0.054536942
186	0x3c69e1bf	0.0142750135
187	0xbd7cf76a	-0.06175939
188	0xbca7ef76	-0.020499926
189	0xbd53e36f	-0.05173057
190	0xbd8a256d	-0.0674542
191	0xbc4e7f73	-0.012603628
192	0x3cc34f63	0.023841565
193	0xbbacf581	-0.00527829
194	0xbd81966f	-0.06327521
195	0xbd83bc13	-0.06432357
196	0xbc906ef3	-0.01763103
197	0xbd9ad8d8	-0.07560891
198	0x3c4eda48	0.0126252845
199	0xbce49902	-0.027904991
200	0x3e908748	0.2822821
201	0x3f231c77	0.6371531
202	0xbfa4ed10	-1.2884846
203	0x3f13ddbf	0.5776023
204	0x3efa79cc	0.4892105
205	0xbcf366a1	-0.029712023
206	0x3d96206b	0.07330402
207	0x3f4c09a3	0.79702204
208	0xbece3487	-0.4027445
209	0x3cb8b22b	0.022545895
210	0x3e9fe8cb	0.31232294
211	0x3f932a99	1.1497375
212	0x3e898bfb	0.2686461
213	0xbeba5d89	-0.36399487
214	0xbf24b711	-0.6434184
215	0x3d2e5d61	0.04256952
216	0xbf0f1646	-0.5589336
217	0xbf4cfaee	-0.8007039
218	0xbe90cb2f	-0.28280017
219	0x3eb6aa8d	0.35676995
220	0xbdc55a01	-0.096363075
221	0xbf4f6027	-0.8100609
222	0xbf2ec8b3	-0.6827499
223	0xbe29c8aa	-0.16580454
224	0xbe4c2ff5	-0.19940169
225	0x3e781f84	0.24230772
226	0xbf9b9cd0	-1.215723
227	0x3f5d89ac	0.86538196
228	0x3d92ec0a	0.07173927
229	0x3f97ed06	1.1869209
230	0x3ed52b1e	0.41634458
231	0x3f0c2401	0.5474244
232	0x3e5635ae	0.20918915
233	0xbe1b1399	-0.15144195
234	0xbe3582d9	-0.17725696
235	0xbeb084c9	-0.34476307
236	0x3e5a7e26	0.21337184
237	0xbf8b60a8	-1.0888872
238	0xbe9e7334	-0.30947268
239	0x3e30fcfd	0.17284007
240	0xbea112b6	-0.31459588
241	0x3f72e002	0.9487306
242	0xbef4055b	-0.47660336
243	0x3edbf067	0.4295685
244	0xbe59cf4f	-0.21270488
245	0x3f3777d0	0.71667194
246	0xbe36e03d	-0.17858978
247	0x3e7ce67d	0.246973
248	0xbe9cbbb5	-0.3061196
249	0x3e9d9d9b	0.30784306
250	0x3f91b2cb	1.1382688
251	0xbf140a32	-0.57828057
252	0x3f3bee70	0.734107
253	0xbee164a7	-0.44022104
254	0xbf428a68	-0.7599244
255	0x3f0e48b7	0.55579704

net.2.bias f4 [128]
0	0xbdb9cb92	-0.09072031
1	0x3eaa73b1	0.3329139
2	0x3e37f6cf	0.17965244
3	0x3ddd2706	0.10798459
4	0xbc14b947	-0.009077377
5	0x3ef773f9	0.48330668
6	0x3ce56823	0.028003758
7	0x3e02a780	0.12759209
8	0x3ca14424	0.019685812
9	0x3da8429f	0.08215832
10	0x3ef2f6d1	0.4745393
11	0x3cd2f25d	0.025750333
12	0x3dba4c2e	0.09096561
13	0x3e43735c	0.19086975
14	0x3eeca7e7	0.4622185
15	0x3de5c464	0.11219099
16	0xbd51092b	-0.051034134
17	0xbe6e3fa5	-0.23266466
18	0xbc9cd308	-0.019143596
19	0xbf023358	-0.50859594
20	0x3f007e20	0.5019245
21	0x3f0451db	0.516874
22	0xbd6c929e	-0.057757013
23	0xbc593cad	-0.013259095
24	0xbd4ce8f8	-0.050026864
25	0x3ef6002f	0.48047015
26	0xbe507095	-0.20355447
27	0x3cf4e33f	0.029893516
28	0x3de4260d	0.1114007
29	0x3eff01c9	0.4980605
30	0x3c54b85c	0.012983408
31	0xbe8f0a2c	-0.27937448
32	0x3e5c6984	0.21524626
33	0xbe24fe24	-0.16112572
34	0x3e9e23c1	0.30886653
35	0xbd3aa96f	-0.04557174
36	0xbcb2cd3c	-0.021826379
37	0x3edcb9d3	0.43110523
38	0xbdc668f3	-0.09687986
39	0x3ee97cc3	0.45602998
40	0x3aa72bc4	0.0012754132
41	0x3ed10ce4	0.40830147
42	0xbe60776f	-0.2192056
43	0x3e14cf80	0.1453228
44	0xbeb6730e	-0.35634655
45	0xbd098ffc	-0.03358458
46	0x3d8efb3b	0.06981512
47	0x3e0074eb	0.125446
48	0xbe984c01	-0.29745486
49	0x3d95afc1	0.07308913
50	0x3e892abc	0.26790416
51	0xbc774e43	-0.015094343
52	0xbf11b2d6	-0.56913507
53	0x3e904bf7	0.28182957
54	0x3d30ef5c	0.04319702
55	0x3d971b81	0.07378293
56	0xbd340dfe	-0.043958656
57	0xbdaf25ef	-0.08552157
58	0x3e266d15	0.16252549
59	0x3f1c7740	0.6111946
60	0xbd9f2faa	-0.07772763
61	0x3e43d135	0.19122775
62	0x3e244efb	0.16045754
63	0xbd49be04	-0.04925348
64	0xbeca240d	-0.3948063
65	0x3e516645	0.20449169
66	0x3edbe5d9	0.42948797
67	0x3ce85b68	0.028363898
68	0x3edcfded	0.4316248
69	0xbd74a9e1	-0.05973232
70	0x3d452dbb	0.048139315
71	0x3edba9d5	0.4290301
72	0xbe3f398f	-0.186743
73	0x3ef5bbd9	0.4799488
74	0x3ec9a6f4	0.39385188
75	0x3ea0e2a7	0.31422922
76	0x3f093d0b	0.5360877
77	0x3ca5a467	0.020219995
78	0x3c83b413	0.016077077
79	0xbc4d77a7	-0.012540734
80	0x3c926d98	0.017874524
81	0x3f22db9d	0.63616353
82	0x3ec62983	0.38703546
83	0xbf157557	-0.5838217
84	0xbe987321	-0.29775336
85	0x3e63da18	0.22251165
86	0x3ee84971	0.4536853
87	0xbb6c1d76	-0.0036028302
88	0xbe952235	-0.2912766
89	0x3dc74da9	0.097316094
90	0x3ed450db	0.41467938
91	0xbd0f62e4	-0.03500642
92	0xbca9e009	-0.020736711
93	0xbd5ebe29	-0.05438057
94	0x3e28fa53	0.16501741
95	0xbe7b1a6f	-0.24521802
96	0x3e6f7ef1	0.23388268
97	0x3e179133	0.14801483
98	0x3e454c34	0.1926735
99	0xbe38de93	-0.18053655
100	0x3d732ac5	0.05936696
101	0xbc1311b9	-0.008976393
102	0x3c406807	0.011743552
103	0xbe919993	-0.2843748
104	0x3e689047	0.22711287
105	0x3e33b1f2	0.1754835
106	0x3d840db2	0.06447925
107	0x3ee471c7	0.44618055
108	0xbdcb0e1e	-0.09914802
109	0x3ef0b55f	0.47013375
110	0x3d7ac8d2	0.061226673
111	0xbd84d830	-0.06486547
112	0xbd012f1a	-0.03153906
113	0xbdca51b3	-0.09878864
114	0xbedadf92	-0.42748696
115	0x3b83b3e9	0.0040192497
116	0x3e0ca546	0.13734922
117	0x3ea5342d	0.3226637
118	0xbd46501a	-0.048416235
119	0x3ed39d62	0.4133101
120	0x3b4321a8	0.00297747
121	0x3df68dde	0.12038778
122	0xbeea53ac	-0.45766962
123	0x3e247af9	0.16062535
124	0x3ef4436c	0.4770769
125	0xbf3dce07	-0.741425
126	0xbeba3a7c	-0.36372745
127	0xbf0a91a0	-0.54128456

net.4.weight f4 [4, 128]
0	0x3d623b9a	0.05523262
1	0x3f0378bb	0.51356095
2	0xbf29849f	-0.6621799
3	0xbfde4809	-1.7365733
4	0x3b82c9f3	0.0039913594
5	0xbf1e0055	-0.61719257
6	0xbc957f4b	-0.018249175
7	0xbf270e3a	-0.65256083
8	0xbb36fa15	-0.0027920057
9	0xbf624f37	-0.8840212
10	0x3f89f6a8	1.0778399
11	0x3cc3de77	0.02390979
12	0xbe8113bf	-0.25210378
13	0xbf65e20b	-0.8979804
14	0x3f256903	0.6461336
15	0xbfd5aa4b	-1.6692594
16	0x3cc67735	0.024226764
17	0xbf925f56	-1.1435344
18	0xbf36c911	-0.71400553
19	0xbfda5964	-1.705853
20	0xbf74d8f8	-0.9564357
21	0x3f59a8ee	0.8502339
22	0x3d23e5cc	0.040014073
23	0xbf01b50e	-0.5066689
24	0x3cf169c2	0.029469375
25	0x3f1bffeb	0.60937375
26	0xbf5a45e4	-0.85262895
27	0xbe979d6e	-0.29612297
28	0xbf293491	-0.66095835
29	0x3f2f24fe	0.6841582
30	0x3a0523da	0.00050788897
31	0xbf0dfcd1	-0.5546389
32	0x3f3d7243	0.74002475
33	0xbf0aa890	-0.54163456
34	0xbf892910	-1.0715656
35	0x3d44e3dd	0.04806887
36	0x3c126be6	0.008936858
37	0x3f92abd5	1.1458689
38	0x3cfb2915	0.030659238
39	0xbf39d3fa	-0.72589076
40	0x3dd470f5	0.10373107
41	0x3f1837cd	0.59460145
42	0xbfccf00d	-1.6010758
43	0xbed4b192	-0.41541725
44	0xbf3b664e	-0.7320298
45	0xbd33616d	-0.043794084
46	0x3fe1098c	1.7581038
47	0xbec94e03	-0.3931733
48	0x3fc7cbd2	1.5609076
49	0xbe74726a	-0.2387177
50	0xbefcbe29	-0.4936383
51	0xbd84c9db	-0.064838134
52	0x4005b897	2.0893915
53	0xbf5dd988	-0.8666005
54	0x3c6dc142	0.014511408
55	0xbf0e9d69	-0.5570894
56	0xbcc2b0b6	-0.023765903
57	0xbddcdfbd	-0.10784862
58	0x3d347037	0.04405233
59	0x3f57bf17	0.84275955
60	0xbf75a03e	-0.95947635
61	0xbf92ba3a	-1.1463082
62	0xbf975e37	-1.1825627
63	0xbaaf54be	-0.0013376696
64	0xbfe36454	-1.7764993
65	0xbef6d0be	-0.48206133
66	0x3fa2d3cf	1.2720889
67	0x3db63325	0.08896474
68	0x3f3ff572	0.74983895
69	0x3c95b39a	0.018274117
70	0x3c885f73	0.016647076
71	0x3f4b0d2f	0.7931699
72	0xbfbc929d	-1.4732243
73	0x3f67cfc5	0.90551406
74	0xbf5ffb3a	-0.87492716
75	0xbef5e7e1	-0.48028472
76	0x3f214f67	0.63011783
77	0xbd912292	-0.07086672
78	0x3d02b805	0.031913776
79	0xbf49b4c5	-0.7879146
80	0x3d821cfc	0.063531846
81	0x3fbd553a	1.4791634
82	0x3f130815	0.5743421
83	0x40811794	4.034128
84	0xbf99c8a2	-1.2014353
85	0xbf8328fc	-1.0246882
86	0x3f2c6ae8	0.67350626
87	0xbbd81279	-0.006593999
88	0xbff2137b	-1.8912195
89	0xbe382556	-0.17982993
90	0xbf445e5f	-0.767065
91	0xbd872d75	-0.06600467
92	0x3cf1ad28	0.029501513
93	0xbb915dc9	-0.004436229
94	0xbf60c468	-0.8779969
95	0xbf3ad5d4	-0.72982526
96	0xbf25dbc1	-0.6478844
97	0xbe6d34fb	-0.23164742
98	0xbfdaf956	-1.7107341
99	0x3debc162	0.11511494
100	0xbf119fdc	-0.5688455
101	0xbd182ec0	-0.03715396
102	0x3ce0e4c7	0.02745284
103	0xbf9b74b4	-1.214499
104	0xbf6d44e3	-0.9268324
105	0xbf465529	-0.77473694
106	0xbf34f786	-0.7069019
107	0x3fc19e40	1.5126419
108	0xbccaba98	-0.024747178
109	0x3f00dd52	0.5033771
110	0xbe3eb335	-0.1862305
111	0xbcec8e76	-0.028876524
112	0x3d67c370	0.056582868
113	0x3cc9d0a0	0.024635613
114	0x3d9eb36c	0.07749066
115	0x3cfab831	0.030605407
116	0xbea22e6f	-0.3167605
117	0xbf566186	-0.8374256
118	0xbfc800f3	-1.562529
119	0xbfc9fb34	-1.5779786
120	0xbf678bc1	-0.9044762
121	0xbf052ff5	-0.520263
122	0xc027dc27	-2.622812
123	0x3cdc0286	0.026856672
124	0x3f8d54f5	1.1041552
125	0x4030d907	2.7632463
126	0xbdd72ab1	-0.105061896
127	0xbf9809e4	-1.1878018
128	0x3d865903	0.065599464
129	0x3f1b73aa	0.60723364
130	0xbf227e36	-0.6347383
131	0xc0244a0c	-2.5670195
132	0x3d3291e6	0.04359617
133	0xbf7e7f1e	-0.99412715
134	0xbd78a4ca	-0.06070403
135	0x3eeb0d22	0.45908457
136	0xbc846428	-0.01616104
137	0xbf73f02b	-0.9528834
138	0x3a7dca97	0.00096813723
139	0x3da0d02b	0.07852205
140	0xbeb93cb5	-0.36179128
141	0xbf364a92	-0.71207535
142	0x3f39c56a	0.72566855
143	0xbf8bb274	-1.0913835
144	0xbd85a0d4	-0.06524816
145	0xbfa059a5	-1.2527357
146	0xbf50e462	-0.81598485
147	0xbde08412	-0.109626904
148	0xbfa68bd5	-1.3011423
149	0x3f8990a9	1.0747272
150	0x3cc246c7	0.02371539
151	0xbea758ad	-0.32684842
152	0x3d9a6ac6	0.07539897
153	0x3f47a450	0.77985096
154	0xbf86046b	-1.0470098
155	0xbdd089bd	-0.101825215
156	0xbf80d9a9	-1.0066425
157	0x3f33ae5c	0.70187926
158	0x3d9e5edc	0.07732937
159	0xbef3edc1	-0.4764233
160	0x3f7a1fa9	0.9770456
161	0xbfa346f6	-1.275603
162	0xbfb8732c	-1.4410148
163	0x3cb84150	0.02249208
164	0xbbba2ef0	-0.005681865
165	0x3fe6790a	1.8005688
166	0xbcc2629f	-0.023728667
167	0xbf4bfb64	-0.79680467
168	0xbd4c6936	-0.049905024
169	0x3f18527d	0.5950087
170	0xbfb24ed2	-1.3930304
171	0xbe5ec4e4	-0.21754795
172	0xc00bb9d7	-2.1832178
173	0x3d133617	0.035940256
174	0x3fed3454	1.8531594
175	0xbf2b79f6	-0.6698297
176	0x401757b9	2.3647292
177	0xbf237a4a	-0.63858473
178	0xbf41270f	-0.75450224
179	0x3992b2da	0.00027980545
180	0x401c2292	2.43961
181	0xbf4824e1	-0.7818127
182	0xbcda4717	-0.026645226
183	0xbedf4ea9	-0.436147
184	0xbc1e8785	-0.009675865
185	0xbca866ab	-0.020556768
186	0xbe6f40dd	-0.23364587
187	0x3f704f62	0.9387113
188	0xbff1eef9	-1.8901054
189	0xbf5f3581	-0.87191015
190	0xbfde5bb6	-1.7371738
191	0xbcf59723	-0.029979294
192	0xbf9eaf98	-1.2397337
193	0xbfffedbb	-1.9994425
194	0x3fbe368e	1.4860399
195	0x3de08740	0.10963297
196	0x3f449bde	0.76800334
197	0x3d2e778f	0.04259449
198	0x3d0d23e6	0.034458064
199	0x3ec4f599	0.38468626
200	0xbf2c60b2	-0.67335045
201	0x3f42f27e	0.76151264
202	0xbfa45a1a	-1.2839997
203	0xbf3b6478	-0.7320018
204	0x3f430e88	0.7619405
205	0x3d4246df	0.04743087
206	0x3cce96c6	0.025218379
207	0xbf1f66bd	-0.6226614
208	0xbc266781	-0.010156513
209	0x3faf35a4	1.3688245
210	0x3f8f442d	1.1192681
211	0x40703a3d	3.7535546
212	0xbfc26f81	-1.5190278
213	0xbf5e29df	-0.8678264
214	0x3f31a035	0.6938508
215	0xbdbee586	-0.09321122
216	0xbf853943	-1.04081
217	0xbe77cfe2	-0.24200395
218	0xbf25a1d2	-0.64700043
219	0xbcd3015c	-0.025757484
220	0x3c3328f3	0.010935056
221	0xbd0109ce	-0.03150349
222	0xbf48fe89	-0.7851339
223	0xbfb13635	-1.3844668
224	0xbf14efbf	-0.58178324
225	0xbeeaf292	-0.4588819
226	0xc002651b	-2.037421
227	0x3f08faa5	0.53507453
228	0x3ba69711	0.0050839265
229	0x3d511560	0.051045775
230	0x3d1ea21b	0.038728815
231	0xbf86f5aa	-1.0543721
232	0xbf7817b4	-0.9691117
233	0xbf590c9f	-0.84784883
234	0xbf0dc59b	-0.55379647
235	0x3fd125a4	1.6339612
236	0x3d675350	0.056475937
237	0x3f401e77	0.75046486
238	0xbf5012ca	-0.8127867
239	0xbc267e67	-0.010161973
240	0xbd9e2265	-0.07721404
241	0xbcfb2ae5	-0.030660102
242	0xbf866c34	-1.0501771
243	0xbdc55a5c	-0.09636375
244	0xbe80a99b	-0.251294
245	0xbf27c710	-0.6553812
246	0xbff924b6	-1.9464328
247	0xbfbcf75e	-1.476299
248	0xbf8de1e0	-1.1084557
249	0xbfab9c81	-1.3407136
250	0xbfea635a	-1.831157
251	0xbf214e87	-0.6301045
252	0x3f002b8c	0.5006645
253	0x403cbe05	2.9490979
254	0xbdb99ce4	-0.09063128
255	0x3ed293a7	0.41128275

net.4.bias f4 [4]
0	0x3cc1dd32	0.023665044
1	0xbe97a6bf	-0.29619405
2	0xbe47a189	-0.19495215
3	0xbd762a09	-0.06009868
