experiments/LunarLander-v2-descrete-hyperpra-tunnig/ed/0.0005/model.pt (torch, 114135 bytes, 6 tensors)

net.0.weight f4 [200, 8]
0.59282297 -0.49191144 -0.5481865 -0.77261573 -0.6430559 0.20284833 0.27260825 -0.36505926
0.039794546 -0.02791851 -0.16853802 0.3186641 -0.11025455 -0.151453 0.29315442 -0.5842839
0.07856612 -0.6026335 -0.452511 -0.49272346 -0.7223784 0.31564415 -0.2611736 0.2438849
-0.38528782 -0.23518685 -0.53827906 -0.45951107 -0.4833162 -0.9851407 -1.7528617 0.69294524
0.30785534 -0.7855134 -1.170061 2.3406775 -0.36276877 0.40197867 0.53452617 0.6118202
0.38989568 -1.0562786 0.9685443 0.8642234 -1.2762175 -0.12755656 0.07618956 0.22605368
-0.5224685 -0.054579318 1.7037189 -0.50016344 -0.93554366 -0.0042243027 -0.9882647 0.47557524
0.2149093 -0.30394456 0.009601278 0.057332397 -0.53002083 -0.5884272 0.05461912 0.2267363
0.61508673 -0.36897036 -0.024643198 0.30498403 -0.17348932 -0.8340326 -0.034003023 -0.6853564
0.5736325 -0.5011284 -0.21448483 0.694293 0.48283482 0.24991475 0.23831685 -0.827619
0.42941836 -0.40302542 1.0464865 0.15561444 -0.2609919 -0.15996785 -1.3433186 -0.7017236
0.21728891 0.39805242 -0.8969539 -0.63787514 0.45544884 -0.44681796 0.070742406 -0.38214928
1.5059972 -0.68639964 -0.5410079 0.5819112 0.7783044 0.6629598 0.20077659 0.19921084
1.1134014 0.26632014 0.40078026 -0.22076556 0.53224844 0.14565194 -1.1732886 0.995728
1.2177123 0.6210143 -0.73534906 -0.28854802 -0.56313556 0.13101535 0.18683118 -0.022760596
0.11697641 -0.028104154 0.35333788 -0.21018565 1.1375897 0.18320087 1.168851 -0.0049963174
0.118315585 0.5058409 0.010252628 0.30731297 -0.46810734 -1.4110355 -1.7083881 -0.07943261
1.5225557 -0.39772308 0.67874193 -0.7430416 -0.02070983 -0.09663856 -1.0875674 -0.03463579
-0.7104409 -1.6835204 0.5768068 1.8926816 0.8888519 0.07903566 1.1194094 0.08816702
-1.0293176 -0.096421406 -0.71075755 0.079769626 -0.32098615 -0.83997655 -0.76764745 0.5905634
0.08276593 -0.20571609 0.09538623 0.13300246 -0.15930837 -0.71552575 0.0048660287 -0.5784652
0.116212584 -0.81048006 -0.55697817 0.5150737 0.12806529 -0.26148322 0.62981874 -0.466812
0.031182393 -0.031061389 -0.36637202 3.9280512 0.14473414 0.1780984 -0.2801764 0.13289183
0.3576078 -1.4778192 -0.80610424 1.0046543 0.3197814 -0.13279146 0.8473646 -0.5134682
-0.026706718 -0.33771646 0.5578353 1.4138279 -0.010376702 -0.48078957 0.20308892 0.8275424
-0.3110755 0.21768127 1.470147 -0.23041974 -0.83969456 -0.053110518 0.24250716 0.0021464105
-0.5270306 0.3352346 1.4734617 -0.108951524 0.026732441 0.6813493 0.331094 -1.1395911
-0.24785669 -1.9176893 -0.26868728 -2.091002 0.50249904 0.2678833 0.37539294 -0.07976953
1.017093 0.17954499 0.20312794 0.93904865 -1.0671809 0.79056245 -0.31596792 -1.1471736
-0.3689104 -0.3324845 -0.6987201 -1.2353649 -0.67750925 -0.30805457 -0.6535722 0.68736947
0.3023075 0.13966186 0.5104209 -0.36489522 0.22728136 0.3178575 -0.19424084 -0.046184085
-0.71062833 -0.3509515 -1.5038027 -0.44306716 -0.34429792 0.054259256 0.1253116 -0.1241012
00000000: 3fc3 173f d1db fbbe f355 0cbf 25ca 45bf
00000010: 509f 24bf 79b7 4f3e 4f93 8b3e 0ce9 babe
00000020: 9bff 223d 5cb5 e4bc 3b95 2cbe f127 a33e
00000030: 23cd e1bd 7f16 1bbe 5618 963e a193 15bf
00000040: 46e7 a03d 3046 1abf 86af e7be 4046 fcbe
00000050: caed 38bf 1c9c a13e 8cb8 85be f7bc 793e
00000060: 7244 c5be d2d4 70be a8cc 09bf 0945 ebbe
00000070: 3975 f7be 2e32 7cbf c65d e0bf dc64 313f
00000080: 379f 9d3e 6817 49bf 8fc4 95bf a9cd 1540
00000090: d4bc b9be 26d0 cd3e b5d6 083f 40a0 1c3f
000000a0: 68a0 c73e 2334 87bf 85f2 773f bf3d 5d3f
000000b0: 185b a3bf 309e 02be 4609 9c3d 9e7a 673e
000000c0: 7fc0 05bf 908e 5fbd 7613 da3f b60a 00bf
000000d0: ca7f 6fbf 056c 8abb eafe 7cbf 997e f33e
000000e0: 2f11 5c3e 9f9e 9bbe ae4e 1d3c 60d5 6a3d
000000f0: 72af 07bf 2aa3 16bf 4cb8 5f3d 902d 683e
00000100: 5376 1d3f afe9 bcbe 88e0 c9bc de26 9c3e
00000110: 2fa7 31be 2983 55bf c146 0bbd 8473 2fbf
00000120: 94d9 123f f349 00bf e9a1 5bbe 30bd 313f
00000130: 2036 f73e a7e9 7f3e 5509 743e d7de 53bf
00000140: b9dc db3e 5959 cebe 45f3 853f 6459 1f3e
00000150: bba0 85be 9dce 23be ddf1 abbf 28a4 33bf
00000160: fc80 5e3e 87cd cb3e c59e 65bf c94b 23bf
00000170: 9730 e93e 53c5 e4be 65e1 903d 12a9 c3be
00000180: 84c4 c03f e3b7 2fbf 7e7f 0abf 22f8 143f
00000190: f53e 473f bcb7 293f 6198 4d3e edfd 4b3e
000001a0: f083 8e3f 1d5b 883e 1233 cd3e 5e10 62be
000001b0: 6f41 083f c825 153e 522e 96bf 08e8 7e3f
000001c0: ffdd 9b3f cbfa 1e3f d63f 3cbf 91bc 93be
000001d0: a729 10bf e328 063e ac50 3f3e 6e74 babc
000001e0: 5491 ef3d af3a e6bc b4e8 b43e e83a 57be
000001f0: 8a9c 913f 0299 3b3e e99c 953f 26b8 a3bb
00000200: 714f f23d ca7e 013f a3fa 273c 2058 9d3e
00000210: c4ab efbe d09c b4bf 76ac dabf 90ad a2bd
00000220: 1be3 c23f 5ca2 cbbe 08c2 2d3f f937 3ebf
00000230: a9a7 a9bc 70ea c5bd 6935 8bbf 42de 0dbd
00000240: 74df 35bf 997d d7bf 9ca9 133f 6443 f23f
00000250: cc8b 633f 73dd a13d cf48 8f3f e990 b43d
00000260: aec0 83bf 9678 c5bd 35f4 35bf 425e a33d
00000270: 4c58 a4be b408 57bf 8b84 44bf 2a2f 173f
00000280: 2f81 a93d 3da7 52be db59 c33d cc31 083e
00000290: bc21 23be b22c 37bf 3573 9f3b 4c16 14bf
000002a0: dd00 ee3d 9f7b 4fbf 1f96 0ebf dfdb 033f
000002b0: 8c23 033e 21e1 85be cd3b 213f fc01 efbe
000002c0: 3872 ff3c 7474 febc 1d95 bbbe 3165 7b40
000002d0: 3035 143e 6d5f 363e 4873 8fbe cc14 083e
000002e0: 5f18 b73e 2e29 bdbf d95c 4ebf 8398 803f
000002f0: 63ba a33e 7cfa 07be e3ec 583f a772 03bf
00000300: 0cc8 dabc 2ce9 acbe 4bce 0e3f 50f8 b43f
00000310: 0b03 2abc 0d2a f6be 8bf6 4f3e d2d9 533f
00000320: 4a45 9fbe d7e7 5e3e c72d bc3f 27f3 6bbe
00000330: 39f6 56bf 6a8a 59bd cc53 783e cbaa 0c3b
00000340: 7aeb 06bf dfa3 ab3e 659a bc3f fa21 dfbd
00000350: fefd da3c e86c 2e3f 2785 a93e 1fde 91bf
00000360: 25ce 7dbe d876 f5bf 6191 89be fad2 05c0
00000370: c7a3 003f 0028 893e 8133 c03e 355e a3bd
00000380: 1a30 823f a4da 373e c500 503e 7e65 703f
00000390: 6299 88bf 4d62 4a3f 8cc6 a1be 96d6 92bf
000003a0: d3e1 bcbe 693b aabe 52df 32bf 7020 9ebf
000003b0: 3f71 2dbf 54b9 9dbe 8250 27bf 72f7 2f3f
000003c0: 0cc8 9a3e 8503 0f3e f2aa 023f 8cd3 babe
000003d0: 72bc 683e 38be a23e 12e7 46be 862b 3dbd
000003e0: bdeb 35bf eaaf b3be 9b7c c0bf b3d9 e2be
000003f0: d147 b0be f43e 5e3d af51 003e c528 febd

net.0.bias f4 [200]
0.2802231 0.65685105 0.1950908 -0.69666684 -0.34425673 -0.43753856 -0.15444137 0.5380797
0.61353076 0.5485154 -0.55370206 0.16878472 0.10541238 -0.8087575 0.2667772 0.17423077
0.13714395 0.8016819 -0.24049094 -0.38252282 0.46253538 0.71372813 -0.004035296 0.05036353
-0.34799424 -0.7264305 0.23957953 -0.058841277 -0.7092157 -0.14358883 0.6317689 0.27226633
-0.019779762 -0.7307756 -0.9900329 -0.54079473 0.6053096 -0.21580392 -0.16386709 0.40235955
0.62512743 -0.31663758 0.16295591 0.28383946 -0.34422296 -0.5470301 0.31247532 0.31579322
0.23102194 -0.5292546 -0.6893799 -0.42856097 -0.5779057 -1.0844882 -0.24352884 0.13663241
-1.0615252 -0.38099584 -0.3094454 -0.35574386 -0.93354803 0.5853534 0.014970513 -0.1722634
-0.3402509 -0.11672432 -0.41249567 0.18304394 0.122501776 -0.63129014 -0.3652186 -0.48634335
0.26322865 -0.69930464 0.26558205 -1.5549532 -0.33531943 -0.059567805 0.41894543 0.4912683
-0.39437622 -0.46243885 0.48893383 0.5179674 0.40197718 0.681882 0.618641 -1.4306298
0.2381043 -0.55859464 0.56224036 -0.022654567 -0.021678213 0.45436168 0.62421024 -0.68220073
-0.48038968 0.181816 0.052015524 -0.107130006 -0.33018786 0.3384575 0.47570017 -1.1750685
-0.48103392 0.2562366 0.531741 -0.49273467 0.58809406 -0.051372204 -0.6527367 0.4896976
-0.521324 0.6732291 0.1132452 -0.048186507 -0.9981746 -0.60798734 0.18988316 -0.050231393
-0.71753854 -0.3364385 -0.6164725 -0.28775418 0.1077083 -0.11757373 -2.8740727e-05 -0.21337631
0.13976966 0.47380507 0.022668026 0.14662413 -0.46582907 0.53425497 0.11568257 0.098287515
0.5253231 -0.6776286 0.014830967 -0.49330568 0.5608081 0.13989791 -0.026499666 0.22750132
0.63096845 -0.20854628 -0.006339884 -0.4504936 -0.047469392 0.6402827 0.38269892 0.3308655
-0.09059827 -0.36870566 0.47457024 0.5921689 -0.04304758 -0.532397 0.38966838 0.30460653
0.16858381 -0.5940805 -0.5192268 -0.9366482 0.55179054 -0.5222609 -0.4777123 -0.017584814
-0.1826051 0.22504337 -0.091477156 0.26481307 0.3175854 0.22730587 0.056389716 0.43546504
-0.32463753 -0.023160353 -0.321137 -0.43993524 0.22964947 0.2643119 -0.28650403 0.06825051
0.30808496 -0.5647053 0.72422355 0.22927016 -0.50197095 -0.77321035 -0.3436959 0.4831607
0.47757435 -0.7160739 -0.23750852 -0.97036123 -0.646991 -0.36580217 -0.21851853 -0.37494916
00000000: 6779 8f3e 6427 283f e2c5 473e c258 32bf
00000010: 6b42 b0be 0e05 e0be e125 1ebe 97bf 093f
00000020: 5a10 1d3f 816b 0c3f 6bbf 0dbf e7d5 2c3e
00000030: 72e2 d73d bb0a 4fbf 0597 883e 8d69 323e
00000040: 776f 0c3e 063b 4d3f 4243 76be 08da c3be
00000050: 70d1 ec3e e3b6 363f 843a 84bb fd49 4e3d
00000060: 4d2c b2be 59f7 39bf 5654 753e 8d03 71bd
00000070: 298f 35bf f308 13be 9bbb 213f 7e66 8b3e
00000080: 2b09 a2bc 1c14 3bbf cc72 7dbf 8671 0abf
00000090: 92f5 1a3f b4fb 5cbe c6cc 27be 1202 ce3e
000000a0: 5a08 203f 521e a2be eadd 263e 6853 913e
000000b0: fe3d b0be 2a0a 0cbf c4fc 9f3e a6af a13e
000000c0: 0491 6c3e 3b7d 07bf 337b 30bf 586c dbbe
000000d0: a1f1 13bf 82d0 8abf a05f 79be 5ee9 0b3e
000000e0: 0fe0 87bf e311 c3be a16f 9ebe 0f24 b6be
000000f0: 01fd 6ebf b8d9 153f e246 753c d165 30be
00000100: 5e35 aebe 290d efbd a232 d3be df6f 3b3e
00000110: 36e2 fa3d 3b9c 21bf effd babe ff01 f9be
00000120: e8c5 863e a105 33bf 5ffa 873e b508 c7bf
00000130: fdae abbe 5ffd 73bd 0480 d63e 8587 fb3e
00000140: aeeb c9be c9c4 ecbe 8955 fa3e 8399 043f
00000150: f4cf cd3e d28f 2e3f 425f 1e3f e11e b7bf
00000160: 9dd1 733e 0f00 0fbf fcee 0f3f 1296 b9bc
00000170: 8296 b1bc 18a2 e83e 3ecc 1f3f b5a4 2ebf
00000180: a3f5 f5be f92d 3a3e 3b0e 553d fa66 dbbd
00000190: 620e a9be 4d4a ad3e f98e f33e a568 96bf
000001a0: 144a f6be 7231 833e 2e20 083f b847 fcbe
000001b0: 558d 163f a96b 52bd c119 27bf a5b9 fa3e
000001c0: 7d75 05bf be58 2c3f 19ed e73d 375f 45bd
000001d0: 5f88 7fbf 0fa5 1bbf bb70 423e 6fbf 4dbd
000001e0: 9bb0 37bf ab41 acbe 24d1 1dbf 8454 93be
000001f0: 2b96 dc3d 7fca f0bd 3e18 f1b7 527f 5abe
00000200: c71f 0f3e 9496 f23e 4cb2 b93c a324 163e
00000210: 2681 eebe efc4 083f fcea ec3d f74a c93d
00000220: 937b 063f 1179 2dbf 96fd 723c 9092 fcbe
00000230: 1f91 0f3f 6641 0f3e d415 d9bc 1bf6 683e
00000240: 2687 213f 288d 55be cdbe cfbb 19a7 e6be
00000250: 446f 42bd 91e9 233f 1df1 c33e 3467 a93e
00000260: 968b b9bd fdc6 bcbe dffa f23e 6298 173f
00000270: a952 30bd 2b4b 08bf 9d82 c73e 63f5 9b3e
00000280: 3ca1 2c3e a915 18bf 0cec 04bf 2dc8 6fbf
00000290: 2542 0d3f e4b2 05bf b596 f4be 070e 90bc
000002a0: d5fc 3abe c571 663e 6058 bbbd 9495 873e
000002b0: 8e9a a23e dfc2 683e e7f8 663d 46f5 de3e
000002c0: e436 a6be c8ba bdbc 126c a4be 313f e1be
000002d0: 3b29 6b3e e453 873e a8b0 92be ecc6 8b3d
000002e0: 50bd 9d3e 8790 10bf b766 393f ccc5 6a3e
000002f0: 2b81 00bf 1df1 45bf e9f8 afbe d760 f73e
00000300: a084 f43e 9e50 37bf 6f35 73be 9869 78bf
00000310: 34a1 25bf 6c4a bbbe 52c3 5fbe 56f9 bfbe

net.2.weight f4 [128, 200]
0.38931414 -0.46841162 0.09555142 0.78764874 -0.20681614 -0.54458517 0.61403793 -0.06590806
0.20408109 0.03618555 0.76899177 -0.17946263 0.53831655 0.40712234 0.31723082 -0.3360867
0.6583049 -0.9073753 -1.418443 -0.22358027 -0.3104332 -1.1269442 0.31272733 0.16595978
-0.33324882 1.1143804 0.2869159 0.7950519 1.2738355 -0.27419704 -0.008997448 -0.80685395
-0.7050436 -0.6520778 0.3958081 0.8587867 0.3432744 0.18418191 -0.6906681 -0.06836776
-0.056578506 1.0068065 0.085220344 0.23051415 -1.7356601 1.4757327 -0.03841465 0.083353154
-0.3856955 -0.2893391 2.4343073 0.8076292 -0.63347495 0.36784297 0.97422826 -0.6245369
0.96196026 0.10447345 -0.63054603 -0.5114267 -0.46181726 0.047221888 0.30721694 0.52375835
0.43059596 -0.023278687 -0.04473056 0.56963325 0.5499915 1.1871241 -1.9981799 0.39958054
0.022917911 0.7247068 0.23782612 1.0224248 1.0754828 1.6160898 -0.17323111 -0.18093757
0.79022145 1.4949163 -1.4605188 -0.107452445 -0.34775567 -0.1264058 -0.9750505 1.1450197
-0.035560466 0.90246856 -0.06500602 -0.06857566 -0.03305274 -0.26442719 0.05310678 -1.7768964
-0.0117696365 0.22265056 0.28532493 -0.0062429258 0.27094156 0.07880623 -0.58600694 2.1986897
1.0183355 0.2371267 0.12371846 -1.0345824 -1.5051727 0.21925187 -1.0525304 0.123097084
0.45046392 -0.8112539 -0.0064883986 0.023073172 1.3981844 0.33013928 0.16560061 -0.12378446
-0.20134969 -0.15034445 -1.191121 -0.8339994 0.3769068 -0.6142531 -0.94066525 -0.13057223
0.09176243 0.010184692 0.16243686 0.11007821 0.48464584 -0.8772744 0.09234229 0.06116842
0.2801276 0.6765511 0.5975715 0.38626957 -0.9577705 -1.9095744 -0.078133866 0.010839987
-0.035279825 0.5072525 -0.74188095 0.99622756 0.46408555 -0.15134731 0.43312204 -0.290133
0.21913013 0.5856824 -0.8440968 -0.054199528 -2.9149718 1.3745205 -0.019167991 -0.059947748
0.09431565 -1.3482417 -0.10260387 0.12026362 0.06277254 0.05671653 -1.1814741 -1.5597552
0.314658 -0.19385985 0.09151828 -0.4551674 0.7104244 0.45127678 -0.012630653 0.23880038
0.6107359 0.14264081 0.44453058 0.22414687 0.10007073 0.29485312 -0.038434446 -0.66276395
-0.31595528 -0.1000497 -0.13427782 -0.3603825 0.18682943 -1.057693 -0.078908205 -0.22634815
-0.5836757 0.10580931 -0.13686918 -2.2506433 -0.53409016 -0.55418336 0.117316216 0.0005537421
0.32668757 -0.5109336 -0.23850296 0.75191414 0.9469383 0.5874013 0.3030613 0.11843368
-0.07278858 -0.22255741 -1.494856 -0.07892091 0.6016296 -0.044661038 -0.2251931 -0.31638235
0.20334555 -1.2941412 -0.38137263 -0.80354387 0.0512523 -0.47011456 -0.60098857 0.5287863
0.32910487 -0.4048213 0.19994298 1.0335963 1.2726269 0.51532954 -0.66812253 -0.13833322
0.27507427 0.05100426 2.1956615 1.2303859 -0.11548762 0.39919776 -0.34731582 -0.26675376
0.3511282 0.76142853 -0.31327102 -0.21202818 0.0054400875 0.1507254 -0.34357843 -0.40155554
0.17613491 -0.032325603 0.7502973 0.3228983 1.4755497 0.75608283 0.35393015 0.05781057
00000000: 2f54 c73e a6d3 efbe 76b0 c33d 59a3 493f
00000010: 9cc7 53be ef69 0bbf 9731 1d3f cefa 86bd
00000020: a2fa 503e 4d37 143d a5dc 443f 0dc5 37be
00000030: 1dcf 093f 5772 d03e 146c a23e 8e13 acbe
00000040: ac86 283f bf49 68bf 8a8f b5bf 3af2 64be
00000050: 1af1 9ebe b53f 90bf cc1d a03e 5cf1 293e
00000060: 979f aabe 04a4 8e3f a4e6 923e 8588 4b3f
00000070: 0b0d a33f 8e63 8cbe 086a 13bc fb8d 4ebf
00000080: bd7d 34bf 92ee 26bf 5ca7 ca3e 72d9 5b3f
00000090: aac1 af3e 2f9a 3c3e a0cf 30bf 6504 8cbd
000000a0: ddbe 67bd 09df 803f 0188 ae3d e70b 6c3e
000000b0: 1c2a debf cfe4 bc3f ae58 1dbd 0fb5 aa3d
000000c0: e179 c5be 4124 94be b1cb 1b40 cac0 4e3f
000000d0: 6a2b 22bf ea55 bc3e 0667 793f a6e1 1fbf
000000e0: 0743 763f 2df6 d53d 776b 21bf dcec 02bf
000000f0: 5073 ecbe bd6b 413d 8a4b 9d3e 0715 063f
00000100: 1377 dc3e f2b2 bebc 6437 37bd 7cd3 113f
00000110: 3ecc 0c3f aff3 973f 5cc4 ffbf d295 cc3e
00000120: 58be bb3c 6386 393f b188 733e d1de 823f
00000130: 6ca9 893f 08dc ce3f 7f63 31be b347 39be
00000140: f44b 4a3f 6b59 bf3f 48f2 babf 0710 dcbd
00000150: 080d b2be 8670 01be e99c 79bf 0190 923f
00000160: daa7 11bd 2e08 673f e021 85bd 6571 8cbd
00000170: 4f62 07bd 0063 87be 7f86 593d 5771 e3bf
00000180: 6fd5 40bc 82fe 633e 1c16 923e 7591 ccbb
00000190: dab8 8a3e 2965 a13d 8d04 16bf 55b7 0c40
000001a0: d158 823f 57d1 723e 1b60 fd3d 326d 84bf
000001b0: 80a9 c0bf 9083 603e 51b9 86bf 531a fc3d
000001c0: 35a3 e63e 56ae 4fbf a29c d4bb f303 bd3c
000001d0: b5f7 b23f 0408 a93e 3593 293e b582 fdbd
000001e0: 9d2e 4ebe e5f3 19be a776 98bf fc80 55bf
000001f0: eef9 c03e b13f 1dbf 70cf 70bf bab4 05be
00000200: f1ed bb3d b2dd 263c d955 263e af70 e13d
00000210: 8023 f83e 0e95 60bf f41d bd3d bd8b 7a3d
00000220: e36c 8f3e 7432 2d3f 72fa 183f 20c5 c53e
00000230: 7330 75bf ef6c f4bf a604 a0bd 339a 313c
00000240: 9481 10bd 4ddb 013f e9eb 3dbf c508 7f3f
00000250: 9f9c ed3e cafa 1abe 2cc2 dd3e 508c 94be
00000260: a663 603e 48ef 153f ba16 58bf 5300 5ebd
00000270: e68e 3ac0 4af0 af3f 3106 9dbc c58b 75bd
00000280: 9028 c13d 2f93 acbf fa21 d2bd c64c f63d
00000290: e48e 803d 984f 683d 8b3a 97bf 0fa6 c7bf
000002a0: da1a a13e 3283 46be f06d bb3d b40b e9be
000002b0: 60de 353f c00d e73e ccf0 4ebc 1688 743e
000002c0: 3059 1c3f 6f10 123e 8399 e33e c286 653e
000002d0: e2f1 cc3d fdf6 963e 706d 1dbd e6aa 29bf
000002e0: e4c4 a1be dbe6 ccbd 2080 09be 0e84 b8be
000002f0: 3750 3f3e 7c62 87bf a09a a1bd cfc7 67be
00000300: c56b 15bf 8db2 d83d 6f27 0cbe 8a0a 10c0
00000310: 22ba 08bf f6de 0dbf 7c43 f03d 0129 113a
00000320: 9843 a73e 8bcc 02bf 1f3a 74be 727d 403f
00000330: 8c6a 723f ee5f 163f da2a 9b3e 5b8d f23d
00000340: 2e12 95bd 17e6 63be 7157 bfbf 49a1 a1bd
00000350: 6604 1a3f 7eee 36bd 0599 66be defc a1be
00000360: d139 503e 6ba6 a5bf 4643 c3be 0db5 4dbf
00000370: efed 513d dbb2 f0be 63da 19bf 8a5e 073f
00000380: 6f80 a83e bd44 cfbe dabd 4c3e e24c 843f
00000390: 70e5 a23f a3ec 033f 140a 2bbf 39a7 0dbe
000003a0: 89d6 8c3e d8e9 503d b885 0c40 497d 9d3f
000003b0: c684 ecbd a663 cc3e 61d3 b1be f393 88be
000003c0: 13c7 b33e fbec 423f 0f65 a0be ea1d 59be
000003d0: c342 b23b c257 1a3e 83e9 afbe b098 cdbe
000003e0: b65c 343e da67 04bd 7c13 403f ed52 a53e
000003f0: d0de bc3f a58e 413f 5536 b53e c7ca 6c3d

net.2.bias f4 [128]
-0.23056029 -0.3994214 0.19388735 0.16883512 0.102608114 -0.036183912 -0.16331053 -0.0017442518
0.13693538 -0.030304244 -0.1269587 -0.12739494 0.1111869 0.02362481 -0.016399212 -0.085295536
0.025697637 -0.088599436 -0.053427685 0.088451356 0.020621413 -0.01803798 0.013509162 0.012131045
0.08671111 -0.24980296 -0.91965914 -0.14153121 0.07453108 -0.1398875 0.8967936 0.12644266
0.042800825 0.03287532 -0.060759973 0.05827011 -0.4217283 -0.024615094 0.055898685 -0.09938175
0.10339623 -0.14153805 0.026110668 -0.07503737 -0.1675989 -0.9943478 0.021361878 -0.062267564
-0.010268892 -0.036689855 0.599156 0.15340446 0.039914012 -0.09505951 -0.06916486 -0.28508386
0.05208555 0.049565576 0.06327515 -0.06795215 0.022306921 0.029222801 -0.0139663555 0.1706111
-0.17585927 -0.2687584 -0.122555465 -0.0831625 -0.056929156 -0.10961482 -0.18962291 -0.17027621
-0.032691635 -0.08260448 0.24931785 0.4170789 0.016362729 -0.06877388 -0.088482484 -0.23689127
-0.13459012 -0.07688995 0.040974297 -0.03542806 0.05378363 -0.055264506 -0.27289236 -0.05919693
0.11838359 0.79956186 -0.103208534 -0.005076301 0.57406604 0.27274638 -0.32672775 0.030159134
-0.07625336 0.18706132 -0.18644305 0.41608226 -0.24463136 -0.12695704 0.106327526 0.09554394
-0.07909735 -0.54363906 -0.11530453 -0.09635523 -0.010624348 -0.13184378 0.06812967 -0.10828972
0.020844677 0.25758544 -0.11877146 0.03538135 -0.0029716224 -0.0031996507 0.2186071 -0.01882008
-0.6450667 0.014405074 -0.058512084 -0.10126909 0.0147059355 0.007135312 0.11383703 0.0938774
00000000: ff17 6cbe f680 ccbe 688a 463e 1de3 2c3e
00000010: 3424 d23d 9535 14bd e03a 27be 619f e4ba
00000020: ca38 0c3e 9b40 f8bc 7601 02be d273 02be
00000030: f5b5 e33d d188 c13c a457 86bc 6daf aebd
00000040: da83 d23c 9f73 b5bd fdd6 5abd fc25 b53d
00000050: 3dee a83c 63c4 93bc 8855 5d3c 4ac1 463c
00000060: 9895 b13d 59cc 7fbe c86e 6bbf 8fed 10be
00000070: c0a3 983d ab3e 0fbe 4494 653f 2f7a 013e
00000080: eb4f 2f3d 46a8 063d 73df 78bd a4ac 6e3d
00000090: c6ec d7be 98a5 c9bc 05f6 643d a988 cbbd
000000a0: 67c1 d33d 5aef 10be 0ae6 d53c 31ad 99bd
000000b0: 0c9f 2bbe 948d 7ebf 1bff ae3c 460c 7fbd
000000c0: db3e 28bc 1a48 16bd 4a62 193f 0f16 1d3e
000000d0: e07c 233d 8fae c2bd 4ea6 8dbd 83f6 91be
000000e0: a857 553d 4605 4b3d 6796 813d 7f2a 8bbd
000000f0: 01bd b63c a864 ef3c 24d3 64bc adb4 2e3e
00000100: 7414 34be b39a 89be 5cfe fabd 1a51 aabd
00000110: 8c2e 69bd bc7d e0bd 822c 42be e35c 2ebe
00000120: aae7 05bd 8a2c a9bd 2e4d 7f3e 5e8b d53e
00000130: 210b 863c 52d9 8cbd 4e36 b5bd a093 72be
00000140: fed1 09be 7a78 9dbd aad4 273d 031d 11bd
00000150: 394c 5c3d 095d 62bd 8cb8 8bbe 7b78 72bd
00000160: 1873 f23d 16b0 4c3f ff5e d3bd 1957 a6bb
00000170: fef5 123f 6aa5 8b3e dc48 a7be 4a10 f73c
00000180: b92a 9cbd 018d 3f3e edea 3ebe bc08 d53e
00000190: a580 7abe 0701 02be 3fc2 d93d 8bac c33d
000001a0: cbfd a1bd ee2b 0bbf c824 ecbd e455 c5bd
000001b0: bf11 2ebc 0e02 07be 9287 8b3d 00c7 ddbd
000001c0: 75c2 aa3c 3de2 833e 743e f3bd 09ec 103d
000001d0: 8dbf 42bb 3bb1 51bb 8ada 5f3e 922c 9abc
000001e0: 1723 25bf 4203 6c3c 5eaa 6fbd 2b66 cfbd
000001f0: 2af1 703c 56cf e93b 6423 e93d cb42 c03d

net.4.weight f4 [4, 128]
-0.8997555 0.27376992 1.6526679 -1.0198637 -0.4414522 -0.44217536 0.10900099 0.041530177
-0.69481206 0.03943815 -1.3956676 0.06666222 -0.26314858 0.07969261 0.07489607 -1.7734191
-0.28832942 0.018741602 -0.44689757 -0.16862467 -0.75670874 -0.01643641 -0.13172638 -0.05990369
-0.53809524 -0.7782533 1.3292303 -0.44772646 0.79080415 -0.5007316 0.90145314 -0.19195868
0.48352748 -0.6244641 -0.061067205 -0.17387418 -0.09782527 -1.9115362 -0.51932734 -0.04643833
0.07525618 -0.79860526 -0.0024957717 -0.552352 0.7749507 3.2271729 -0.2804187 0.052885387
-0.006044791 0.045625534 1.709226 -0.18786521 0.035474487 -0.35388243 -1.4500862 -2.4683714
-0.5164747 -0.059111565 0.42181113 -0.006626666 -0.6125636 -0.2891208 0.03951626 0.11261371
0.12807395 -0.7282112 -0.77201414 -1.0310017 -3.0634546 -1.0945201 -0.64460415 -0.5953102
0.056922525 -0.45033208 -0.71633637 0.95797426 -0.0029025418 0.0070832316 -0.892508 -0.044494748
-0.1915876 0.045390546 -0.70220405 0.027280344 -0.25154683 0.0054253885 1.3429359 -0.18497293
-0.17047477 1.5151789 -0.45124313 0.0230551 1.8745506 1.4380561 -0.06664394 -0.4428344
0.016477287 -0.8142029 -0.6271523 1.7345563 -0.8259213 0.073007554 -0.26394886 0.0067358767
0.028028583 -0.81359446 -0.60094565 -0.9916734 -0.5964473 -0.9008117 1.169196 -0.8273807
0.005458416 2.0582738 -0.85304344 -2.0012336 2.8747199 0.08522651 -0.4677275 -0.2337897
-1.7345331 0.058002613 -0.40547445 0.07162332 0.02185258 -0.21758018 -1.0311068 0.5720474
-0.48425266 -1.6198268 1.7064883 -1.5673525 -0.008765495 0.0045610555 0.2817319 0.0050292527
-0.69316345 0.02067951 -2.1068547 0.96772134 0.330091 0.01379265 -0.049305942 -1.105417
0.18198065 0.0040074345 -0.0068001403 -0.7673329 0.13929632 0.05051069 0.19936725 -0.65319884
-0.37728223 -1.3388408 -1.6750994 -0.8178905 0.85243946 -0.83994144 1.4686507 -0.26875442
-0.45619982 -0.66717714 -0.050206456 0.45332822 -1.2816868 -1.165763 -0.43096936 -0.03516392
0.20270236 -0.5434314 0.058085363 -0.9670827 2.1917934 3.292829 -0.7301298 0.026463268
-0.09234124 -0.0024364078 1.5334305 0.6051609 -0.013002398 -0.76880705 -1.4188716 -1.3923136
-0.4729962 -0.010180636 -0.1373428 -0.001773002 -0.46756855 0.08354 -0.026462227 -0.49442708
0.1462619 -0.65410316 -0.65933114 0.33575845 -0.11419257 -1.3035775 -1.1319296 -0.368359
0.031662464 -0.3821506 -0.4503851 0.5503179 0.058991663 0.007435307 -0.88299346 -1.0930337
0.1735123 0.0630371 -0.7634642 -0.011660006 -0.48632416 0.02314734 1.7261449 -0.32618108
-0.43739268 1.6762148 -1.1190578 0.07151417 1.5920359 1.1584387 -1.0422413 -0.14826429
0.03831334 -0.19566886 1.7156065 1.82471 -0.59874517 -0.04282237 -0.632192 -1.0630176
-0.0342531 0.11520659 -0.55385137 -0.9179196 -0.5794516 -0.5247159 0.96988297 -0.67416704
0.020449394 2.1736164 -0.03277033 -1.2619977 2.8002088 0.040060803 -1.2414119 1.834263
-1.5268555 0.023895344 1.0630045 -0.0636613 0.022434581 -1.0668151 -1.2011346 0.17231436
00000000: 6056 66bf 922b 8c3e 9f8a d33f e58a 82bf
00000010: 0606 e2be cf64 e2be e93b df3d 8c1b 2a3d
00000020: 34df 31bf e689 213d 3ca5 b2bf 3486 883d
00000030: 69bb 86be e135 a33d 1c63 993d 66ff e2bf
00000040: ea9f 93be fd87 993c c2cf e4be f2ab 2cbe
00000050: aab7 41bf a6a5 86bc 48e3 06be 925d 75bd
00000060: 9cc0 09bf 9c3b 47bf 3824 aa3f 673c e5be
00000070: 2472 4a3f f22f 00bf a2c5 663f d190 44be
00000080: ea90 f73e e1dc 1fbf 9b21 7abd 130c 32be
00000090: 9d58 c8bd 38ad f4bf a3f2 04bf 1e36 3ebd
000000a0: e91f 9a3d 6571 4cbf 1a90 23bb f166 0dbf
000000b0: 2b63 463f 008a 4e40 0a93 8fbe 599e 583d
000000c0: 6213 c6bb d7e1 3a3d ebc7 da3f bd5f 40be
000000d0: b24d 113d 1430 b5be 6d9c b9bf ccf9 1dc0
000000e0: b037 04bf f81e 72bd a1f7 d73e 8124 d9bb
000000f0: f8d0 1cbf a407 94be cddb 213d 04a2 e63d
00000100: d125 033e 0d6c 3abf b8a2 45bf ddf7 83bf
00000110: a40f 44c0 3c19 8cbf c704 25bf 4066 18bf
00000120: 9827 693d ed91 e6be d261 37bf cd3d 753f
00000130: 9238 3ebb 741a e83b 677b 64bf 2040 36bd
00000140: 8a2f 44be 70eb 393d a5c3 33bf 077b df3c
00000150: bfca 80be 75c7 b13b 53e5 ab3f 8b69 3dbe
00000160: f090 2ebe 62f1 c13f 5709 e7be 0dde bc3c
00000170: 46f1 ef3f 3912 b83f 9e7c 88bd 31bb e2be
00000180: 60fb 863c 9a6f 50bf 0e8d 20bf f105 de3f
00000190: 946f 53bf fc84 953d 4e24 87be a1b8 dc3b
000001a0: 339c e53c ba47 50bf 93d7 19bf 4fde 7dbf
000001b0: c5b0 18bf 989b 66bf 37a8 953f 39cf 53bf
000001c0: 83dc b23b c2ba 0340 0e61 5abf 3614 00c0
000001d0: 69fb 3740 3d8b ae3d fb79 efbe 9166 6fbe
000001e0: 2e05 debf 2694 6d3d 599a cfbe 3faf 923d
000001f0: 2f04 b33c 57cd 5ebe 4ffb 83bf b371 123f
00000200: f7ef f7be 7c56 cfbf 356e da3f 029f c8bf
00000210: 279d 0fbc e874 953b 2a3f 903e 6ecc a43b
00000220: 2973 31bf 1368 a93c b5d6 06c0 96bc 773f
00000230: b001 a93e 91fa 613c 07f5 49bd 4e7e 8dbf
00000240: 2359 3a3e cc50 833b b6d3 debb ee6f 44bf
00000250: b2a3 0e3e 4ce4 4e3d ee26 4c3e 0a38 27bf
00000260: 232b c1be 235f abbf a869 d6bf 4661 51bf
00000270: 7939 5a3f 6706 57bf bffc bb3f 2e9a 89be
00000280: 0693 e9be 1fcc 2abf 49a5 4dbd a31a e83e
00000290: 500e a4bf b937 95bf 04a8 dcbe 0b08 10bd
000002a0: 3591 4f3e 521e 0bbf ebea 6d3d bb92 77bf
000002b0: 5846 0c40 b6bd 5240 c9e9 3abf 7fc9 d83c
000002c0: 671d bdbd 24ac 1fbb 7347 c43f d3eb 1a3f
000002d0: 0308 55bc 8ad0 44bf 969d b5bf 5537 b2bf
000002e0: 8f2c f2be afcc 26bc 97a3 0cbe 1364 e8ba
000002f0: 2565 efbe 0517 ab3d 50c7 d8bc 8c25 fdbe
00000300: aec5 153e 4e73 27bf edc9 28bf 88e8 ab3e
00000310: cbdd e9bd a1db a6bf 12e3 90bf 8d99 bcbe
00000320: 80b0 013d 3ea9 c3be e098 e6be a2e1 0c3f
00000330: 3ea1 713d e0a3 f33b dc0b 62bf 87e8 8bbf
00000340: 35ad 313e 9819 813d 6472 43bf 9c09 3fbc
00000350: 7bff f8be 7e9f bd3c 51f2 dc3f 3501 a7be
00000360: eff1 dfbe 358e d63f 493d 8fbf 0576 923d
00000370: d5c7 cb3f b847 943f 2a68 85bf 98d2 17be
00000380: 73ee 1c3d 6b5d 48be fe98 db3f 1990 e93f
00000390: 5d47 19bf 8266 2fbd 56d7 21bf f610 88bf
000003a0: fb4c 0cbd 6ff1 eb3d 34c9 0dbf c7fc 6abf
000003b0: f156 14bf c853 06bf 404a 783f 3696 2cbf
000003c0: 7d85 a73c 881c 0b40 2e3a 06bd 2489 a1bf
000003d0: 9f36 3340 cc16 243d 96e6 9ebf 21c9 ea3f
000003e0: 0070 c3bf 2bc0 c33c 8810 883f db60 82bd
000003f0: bac8 b73c 668d 88bf c7be 99bf 2d73 303e

net.4.bias f4 [4]
0.4386151 0.15553887 -0.17078392 0.3965465
00000000: 2992 e03e 9545 1f3e fbe1 2ebe 2508 cb3e
