experiments/LunarLander-v2-descrete-hyperpra-tunnig/ed/0.05/model.pt (torch, 114135 bytes, 6 tensors)

net.0.weight f4 [200, 8]
000000 63 53 44 bf 92 35 b1 bf 16 f4 e6 3f 74 50 e2 3f
       -0.7668974 -1.3844473 1.8043239 1.7680802
000010 45 c0 5b 3c ee 83 d4 3e 89 a7 07 bf b8 2b ee 3e
       0.01341254 0.41506904 -0.52990013 0.4651773
000020 58 d9 3d be dd 5a 4e 3f 80 b4 8a 3f 0d f0 4b 3d
       -0.18539941 0.80607396 1.0836334 0.049789477
000030 e2 a2 69 3f 2d d4 99 be 9c fd 0f bf 7c 8b 69 3d
       0.91264164 -0.3004469 -0.5624635 0.05701779
000040 83 07 67 bf 4e 69 5d 3e de 37 e4 bf 6e bd a4 bf
       -0.90245837 0.21622202 -1.7829549 -1.2870309
000050 1c ca 98 bc 47 ae bd be de d9 24 3f f4 e2 8c 3e
       -0.01865106 -0.37047026 0.6439494 0.27516901
000060 85 70 9f 3f 8c 23 15 3e 2d c7 32 3f dc 63 33 be
       1.2456213 0.14564341 0.6983517 -0.17518562
000070 c0 24 99 3f f4 0b ca be 0b 90 04 3f 0d 2c 2c 3e
       1.196434 -0.39462245 0.5178229 0.16813679
000080 d7 08 c1 3d 85 77 fc 3d c8 86 25 3e 28 35 bb be
       0.09425514 0.12327484 0.16164696 -0.36563993
000090 17 e9 b6 3f ce 5c 54 3f b1 4d 26 3f 39 5a 06 bf
       1.4289883 0.8295411 0.649623 -0.5248142
0000a0 40 29 bd 3f b7 7f cb 3d 91 25 a5 3f 2b 35 b6 3e
       1.4778214 0.09936469 1.2902089 0.3558744
0000b0 c2 2d 84 bf 08 63 9c 3d 9d 44 22 3e d1 d3 9d ba
       -1.0326464 0.07636076 0.15846486 -0.0012041276
0000c0 08 d5 72 3f c2 ce a5 c0 6f 18 83 3f b7 72 d8 bf
       0.9485631 -5.181489 1.0241832 -1.6910008
0000d0 bd 51 d5 bf 59 b5 77 be 04 eb 2d bd 02 df 4e 3d
       -1.666557 -0.24190272 -0.042460456 0.050505646
0000e0 ee 87 aa be 5b c6 0d bf 4f fb af 3f c0 33 e1 3f
       -0.3330683 -0.5538079 1.3748568 1.7593918
0000f0 24 b5 10 3f b0 4f 4e 3e f5 3b 18 be d3 02 99 3e
       0.565264 0.20147586 -0.14866622 0.29884967
000100 73 1d 7f bf 17 a3 8d bf fb 39 0e be 10 53 d6 bf
       -0.9965431 -1.1065396 -0.13889305 -1.6744099
000110 57 8c 0e 3f bc b9 3b 3e 04 1f 01 3f 42 1c c7 bd
       0.5568289 0.18332571 0.5043795 -0.097221866
000120 38 e7 47 be 5b ea c9 bd 51 5d cb 3f 86 d3 97 bf
       -0.19521797 -0.09859153 1.5887853 -1.1861427
000130 d0 fc 86 3d 68 2d 02 3e 10 c5 26 3e ed ae 1e 3e
       0.06591189 0.12712634 0.16286111 0.15496416
000140 b2 9a 4f 3f b4 9f bd 3d 91 21 9c 3e c1 8b cd 3f
       0.8109542 0.092589766 0.3049436 1.6058275
000150 43 75 06 bf d3 a6 93 3e ca 0f 3d 3f f6 06 3f bf
       -0.5252268 0.28838214 0.7385222 -0.74619997
000160 f1 57 8b bf 42 46 6d bc d6 03 37 bf b2 ca 32 3f
       -1.0886213 -0.014482083 -0.7149023 0.6984054
000170 1c 7d 32 3f 20 6f 31 bf e7 94 99 3f 08 09 a8 be
       0.6972215 -0.6931019 1.1998566 -0.3281939
000180 03 03 b9 3e 31 2e 18 3e 74 30 56 be 49 8d 46 bf
       0.3613511 0.1486137 -0.20916921 -0.77559334
000190 91 d0 01 3e 64 96 7e bf 78 36 a2 bf 23 cb 94 3f
       0.12677218 -0.9944823 -1.2672873 1.1624492
0001a0 0a 5c 7c bf 16 4f 9e c0 2e 2b f6 bd cc 0a 97 bf
       -0.9857794 -4.947154 -0.120199546 -1.180017
0001b0 8b 16 02 be 4c bf 50 3f c3 a9 b2 bf 67 8c 39 bf
       -0.12703912 0.81541896 -1.3958057 -0.7247986
0001c0 d5 6d 7d be 03 7c 9d 3e 87 fb 9c be 12 af 0d bf
       -0.24748929 0.30758676 -0.3066065 -0.5534526
0001d0 19 68 7a 3f 60 c9 8b bf ac 20 f2 bd da 13 60 bf
       0.9781509 -1.092083 -0.11822638 -0.8753029
0001e0 5a 7a 2d 3f ca 12 35 3f 1e 8a 1f 3f 6b 62 e4 3e
       0.6776482 0.70731795 0.62320125 0.44606337
0001f0 1e b2 c8 3e bd bf 9c 3e f3 e4 3a bf b7 6b 01 3d
       0.39198393 0.30615035 -0.730056 0.031596866
000200 ec 33 71 bf 66 9e f4 be 54 b7 7c 3e 88 da 82 bf
       -0.9421985 -0.47777098 0.24679309 -1.022294
000210 67 ab f1 be 0f 13 5c be 00 44 55 bf 92 30 02 3f
       -0.47201082 -0.21491645 -0.83306885 0.5085536
000220 69 1a b2 3f 47 c8 5b 3e 70 bb d2 3d 81 48 a7 3d
       1.391431 0.21463118 0.10289657 0.08168126
000230 39 ca 9d be 42 68 71 3e 3a da 1d be ed a8 6d 3f
       -0.30818346 0.23574927 -0.15415278 0.92835885
000240 92 a9 15 3f 7d eb 31 c0 1e c6 95 3f c7 49 d8 bf
       0.5846187 -2.779998 1.1701086 -1.6897515
000250 73 36 9a be 4b 26 f5 3e 8d 41 8c be 9d a3 b0 be
       -0.30119666 0.47880778 -0.2739376 -0.34499827
000260 e4 1e d9 be b3 66 c3 bf 9f b0 82 bf c5 ce 69 40
       -0.4240638 -1.5265716 -1.021015 3.6532452
000270 c8 11 b4 3c f7 28 7e bf fb 92 56 3e 11 e1 cb 3e
       0.021981135 -0.9928126 0.20954506 0.3982015
000280 6e 51 36 bd f4 9d fd be 41 79 7f be a2 3e f5 be
       -0.04451125 -0.4953457 -0.24948598 -0.47899348
000290 e9 30 9c be 66 6d 66 3e dc 55 19 3f 64 aa 2d bd
       -0.30506065 0.2250267 0.59896636 -0.042398825
0002a0 9c 3f 3e 3f 36 fe 89 c0 ca 23 ce 3d ab 3b a9 3e
       0.7431581 -4.3122816 0.1006542 0.33053336
0002b0 f5 43 10 bf 81 54 fd 3e b0 a6 31 3f fb 1f d4 be
       -0.56353694 0.49478534 0.6939497 -0.4143065
0002c0 08 6f 0e 3f d7 b3 c6 3e 21 0d 27 3e 56 08 01 bf
       0.5563817 0.38809082 0.16313602 -0.50403345
0002d0 39 a6 08 3f 86 38 20 3f 9f 0d cf 3e 78 05 83 3e
       0.53378636 0.6258625 0.4044008 0.2559011
0002e0 7a b5 1f 3f 1b d2 1e bf 72 88 02 be d2 f5 f7 3d
       0.62386286 -0.62039346 -0.12747362 0.121074334
0002f0 fb e1 81 be 17 81 eb be 8a fb ef 3d 11 7e bd be
       -0.25367722 -0.45996925 0.11717899 -0.37010244
000300 cb 7f b1 3e 84 d8 d4 be e6 60 e4 bf 44 d7 1d 40
       0.3466781 -0.41571438 -1.7842071 2.4662638
000310 b2 7d a5 bd 5a f2 f6 3e 03 39 21 3f 9a f6 1c be
       -0.08080615 0.48231775 0.6297762 -0.15328446
000320 9a 3a d8 be ea 43 7b 3e c0 3f 87 be f7 52 b4 3d
       -0.4223221 0.24537626 -0.26415825 0.08804887
000330 6e f5 7b 3e 3e fb a4 3e f5 d9 31 3f 86 4b bd bf
       0.24605343 0.32222933 0.694732 -1.4788673
000340 91 07 2b be a0 39 48 3e 52 ec 2b bf 85 3a 8d 3f
       -0.16702105 0.19553232 -0.6715747 1.1033484
000350 88 dd 93 bf 50 3e 0e bf e7 20 a9 3f 3b dd d5 bf
       -1.1551981 -0.5556383 1.3213166 -1.6708139
000360 9f 17 fe be 0b c1 0e be 75 79 5f bf 82 4f 0e 40
       -0.49627396 -0.13940828 -0.87294704 2.2236028
000370 f2 ce f8 bf cb 16 e4 bf e5 dd 83 be 9e ca a7 bf
       -1.9438155 -1.7819456 -0.2575523 -1.3108709
000380 a2 30 6b bf f9 35 98 be eb b3 b0 3f 8d 36 05 3e
       -0.9187108 -0.29728678 1.3804907 0.1300909
000390 c1 f6 85 bf f9 6e 0d bf 4a 2c 1c bf 55 5c f4 3e
       -1.0465928 -0.55247456 -0.6100508 0.47726694
0003a0 5f 21 57 be 6b 31 6f be 43 e4 8e 3d e3 f6 af 3e
       -0.21008824 -0.23358695 0.06977131 0.34368047
0003b0 00 b4 ec 3d 71 81 52 bd 0a 1e bb be 07 f4 05 bc
       0.1155777 -0.051392976 -0.36546355 -0.008175856
0003c0 4a 10 8c 3e 8c ee 43 be ba 7c 7c 3e ba 48 ab bf
       0.27356178 -0.19133967 0.24656954 -1.3381569
0003d0 63 8c 04 be 92 c1 ce be 48 05 f4 3d 45 61 83 bf
       -0.12944178 -0.40382057 0.1191507 -1.0264059
0003e0 94 3c 11 be 7d 96 f8 be b2 e1 90 be 17 25 17 3f
       -0.14183265 -0.48552313 -0.28297192 0.5904097
0003f0 1e 13 08 3f db 30 6b 3e 60 a5 c8 bd d9 af 3f 3d
       0.5315417 0.22967856 -0.09797168 0.04679856

net.0.bias f4 [200]
000000 5f 52 c3 3e 82 e4 e5 be a1 2e 9f be 5d 6c 2d bf
       0.38148782 -0.449009 -0.31090263 -0.67743474
000010 84 34 71 3e bc 52 9c bd ad 53 1c 3f 06 c9 b4 3e
       0.2355519 -0.07632968 0.6106518 0.3530962
000020 88 ab 92 be 0c 97 e7 3b 8f b5 ae 3a 27 7b 4a bf
       -0.28646493 0.0070675667 0.0013329255 -0.79094166
000030 22 c8 89 3e 84 bd 86 3f 5b 8b 12 3f 16 53 00 3f
       0.26910502 1.0526586 0.5724389 0.5012678
000040 14 4b 95 3e 79 b2 ae be 43 e1 39 3f e5 c1 98 3e
       0.29158843 -0.3412054 0.7260935 0.2983543
000050 ed 28 03 3f b6 b7 77 be ef f3 9d bf 10 22 41 3f
       0.5123432 -0.24191174 -1.2340068 0.754426
000060 e8 75 7c 3f d5 f9 3b 3f c9 2b 44 bf b1 df 26 bf
       0.9861741 0.7342809 -0.7662931 -0.65185076
000070 a0 6f 96 bd 29 ef ac be bb ea ea 3e a8 45 8d 3f
       -0.073455095 -0.33776215 0.4588221 1.1036882
000080 ef 7c 11 3f 62 ab 1e bf f2 8d ef be 2b 34 86 3e
       0.5683126 -0.6198026 -0.46787983 0.26211676
000090 d0 a7 80 3e a2 60 d0 bd 1c e8 38 3e 44 c4 1f be
       0.2512803 -0.10174681 0.18057293 -0.15602213
0000a0 88 38 b1 3e b9 9a 54 3e 12 95 16 3d de ee 2f bf
       0.34613442 0.20762147 0.03676326 -0.6872386
0000b0 35 87 2b be 60 62 42 be 2f cf 16 bf a1 76 fb 3e
       -0.16750796 -0.1898284 -0.5890989 0.49113944
0000c0 cd 7b bd bd 95 c2 cd be 6b 19 98 bd ff cb a5 3e
       -0.09252129 -0.40187517 -0.07426723 0.323822
0000d0 86 b1 f5 be 55 c3 3d 3f e0 2e 58 3e 58 5d c7 be
       -0.47987002 0.7412618 0.21111631 -0.38938403
0000e0 2b d0 4a bf 61 43 f3 3d b0 da 92 bf 39 45 f1 3e
       -0.7922389 0.11878086 -1.1472988 0.47123125
0000f0 11 49 1f be 50 52 07 3f cd 70 28 3f 32 c3 bb bc
       -0.15555216 0.52859974 0.6579712 -0.022920225
000100 c3 29 86 3d e9 cb f9 3b 7f 38 e2 3e 72 5d bf be
       0.06550934 0.007623185 0.44183728 -0.3737598
000110 de 51 ed be aa 96 0a bf 9e 30 96 3e fe 65 2c bf
       -0.46351522 -0.54136145 0.29333967 -0.6734313
000120 32 27 2f 3f 82 ff 1a be 84 d5 69 bd b0 14 5b bd
       0.6841918 -0.15136531 -0.05708839 -0.053486526
000130 f6 3d 1b 3f e9 1d cb 3e a6 7d 1e 3f b0 c0 10 3f
       0.6064142 0.39671257 0.61910474 0.5654402
000140 a5 95 89 bf cc 51 0c 3f 2e 3c e0 3e 40 1c 95 3a
       -1.0748793 0.5481231 0.43795913 0.0011376217
000150 58 6f 24 3f d5 1a 30 be 76 bc 6a bf ed a6 1d bf
       0.642324 -0.17197736 -0.9169382 -0.61582834
000160 b0 ad 56 bf 9a a8 f3 3d 22 25 8a 3e a6 ec 87 3f
       -0.83858776 0.118973926 0.26981455 1.0619094
000170 2a 59 c8 3e 24 d0 05 bf 18 14 62 3f bc 4a 26 bf
       0.39130527 -0.5227072 0.8831191 -0.64957786
000180 79 56 da ba 83 43 10 bf ae 3d 4b 3e bd ed 2b 3f
       -0.0016657851 -0.56353015 0.19847748 0.67159635
000190 2e 78 1a 3f f3 6e 1f bf 9f 64 d0 3e 08 40 67 3e
       0.6033963 -0.6227867 0.40701768 0.2258302
0001a0 8c 2b 6e bf 08 9f 5a bf 62 14 0a 3f 57 49 c5 be
       -0.930352 -0.8539891 0.5393735 -0.38532516
0001b0 8f 04 27 be 8f b2 82 be 6f af bc be 96 9e 82 3d
       -0.16310333 -0.25526854 -0.36852595 0.06377904
0001c0 50 57 f4 bc 7f e4 8b bd a6 b2 0a 3f fa aa b1 be
       -0.02982679 -0.068306915 0.54178846 -0.34700757
0001d0 77 09 19 bf 16 ba 4c bf 25 cb 40 bc 84 71 56 3f
       -0.5978007 -0.79971445 -0.011767183 0.8376696
0001e0 ff 24 87 3e f8 b7 6a bf 8e 5e 45 3c ff 25 37 bf
       0.26395413 -0.91686964 0.012046469 -0.7154235
0001f0 90 50 31 3e 43 79 f6 3d 7e fc df 3d 28 74 85 3e
       0.17315888 0.120348476 0.10936831 0.26065183
000200 1c 6d 17 bf 0e 49 bc be a7 7c 00 3f a6 4a 7a bf
       -0.5915086 -0.36774486 0.50190204 -0.97770154
000210 9c 0e 59 bf 8a 95 28 3f 01 00 3c 3f ed 52 10 3d
       -0.8478792 0.6585318 0.73437506 0.035235334
000220 5c 50 3c bf 6b 49 d5 be 75 d1 94 bf ce d6 a5 3e
       -0.7356012 -0.41657576 -1.1626421 0.32390445
000230 95 91 95 3d 3b 0d 96 bd 36 31 8f be fb dc 56 bf
       0.07303158 -0.07326742 -0.27967232 -0.8393094
000240 46 e5 85 3e 16 7a 52 3f 16 85 61 3d 07 90 a2 3d
       0.26151484 0.8221754 0.05505856 0.07937627
000250 dc bc 36 bd 62 95 29 3f 30 64 0b 3f 8d 40 50 be
       -0.044613704 0.66243565 0.5444975 -0.20337124
000260 47 49 a8 be 90 3a bf 3e fe 99 a1 3e bb 9d 13 3f
       -0.32868406 0.37349367 0.315628 0.5766255
000270 81 7f cd 3e 00 6d 72 bf ac 57 38 3f 3e 91 a3 3d
       0.4013634 -0.9469757 0.72008777 0.07986687
000280 cf d8 83 bf d1 63 68 3c df d8 2d 3e d0 c9 41 bf
       -1.030054 0.014183954 0.16977261 -0.75698566
000290 2c 76 0b 3f be aa dc 3e a4 28 23 3f aa f9 03 3e
       0.5447719 0.43099016 0.6373389 0.12888208
0002a0 cc f0 2a 3e 6d 71 97 be 82 d4 96 be 9a 5b 0f 3d
       0.16693419 -0.29578725 -0.29459006 0.034999467
0002b0 15 16 5e bd a5 50 e1 3e a9 6f 05 bf 75 3e 7c bf
       -0.054220278 0.4400684 -0.52123505 -0.985328
0002c0 af 8d 7a bd af 02 29 bf 24 9e 3b be 77 c4 4d bf
       -0.061170276 -0.6601972 -0.18322045 -0.80377907
0002d0 e3 82 a4 be 06 3d ee be ad 40 78 bd 1f 95 de 3e
       -0.3213111 -0.46530932 -0.060608555 0.43473145
0002e0 1c 30 46 3f 28 ce 2b 3d bb d7 84 be a4 63 7c bf
       0.7741716 0.041944653 -0.2594584 -0.9858954
0002f0 20 6d 4a 3f 10 58 e4 3d ab 88 f9 3e 07 70 42 bf
       0.7907276 0.11149609 0.48737082 -0.7595219
000300 55 73 97 bd 6e 7b 59 bf 4f 01 44 3f b0 7d cb be
       -0.07395045 -0.84953964 0.76564497 -0.3974433
000310 39 a8 09 3f 1f 6f 5e 3e ad 13 00 bf 4e a7 43 bf
       0.5377231 0.21722077 -0.5003002 -0.7642716

net.2.weight f4 [128, 200]
000000 a1 40 19 bf c7 5c 5e bf 49 bc cc bf 07 bc 42 bf
       -0.5986424 -0.86860317 -1.599496 -0.76068157
000010 17 be 8b be 1e b2 d2 3d 96 17 d6 3f 86 fd 60 bd
       -0.27293465 0.102878794 1.6725948 -0.05492928
000020 71 42 e1 3e 89 3b fd be d6 a9 b5 3c 64 dc 09 bf
       0.43996003 -0.49459484 0.02217571 -0.53851914
000030 9a af 9d bf 4c 3f cb 3e f3 41 06 bf fc 6e 90 be
       -1.2319214 0.3969673 -0.5244438 -0.28209674
000040 25 38 92 bf 62 ff 8a 3e f6 f7 49 3f 1c ff 87 bf
       -1.1423384 0.27147967 0.78893983 -1.0624728
000050 05 aa 36 3f 93 46 9c 3f 26 80 ca be a0 fc 20 bf
       0.7135318 1.2209038 -0.39550894 -0.62885475
000060 f1 3c 88 3e de 94 58 bf 4c fb 99 3f 50 66 d6 3f
       0.26608995 -0.84602153 1.2029815 1.6749973
000070 81 07 3e bd 11 2b 56 3c 3a 23 ba bd b9 d1 10 bf
       -0.046393875 0.013071791 -0.0908875 -0.5657001
000080 83 9b 32 3d 36 3e ee 3d 18 fc 20 3d 93 9b 6b bf
       0.04360534 0.116329595 0.039302915 -0.9203426
000090 2c f4 f8 3e 95 80 24 bd 68 58 37 bf 3e 62 30 3f
       0.48623788 -0.040161688 -0.7161927 0.68899906
0000a0 15 31 59 be 89 02 ef bf 4f 12 0a 3e 11 6e ee 3f
       -0.2121013 -1.8672649 0.13483547 1.862734
0000b0 97 13 72 be 40 5d 63 c0 cf 51 10 40 48 e5 3a bf
       -0.23640285 -3.5525665 2.2549932 -0.73006105
0000c0 12 43 0b bd 4f 24 be 3e 5e 05 aa bd ff 7f df be
       -0.03399951 0.37137076 -0.08301805 -0.4365234
0000d0 62 7d 26 3e 7e 71 9b bf 9a 55 2c be 40 28 fc 3e
       0.16258767 -1.214401 -0.1682953 0.49249458
0000e0 8b 0f 1d c0 52 3b 7a 3f 4a b1 8b 3f a5 73 8d be
       -2.4540737 0.97746766 1.0913479 -0.27627292
0000f0 c3 36 08 bf ab 82 12 be 3b 3b a5 bf cd 79 67 bf
       -0.5320856 -0.14307658 -1.2908701 -0.9042023
000100 1b 2c 65 c0 3b 80 62 3d b9 7d 1d c0 3a a7 c0 3d
       -3.580817 0.05529807 -2.4607985 0.09406896
000110 b0 6f 99 bf 4c 49 33 bf e0 0a 09 bf 24 c5 91 be
       -1.1987209 -0.7003372 -0.5353222 -0.2847072
000120 9c 29 b6 bf ca 66 c4 bf a0 fa a1 be 71 f8 29 3e
       -1.4231448 -1.5343869 -0.31636524 0.16598679
000130 b4 9f 58 3e 90 52 b2 bd 40 d2 1f bf 8a 16 86 bf
       0.21154672 -0.08707154 -0.6243019 -1.0475628
000140 00 38 c3 3f 8e c2 a0 bf 59 79 31 3e cf 37 57 be
       1.5251465 -1.2559373 0.17331447 -0.21017383
000150 83 0a 4e 3d ce ab d4 3e f4 94 c4 3f 71 fa 16 3e
       0.050302994 0.41537327 1.5357957 0.14743973
000160 58 c9 c5 3e 7e 10 11 bd f4 3e c5 3e 7c 1a d0 bf
       0.38630176 -0.03541612 0.38524592 -1.6258082
000170 62 f4 28 bf ff e1 51 c0 6c 6d 97 bf 29 bc 64 bf
       -0.659979 -3.2794187 -1.1830268 -0.8934961
000180 10 c5 46 bf 28 67 86 3f 2c b2 61 bf 1d bc 9e 3a
       -0.77644444 1.0500231 -0.88162494 0.0012110505
000190 6d 64 d4 be 3c cc f8 bf 7a f4 62 bd aa b4 91 3e
       -0.4148287 -1.9437327 -0.055408932 0.28458148
0001a0 e5 48 e4 bf 41 1d 8d 3f 35 17 54 bf 98 1a 76 be
       -1.7834746 1.1024553 -0.8284791 -0.24033582
0001b0 24 93 08 3e be ec 3b be da 7e 0e 40 d1 2f c5 3e
       0.1333738 -0.18352029 2.2264924 0.38513044
0001c0 09 e9 25 bf 88 05 80 3e 7c 5c bb be 44 d7 db 3e
       -0.6480871 0.2500422 -0.36593997 0.42937672
0001d0 44 23 10 40 40 53 06 40 d8 18 44 3e e7 07 b2 bf
       2.2521524 2.0988312 0.19150102 -1.3908662
0001e0 57 1d 8c 3e af 76 3b 3e 63 24 b0 3d ce 01 25 bd
       0.27366135 0.18306993 0.0860069 -0.040284924
0001f0 cd d9 4b bd ca 8c f2 3e ea dc e8 3e fc d9 e9 bd
       -0.049768258 0.4737304 0.45481044 -0.1141853
000200 af 1c 77 3d 7f 55 82 c0 f0 77 80 bf 07 70 23 3d
       0.06033009 -4.0729365 -1.0036602 0.03990176
000210 64 46 8c 3c 84 17 01 3f ca f6 4e bd 3f 72 fb bf
       0.017123409 0.50426507 -0.050528325 -1.964424
000220 ad 97 76 3f 86 f3 51 bf 01 c2 9c bf 44 29 dc 3e
       0.9632519 -0.8201221 -1.2246705 0.43000233
000230 6e 78 c1 3e f1 c4 70 3e 27 73 32 3e c4 91 ec bf
       0.37787193 0.23512627 0.1742674 -1.8481984
000240 4c ca 30 3f 21 97 ad be 29 da 27 bf 3a a7 01 3f
       0.6905868 -0.33904365 -0.6556726 0.5064579
000250 e6 70 59 3f 86 49 3b 3e ee f8 ad bf 6d 96 b2 3e
       0.84937894 0.18289766 -1.3591592 0.3488039
000260 c4 fc 77 bf 8d 12 b0 3f 10 43 8f 3e 05 89 80 3f
       -0.96870065 1.3755661 0.27980852 1.0041815
000270 da da 34 bf d7 d6 a0 3f 57 69 d8 3e a1 cf b7 bd
       -0.7064644 1.2565564 0.42267868 -0.08975149
000280 17 d7 08 be d6 05 c2 bd 1d 1d fb 3e 4e 8a 26 3e
       -0.133633 -0.09473769 0.4904565 0.16263697
000290 6c 02 94 bf a8 4b 1d 3e 7f 9b 1b 3f 4c 8c e1 bd
       -1.1563239 0.15360892 0.60784143 -0.11013088
0002a0 37 4c e2 3d 4c 6c 6f 3e a4 67 9d 3e 90 1e 2f be
       0.11049693 0.23381156 0.30743134 -0.17101502
0002b0 f7 30 83 bf 96 ea 94 3e 83 34 ea 3e 48 1b 5f 3f
       -1.0249318 0.29085225 0.45743188 0.87151
0002c0 d9 6f e3 be c0 a2 87 bf b3 16 44 bf e8 e2 28 c0
       -0.4442127 -1.0596542 -0.76597136 -2.6388493
0002d0 5b ad 5f 3d ad 3b 0f 40 6b fb 88 bf fc 1e fe bc
       0.054608684 2.2380173 -1.0701727 -0.031020634
0002e0 da 6c 8b bd a2 26 1f 3f bd bc 58 bf bc 74 94 bf
       -0.06807871 0.62168324 -0.8466299 -1.1598125
0002f0 9c 23 72 3e 00 55 a0 bd 22 20 85 bb 69 af d9 bf
       0.23646396 -0.078287125 -0.0040626684 -1.7006656
000300 22 77 2e bf 6e e4 19 be 3c e0 bd 3d 28 ae d8 bf
       -0.6815053 -0.15028545 0.09271285 -1.6928148
000310 4e 7d 6b c0 bd 3f 75 3e 9f c9 37 bf 8d f0 8c 3e
       -3.679523 0.23950095 -0.71792024 0.27527276
000320 c2 26 f9 bf 0f dc 16 3d ba 52 de 3e ed 4c ab bf
       -1.9464953 0.036830958 0.4342249 -1.3382851
000330 c3 84 3e bf 4e 3d 88 3f dc 6d 44 bd a0 45 12 c0
       -0.7442133 1.0643709 -0.047956333 -2.2854996
000340 16 7f 73 3f 21 a2 3e 3e f7 54 b4 c0 2a cf cd be
       0.9511579 0.18616535 -5.6353717 -0.40197116
000350 9a 55 d1 3e 80 99 b3 bf a6 e9 d1 be 01 08 7e bf
       0.4088562 -1.403122 -0.40998572 -0.99230963
000360 be 3f 2b 3f d4 dc fa be a1 7c 7d 3e a7 9b 41 bf
       0.6689414 -0.48996603 0.24754573 -0.7562813
000370 94 43 58 3f a8 ba f3 3f 8b 46 e2 bf ff a4 ac be
       0.84478116 1.9041338 -1.7677778 -0.33719632
000380 27 04 0d c0 e4 f4 de bf 18 40 8c 3e 08 0a 0f c0
       -2.2033784 -1.7418485 0.2739265 -2.2349873
000390 fd f9 17 3f fb 0f 28 3b c9 d9 25 bf 12 63 80 bf
       0.59365827 0.002564429 -0.6478544 -1.0030234
0003a0 4c fe 3b 3f a6 a7 b3 bf 4d 3d 59 bf 59 b9 80 bf
       0.734349 -1.4035537 -0.8485916 -1.0056564
0003b0 90 34 86 3d ff cb 0b bf bb 42 d5 be b1 47 85 3f
       0.06552994 -0.5460815 -0.41652474 1.0412503
0003c0 e0 d2 89 bf 2a c1 5d bf 54 fb 6e 3f 83 7b bc bf
       -1.0767479 -0.8662287 0.93352246 -1.4725193
0003d0 da c3 7f bf 02 07 27 3f df cd 9f bf 44 3a 5b bf
       -0.9990822 0.6524507 -1.2484702 -0.8563578
0003e0 c5 fc b8 c0 22 4e db 3d 76 57 65 3f 79 a7 95 bf
       -5.7808557 0.10708262 0.8958658 -1.1691734
0003f0 b3 78 a1 3e 58 da 14 3f 5c 76 71 3e f6 b4 31 3f
       0.315374 0.58145666 0.23580307 0.6941675

net.2.bias f4 [128]
000000 a5 1f 1d bc 22 7c 91 3e d3 78 fd be ea 6e 92 bd
       -0.009590064 0.28415018 -0.49506244 -0.071500614
000010 f0 23 12 3f b7 0f 2d bf 79 f8 31 bd 69 ae 75 be
       0.57086086 -0.67602104 -0.043449853 -0.23992313
000020 d0 93 07 bf 9a 8b 8d bd 0d 7b 2a 3c ee 35 4f bc
       -0.5295992 -0.069113925 0.010405314 -0.012647135
000030 f6 aa 0b bf c2 5d 42 bb 58 aa e6 bd d2 78 e6 3e
       -0.5455774 -0.0029657935 -0.11262959 0.45014054
000040 9a eb 91 bd 4d 19 00 bf 0e 17 e9 be 1a 6b e7 be
       -0.071250156 -0.50038606 -0.45525402 -0.451989
000050 e6 f3 33 bf d2 5a 37 bd 41 af 9a be e8 a7 2b bf
       -0.70294034 -0.044764347 -0.30211833 -0.6705308
000060 67 03 00 3e 3c a9 da be bb 73 4e 3d b0 72 74 be
       0.12501298 -0.4270724 0.050403338 -0.23871875
000070 32 8c a3 bd 4d 96 90 3e 21 65 86 3d aa e4 9f 3d
       -0.079857245 0.2823967 0.065622576 0.07807286
000080 f2 dc 30 bd 5e 23 d5 bd 62 54 d1 be 7b d5 06 bc
       -0.04317946 -0.104071364 -0.4088469 -0.008229609
000090 73 1b 83 bd e8 7d ad be d2 3b 1c be 49 1c 05 3d
       -0.0640172 -0.3388512 -0.15257195 0.032497678
0000a0 5e 12 9d 3d af 78 1d 3f 4d 27 a2 3e 06 b2 fd bd
       0.07669519 0.61512274 0.3167061 -0.12387471
0000b0 bc d9 8c bd ed a6 4a bf f3 9e 23 bd 8b 56 d3 bc
       -0.06877467 -0.7916096 -0.039946508 -0.025798103
0000c0 e2 f6 28 bf d6 32 3d 3c b2 d3 91 3d cf b1 3b 3e
       -0.66001713 0.011547765 0.07120456 0.18329547
0000d0 db 56 ff bd 57 3d c9 be 4d fc 90 3e 51 89 1b bf
       -0.12467738 -0.3930461 0.2831749 -0.60756403
0000e0 df 54 95 3e 55 cf 17 3f dd 65 ae 3b 17 d5 05 bf
       0.29166314 0.5930074 0.0053222016 -0.52278274
0000f0 a8 12 06 bc 54 2c f0 bd bc 45 14 be 26 d0 93 be
       -0.008183159 -0.11727205 -0.14479727 -0.28869742
000100 d6 d6 15 be ba c6 4d 3d eb 55 cb 3e 5f d6 ae bd
       -0.14632735 0.05023835 0.39713988 -0.08536982
000110 53 06 63 be 49 f8 e3 3e 4d b8 b8 be 75 0a 55 3e
       -0.22170381 0.44525364 -0.3607811 0.2080477
000120 b7 a2 95 bc 5a bf 5d 3e 24 fa 30 bd e6 80 09 bd
       -0.018266065 0.21655026 -0.043207303 -0.033570193
000130 a4 b1 e9 bd 3e 4e c9 3e a4 2b f7 be 33 3d 6f be
       -0.114108354 0.39317507 -0.48275483 -0.2336319
000140 7e 8c 2f 3e 0e 02 38 3e b1 c6 83 be 4e bc 92 3e
       0.17143437 0.17969534 -0.25737527 0.2865929
000150 59 d8 42 3e 3f a8 1d 3f b1 36 9b bc 9b cb 59 be
       0.19027843 0.6158485 -0.018946977 -0.21269076
000160 c0 a2 a6 be f3 fa c0 bd 61 e2 e7 be fa 9b 53 bc
       -0.32546043 -0.09422865 -0.452899 -0.012915606
000170 a8 65 f1 bd b3 64 a1 bd a6 62 d0 be 0a bb 66 be
       -0.117869675 -0.07880535 -0.40700263 -0.22532287
000180 0d cd 2d 3e 92 c3 7d 3e 24 87 9b bc bd 86 39 be
       0.16972752 0.24781635 -0.018985339 -0.18117805
000190 a9 7f af bc 86 c7 13 3d 88 a0 9a 3e f2 8f 0c 3e
       -0.021423178 0.036078952 0.302006 0.13726786
0001a0 b6 36 03 3f de 9f 7d bd da 03 16 be 26 d0 cb be
       0.5125536 -0.06192004 -0.14649907 -0.39807242
0001b0 32 1c bf 3e 48 cc 1c bf 07 d8 ba 3e c0 bc 01 bd
       0.373262 -0.6124921 0.3649294 -0.031674147
0001c0 7e e2 3a be f7 64 f4 3e 0f d0 bf be 04 02 1e be
       -0.18250462 0.4773328 -0.37463424 -0.15430456
0001d0 53 df 16 bc 9a d6 92 3e 1c ab ea be b3 2a 0f bb
       -0.009208518 0.28679353 -0.4583367 -0.002184552
0001e0 1a f9 aa bd 88 69 f9 bd 5f 78 b5 3d 4e 75 fc be
       -0.083482936 -0.121783316 0.088608496 -0.49308246
0001f0 0e f3 4a be ae 31 bf 3e 36 83 07 bf 0c e4 ed bd
       -0.1981928 0.3734259 -0.52934587 -0.11615762

net.4.weight f4 [4, 128]
000000 d2 6b e0 bf 42 8e 06 c0 84 38 00 c0 b0 72 ba 3b
       -1.7532904 -2.1024327 -2.0034494 0.0056899413
000010 ee e5 15 40 57 f6 8b 3e 2d 93 8d 3d 1f f2 a9 bf
       2.3421588 0.2733638 0.06912837 -1.3277014
000020 88 74 30 bf cf bc 8d bd bd d0 8f bd 5c b5 3a bd
       -0.6892781 -0.06920778 -0.070222355 -0.045583114
000030 0b b5 3b bf 33 90 ef ba bd e5 fc bc ec ce fd 3e
       -0.73323125 -0.0018277228 -0.030871266 0.4957193
000040 cb 7e 1d bd 5d 7e da 3b 07 ac 9c be a7 50 06 bf
       -0.038450997 0.0066678957 -0.30599996 -0.52466816
000050 02 3b 42 bf 03 84 a3 bb 9f 03 c1 bf fb ea bf 3e
       -0.7587129 -0.0049901023 -1.507923 0.37483963
000060 2c 67 dc bf 09 f2 2d bf 7b 1e 67 be 42 23 cf bf
       -1.7218986 -0.6794744 -0.22570221 -1.6182635
000070 38 3e b0 3c ec aa 76 bf e0 98 7c bf 59 09 8f bf
       0.021514043 -0.96354556 -0.9867077 -1.1174728
000080 f2 09 4a 3d d5 75 a5 bc 87 86 c5 bf 6c 35 8a bd
       0.04932589 -0.020197788 -1.543168 -0.06748471
000090 05 9f a6 bf 2b 56 4c bf 8b db b2 bf 2e bd 9b bd
       -1.3017279 -0.7981898 -1.3973249 -0.076044425
0000a0 3d 49 7f 3f 9d 0d 9a bf f1 c6 a6 3f f5 82 1e bd
       0.9972113 -1.2035404 1.3029462 -0.03869911
0000b0 e6 12 a7 bb 21 2a 97 3d 45 10 a0 bf c6 12 21 40
       -0.0050986884 0.07381082 -1.2504965 2.5167708
0000c0 79 12 72 bf dc 6e 20 bd cf 03 a9 be f1 f5 99 bf
       -0.9455944 -0.039168224 -0.33010718 -1.202818
0000d0 05 f7 09 bd a8 9e 62 bf b3 16 91 bf 05 d7 da bf
       -0.03368284 -0.8852334 -1.1335052 -1.7096869
0000e0 28 0b 89 bf e0 a6 0d bf 18 b9 d0 3c c2 db db bf
       -1.070653 -0.55332756 0.025478885 -1.717644
0000f0 1f b6 87 bc f6 61 59 bd 69 57 b7 bf a8 bb f1 3e
       -0.016566334 -0.05307194 -1.432355 0.47213483
000100 ca 69 c7 bd e1 8f b0 bd d5 62 b3 bf d5 3a 6b bf
       -0.097369745 -0.08621193 -1.4014536 -0.91886646
000110 22 b1 b2 bf 3b fd 91 3f 9f bb 69 bf dd fa 2f 3f
       -1.3960307 1.1405405 -0.9130191 0.6874216
000120 7e f8 18 bd 7e d3 5a bf b2 d2 6b 3b 00 d7 a1 3c
       -0.037346356 -0.8547896 0.0035983738 0.01975584
000130 18 c9 89 3d 33 d2 8c bf 3d aa db 3f 4a 55 94 3f
       0.06727809 -1.1001648 1.7161328 1.1588528
000140 cd 39 cb 3f 8f 96 4e be 0a d5 a9 bf 5f 6e 84 3f
       1.5877014 -0.20174621 -1.3268139 1.0346183
000150 4a 40 49 be ad 72 52 3f 89 27 8e bd fa fa 95 3f
       -0.1965343 0.8220623 -0.069411345 1.1717217
000160 4a 13 44 3f e4 84 55 bc 50 c3 8b bf b6 05 ac 3c
       0.7659193 -0.013032172 -1.091898 0.020998817
000170 dc fc 19 c0 96 f3 fb bc 90 f1 3f 3f ee 6f da bd
       -2.4060583 -0.0307558 0.7497797 -0.1066588
000180 a0 71 9e 3e d4 d9 fd be c6 29 c9 3c 57 68 7c be
       0.30946064 -0.49580252 0.024556052 -0.24649177
000190 53 99 6c 3f 97 9b 05 3d ac 0b 2d bf 80 f7 c5 bf
       0.92421454 0.032619085 -0.67595935 -1.5466156
0001a0 04 a1 db be 90 39 ab 3d 38 93 ca bf 82 80 a1 bf
       -0.42896283 0.083605886 -1.5826178 -1.2617342
0001b0 1c d6 61 be 66 14 fa bf fb de e2 3e ff 8e 57 bf
       -0.22054332 -1.9537475 0.44310746 -0.8420257
0001c0 d3 05 46 bf fa 7b c4 3f e9 19 f2 be bf 5a f3 3f
       -0.7735264 1.5350335 -0.47285393 1.9012069
0001d0 c8 6e a2 bd 53 9b 16 40 71 97 88 bf 9a 3d 32 3d
       -0.07931286 2.3532302 -1.0671216 0.04351578
0001e0 bd e6 4a bd 09 45 d3 bc fb fd 0d 40 a3 d5 88 bf
       -0.049536455 -0.025789754 2.2186267 -1.0690197
0001f0 94 2f b0 bf 91 f3 a5 3f d9 e4 af bf f8 9a 3e bd
       -1.376452 1.2964956 -1.3741714 -0.04653451
000200 75 c5 5b 3f 97 6f ba bf cc 77 c7 bf e8 3e 08 bc
       0.8584817 -1.4565305 -1.5583434 -0.008315779
000210 25 ac 0c 40 5f 8a d7 3e cd f1 62 3d 78 df 99 be
       2.1980069 0.42097756 0.05540638 -0.30053306
000220 ba 01 8c bf f6 a7 4b 3d 85 c9 61 3c 8b 5a 5c 3d
       -1.0938027 0.049720727 0.013780956 0.053797286
000230 e9 91 a8 bf 9f 8f 87 3d 04 c4 1e 3e e4 48 39 3f
       -1.3169528 0.066191904 0.15504462 0.7237685
000240 6d 83 0d 3d b5 49 b1 bf 20 32 f5 bf 77 b4 98 be
       0.034549166 -1.3850619 -1.9155922 -0.29825184
000250 87 9a d0 bf 5f 4c ad bd 3b a9 9a bf 3e 09 9a bf
       -1.6297158 -0.08461832 -1.2082895 -1.203407
000260 da b1 e8 bf 1f 4d dc 3d a1 b5 c6 bc d2 11 dc bf
       -1.8179276 0.10756897 -0.02425653 -1.7192938
000270 a2 c9 87 bd 56 a1 93 bf 68 79 8a bf 27 b6 dc be
       -0.06630255 -1.1533611 -1.08183 -0.4310772
000280 63 57 22 bc 5c 31 f9 bc 6c c5 b9 bf 20 78 a9 bd
       -0.00990853 -0.030419044 -1.4513373 -0.08274865
000290 17 64 a8 bf 2f 42 87 bf 9f 95 98 bf f6 37 33 bc
       -1.3155545 -1.0567073 -1.1920661 -0.010938635
0002a0 10 af 84 3f 72 82 62 bf dd 36 8a 3f b3 c3 87 bd
       1.0365925 -0.88480294 1.0797993 -0.066291235
0002b0 80 5c 27 3d 70 4f 0e bf 20 c0 ab bf 78 3c 04 40
       0.0408597 -0.5558996 -1.3418007 2.0661907
0002c0 38 a0 da be 0c b0 36 bd 40 87 ca 3e 20 89 be bf
       -0.42700362 -0.044601485 0.39556313 -1.4885597
0002d0 3e e2 a8 3a f9 46 64 bf 23 f0 3c bf f1 2e 53 bf
       0.0012884808 -0.89170796 -0.7380392 -0.824935
0002e0 47 07 a4 bf b5 9f 64 bf f1 00 7f bd 49 6c 10 c0
       -1.2814721 -0.89306194 -0.062256757 -2.2566092
0002f0 b3 cd fa 3c af 1d 72 bd 7a c1 ac bd 16 63 76 3f
       0.030615663 -0.05911034 -0.0843534 0.96244943
000300 9b 1a e4 bd 23 33 17 3c 58 a4 be bf d8 7c 0e bf
       -0.11137887 0.009228501 -1.4893904 -0.55659246
000310 33 e0 9c bf 9a 59 a0 3f 7b 34 96 bf 48 2e 0e 3f
       -1.225592 1.2527344 -1.1734766 0.5553937
000320 e7 2d 93 bd ed 99 d6 3e f6 b1 30 3d 62 66 6b bc
       -0.071864896 0.4191431 0.043138467 -0.014367672
000330 4c 16 9c bc 5b 3f 91 bf c5 c2 a9 3f f6 4e 80 3f
       -0.0190536 -1.134746 1.3262564 1.0024097
000340 de b9 93 3f 4c ae 75 be d5 e6 7e bf 05 f0 a4 3f
       1.1541097 -0.2399227 -0.9957097 1.2885748
000350 42 0c ee 3e f1 f1 47 3f 41 f2 5c 3d 0d 1b 98 3f
       0.46493727 0.7810355 0.05394197 1.1883255
000360 8f ff f4 be 42 9c b1 bb 49 3c 82 bf 8a b0 87 3d
       -0.47851226 -0.0054202387 -1.0174648 0.06625469
000370 39 7c fb bf 88 9b 66 3c de 09 4d 3f e6 e2 fe bf
       -1.9647285 0.0140751675 0.8009318 -1.9912994
000380 33 8e 96 be 26 95 38 bf 3d ab ce bc 31 56 a2 be
       -0.29405364 -0.7210258 -0.025228137 -0.31706384
000390 bb 25 7f bd 1b d9 8d 3b 00 6d dc 3f 13 31 b7 bf
       -0.062291842 0.0043288595 1.7220764 -1.4311851
0003a0 cb 24 d2 bd 31 88 61 bd 69 57 66 bf 3a bf 8c bf
       -0.10260924 -0.055061523 -0.8997713 -1.0995858
0003b0 d5 57 9f bd d0 b3 25 c0 e3 02 a3 3e 5f e1 5e bf
       -0.077804245 -2.5891 0.3183814 -0.8706264
0003c0 75 31 ef be d4 9e c3 3f 36 97 a4 bf 99 90 e7 3f
       -0.4671742 1.5282845 -1.2858646 1.8091003
0003d0 04 4a 91 3c 77 54 23 40 b4 2a 90 bf a2 78 0a bd
       0.017735489 2.5520303 -1.1263032 -0.03380645
0003e0 f0 01 38 3d 5e 93 8e bd 13 dc 91 3f 31 fa af bf
       0.044923723 -0.06961702 1.1395286 -1.3748227
0003f0 82 cd bc bf 65 bd a4 3f 66 24 cd bf 2f cb 33 3c
       -1.4750216 1.2870299 -1.6026733 0.010973736

net.4.bias f4 [4]
000000 6c 48 ce 3d cf e4 68 3f ff 4a bf 3e 93 af bb 3e
       0.10072407 0.90974134 0.37361905 0.3665739
