experiments/LunarLander-v2-descrete-hyperpra-tunnig/lr/0.01/model.pt (torch, 114135 bytes, 6 tensors)

net.0.weight f4 [200, 8]
000000 2e 89 28 3f c4 f3 42 c0 fc 1e 5e 3e 59 d3 7a 3d
       0.6583432 -3.0461283 0.21691507 0.061236713
000010 3d 27 0d be be 0c 29 3e 15 f9 c6 be ba c2 56 bf
       -0.137845 0.16508767 -0.3886191 -0.8389088
000020 ac fb 87 3d 09 cc 16 bf 34 c7 85 be cc c5 9c 3f
       0.066397995 -0.5890508 -0.26128542 1.2247863
000030 1b 87 e1 be 7f 0a cb 3c bc 65 05 3d 4d d4 d7 bd
       -0.4404839 0.024785278 0.032567725 -0.1053854
000040 bc df 35 40 c4 3f a1 3f 1f bb 50 40 2b 1f 0c 41
       2.8417807 1.2597585 3.261421 8.757609
000050 50 f4 19 c0 ab 5e ce c0 98 a7 7c be 8d 8e fc bf
       -2.4055367 -6.449056 -0.24673307 -1.9731003
000060 2d 81 71 3e 01 d7 9a bf c7 85 ff 3e 3e 5f 9c 3f
       0.23584433 -1.2096864 0.49906752 1.2216566
000070 0f 37 2c 3e 2d bc b8 be d2 57 bd be a3 64 00 bd
       0.16817878 -0.36081067 -0.36981064 -0.031345975
000080 16 6f 9a c0 ae 92 20 bd 73 63 e6 3f 37 bf 96 c0
       -4.8260603 -0.039202385 1.79991 -4.7108417
000090 1b 00 ad be 62 7a 2e 41 fb b3 fc bf c4 70 ac c0
       -0.33789143 10.904879 -1.9742426 -5.3887653
0000a0 93 3b 7d 3a 68 3d 26 bf 42 75 e3 3e 02 99 2f 3f
       0.00096600613 -0.6493745 0.44425398 0.68592846
0000b0 80 d4 e8 3d c7 ab 46 be c3 02 50 be 65 5b 3f 3e
       0.11368656 -0.19401465 -0.20313554 0.18687208
0000c0 6e fa ba c0 53 0e 1e bf ee da bd c0 10 c7 bb 40
       -5.84307 -0.6174061 -5.932975 5.8680496
0000d0 95 6b 18 40 da 22 e5 40 ef ee a2 bf 89 57 90 c0
       2.3815663 7.1605043 -1.2729167 -4.5106854
0000e0 e5 41 97 bf 0f dd 01 c0 e2 00 c2 40 64 e6 0a 41
       -1.1816984 -2.0291173 6.062608 8.681248
0000f0 df 9e 31 c0 37 9a 6f c0 6b 35 b2 3f dc cd 89 c0
       -2.7753217 -3.7437875 1.3922552 -4.3063793
000100 52 f8 7e bf 23 05 bb bf 73 21 87 40 22 29 19 c1
       -0.99597657 -1.4610943 4.222833 -9.572542
000110 4a 69 4e c0 c4 dc 05 c1 1a fd f1 c0 98 97 86 40
       -3.2251763 -8.366398 -7.562146 4.206005
000120 53 60 28 c0 5b c7 00 c0 24 40 14 41 7b 85 07 40
       -2.6308792 -2.0121677 9.265659 2.117522
000130 dc e5 d4 bf b7 ad 11 40 97 65 8c bf 2b d6 2d 3e
       -1.6632648 2.2762277 -1.0968503 0.1697623
000140 1b a5 d5 40 79 ec 64 40 f8 1a b4 40 4b 04 7c c0
       6.6764045 3.5769331 5.628292 -3.937762
000150 4b d4 a8 c0 58 83 2f c0 99 c8 0f c0 dc 74 bf 3f
       -5.2759147 -2.7423916 -2.2466185 1.4957538
000160 e9 f4 a6 c0 d5 d3 a7 c0 5c 78 a8 c0 31 40 33 c1
       -5.2173963 -5.2446084 -5.2646923 -11.203172
000170 45 0b 7f c0 19 3c 19 c0 d0 35 b7 c0 11 fe 80 c0
       -3.9850628 -2.394293 -5.725319 -4.031014
000180 87 31 a3 3e f1 c0 1d bf bb 3a 78 3d 0b 10 13 3e
       0.31873724 -0.6162253 0.060602885 0.14361589
000190 14 a3 27 bd b5 36 df bd 3e 44 97 be 64 a6 86 be
       -0.040927008 -0.108991064 -0.29544252 -0.2629882
0001a0 f7 be 29 c0 42 ad 81 3f d3 08 ce c0 51 00 07 3f
       -2.6522806 1.0130999 -6.438577 0.5273486
0001b0 e3 bc a0 40 22 87 f8 40 ac 29 7d c0 0f f1 0a c1
       5.0230575 7.7664957 -3.9556684 -8.683852
0001c0 3c e3 34 3f 75 dd 8c c0 2e ea 01 41 22 3f cd 3f
       0.7065923 -4.4020333 8.119673 1.6034892
0001d0 e6 74 1c c1 7c 0c a6 bf 6c a2 50 40 0e cf 41 3e
       -9.77854 -1.297256 3.2599134 0.18926641
0001e0 07 02 38 40 9a 75 98 bf f3 be 1b 41 b6 d7 b1 40
       2.8751237 -1.1910889 9.734118 5.557582
0001f0 dd da 38 c0 69 2c ac 40 59 f6 17 c0 a3 a8 eb c0
       -2.8883584 5.380421 -2.3744109 -7.3643355
000200 a1 83 fc c0 8e bd 52 c1 cd d4 02 40 38 35 f3 c0
       -7.891068 -13.171278 2.0442383 -7.6002464
000210 c9 a4 92 c0 3f 90 2d c1 f9 76 b8 c0 99 c8 91 bf
       -4.5826154 -10.847716 -5.764523 -1.1389343
000220 c4 5a 4e 3e 59 d9 30 bf f4 ac 00 be 8f fa 3c 3f
       0.20151812 -0.69081646 -0.12565976 0.7381982
000230 f6 29 87 3e 9a bf c1 be 60 ec af be c0 ac ac bd
       0.263992 -0.37841493 -0.34360027 -0.08431387
000240 2a 7c f2 bf 75 dd 1a 40 d7 c0 95 c0 6e 59 9b bf
       -1.8944142 2.4197667 -4.67979 -1.2136667
000250 99 fc 20 41 b3 6f 50 c0 c0 0f ee c0 bd dc 47 c1
       10.061669 -3.2568176 -7.4394226 -12.491391
000260 f3 43 dd 3f 9a fd 6b bf 50 24 e0 40 4d c3 4e c0
       1.7286361 -0.9218384 7.0044327 -3.2306702
000270 33 d5 27 c1 50 94 3d c1 ca 6a 6e bf 9f 4b 3f c0
       -10.489551 -11.848709 -0.931317 -2.9889905
000280 3b 3d 92 40 ee 58 b2 c0 0a e3 8e 40 6f 89 e8 c0
       4.5699744 -5.5733557 4.4652147 -7.2667766
000290 95 35 31 c0 76 02 f0 bf 08 ac d5 c0 9d 3f 0f c0
       -2.7688954 -1.8750751 -6.67725 -2.2382576
0002a0 a8 dd c3 40 74 e3 56 be c0 bb 76 3f e0 d7 92 c0
       6.1208076 -0.20985204 0.96380234 -4.588852
0002b0 3d 12 88 c0 76 5e 3c 41 ec c0 f0 bf dc ae b4 c0
       -4.2522264 11.773062 -1.8808875 -5.646345
0002c0 bc 97 da bd 24 05 30 bf bc 40 25 bd d0 bd 1a 3f
       -0.10673472 -0.68757844 -0.04034494 0.6044588
0002d0 5a 3a b5 bc 69 e4 c1 bd 36 c4 24 be 2a fe a2 be
       -0.02212255 -0.09467394 -0.16090474 -0.31834537
0002e0 0a fe 1c 3f b5 18 e5 bf ff 04 02 3d 3a 13 f8 3d
       0.6132513 -1.7898165 0.031743046 0.12113042
0002f0 2a 58 44 3e de 36 0e bf 58 75 4b be 5d 40 4f bf
       0.19174257 -0.5555247 -0.19868982 -0.80957586
000300 c4 02 f8 3e 93 79 76 c0 ff bf 1a bf c1 1d c1 3e
       0.4843961 -3.8511703 -0.6044921 0.37718013
000310 07 06 02 3e 06 09 2d bf 2d 1f 09 bf 0f 73 94 bf
       0.12697612 -0.67591894 -0.53563195 -1.1597613
000320 96 7f 3d c0 c7 93 0f c1 3a 42 5f 40 eb 0e 1a 41
       -2.9609122 -8.973578 3.4884171 9.628642
000330 3a a0 76 3f ee 45 e8 40 d9 23 d6 3f aa 87 ce c0
       0.96338236 7.2585363 1.672969 -6.4540606
000340 0a 23 0d 41 0b ec be 3f a3 38 2e 40 73 34 ce 40
       8.821054 1.4915785 2.7222068 6.4439025
000350 e1 25 a1 c0 b4 d7 9b be 7d 21 a6 3d 82 64 ef 3f
       -5.035874 -0.30438006 0.08111856 1.8702548
000360 0f 50 0a be a1 ff c0 be 10 db 9c bd 6a 7e e5 3e
       -0.13507102 -0.3769503 -0.0765897 0.4482301
000370 a4 a8 11 be a6 eb 73 bd cb f3 aa be c8 60 a2 be
       -0.14224488 -0.059550904 -0.33389124 -0.31714463
000380 a5 f5 9a 40 41 2c c4 3d f9 17 24 3e cc 0c 34 c0
       4.842486 0.09578753 0.1602477 -2.813281
000390 15 8c e3 40 79 72 cb 40 15 7b 97 bf 33 61 8f c1
       7.11085 6.3577237 -1.1834437 -17.92246
0003a0 2d 8c a1 be 96 20 60 bf 88 8b 83 3e c0 c7 17 3f
       -0.31552258 -0.8754972 0.2569239 0.5928917
0003b0 a5 db 1b 3e f2 84 e5 bd b0 74 2d be 3b bd 29 bf
       0.15220506 -0.11206998 -0.16939044 -0.6630437
0003c0 4d 52 4e 3f e9 e7 69 3e 98 4d f1 bf cf c6 a4 c0
       0.8059433 0.22842373 -1.8851805 -5.1492686
0003d0 a5 a2 f2 3f 9c 19 27 41 6c 78 83 40 a1 14 1c c1
       1.8955885 10.443752 4.10845 -9.755036
0003e0 38 76 ad 3d 5f 07 be be 38 b4 fb 3c 12 8d 5d 3f
       0.08469814 -0.37115 0.030725583 0.8654338
0003f0 fc 73 f3 bd 1c 4b 47 3d 5d 66 12 be e4 8c 5c be
       -0.11887357 0.048655614 -0.14296861 -0.2153812

net.0.bias f4 [200]
000000 eb b8 ef bf 56 9a 97 bf 90 c7 4b 40 3c 55 bf bf
       -1.8728307 -1.1843975 3.1840553 -1.4947886
000010 dc 3a b0 c0 2e d0 6f bf 96 50 c7 c0 fb aa cb c0
       -5.507185 -0.9367703 -6.228587 -6.3646216
000020 15 1c a6 c0 f9 d6 a2 be 82 3d db c0 82 74 1f c0
       -5.190928 -0.31804636 -6.8512583 -2.491486
000030 0a 52 4a bf dc 37 88 c0 5a fa 5d c0 de df d5 c0
       -0.7903143 -4.256819 -3.4684052 -6.6835775
000040 55 83 c4 be d0 ab d6 bf 05 1f c9 c0 08 f0 0e c0
       -0.38381448 -1.6771183 -6.2850366 -2.2334003
000050 fa d5 8e be d4 1b af c0 5b f5 77 bf 24 2e d6 bf
       -0.27897626 -5.472147 -0.9685876 -1.6732831
000060 89 25 d2 bf 37 ad 26 c0 cc 31 c5 c0 a1 68 93 bf
       -1.6417705 -2.6043222 -6.1623287 -1.1516305
000070 89 ed 5b c0 66 63 68 bf 6b d0 91 c0 ae b6 af bf
       -3.436373 -0.9077667 -4.5566916 -1.3727624
000080 db 7c a5 bf d0 d3 6c 40 49 7e 45 bf d9 c1 69 c0
       -1.2928728 3.700428 -0.7714582 -3.6524565
000090 ca b7 a6 c0 89 17 b2 c0 75 ee d0 bf 6d 51 1b c0
       -5.209935 -5.565373 -1.6322771 -2.4268448
0000a0 f0 5d 5d 40 f4 17 07 c1 4c f6 36 c0 68 cb 3a 40
       3.4588585 -8.443348 -2.8587828 2.918665
0000b0 d0 ce b8 c0 52 0d 95 bf e1 3d a4 be 80 f9 09 c1
       -5.7752457 -1.164469 -0.3207846 -8.623413
0000c0 12 5e 9c bf cc c4 97 bf 4d f3 3c 40 a7 ef bb c0
       -1.2216208 -1.1856933 2.95235 -5.8730044
0000d0 5d 5d 06 40 8c 14 a8 c0 e9 98 aa c0 5a 1e aa bf
       2.0994484 -5.252508 -5.331166 -1.3290513
0000e0 01 15 01 3f 74 a3 ae 3f 1d 07 72 40 b8 87 9b bf
       0.50422674 1.3643632 3.7816842 -1.2150793
0000f0 2f 37 41 3f 0c 17 be bf 9d 3f c7 c0 cd fa 27 40
       0.7547483 -1.4850783 -6.2265153 2.6246827
000100 62 7c 24 c0 2a b8 fe c0 97 c2 ce 3f f7 80 13 c0
       -2.5700917 -7.959981 1.6153134 -2.3047464
000110 b1 e8 29 c0 14 d3 d2 c0 c7 10 a2 bf 27 ae d4 3f
       -2.6548274 -6.5882664 -1.266137 1.6615647
000120 5a 64 85 bf a0 e4 ac bf 06 cb 78 bf 38 3b b2 c0
       -1.042125 -1.3507271 -0.9718479 -5.569729
000130 14 ea 56 c0 45 28 b3 c0 56 53 6a c0 4c bf ef bf
       -3.358037 -5.5986657 -3.6613364 -1.8730254
000140 7a 59 b1 bf ff 41 73 bf b2 26 6f bf 5f e4 70 bf
       -1.3855431 -0.9502258 -0.9341842 -0.94098467
000150 e9 bd bf bf 6a f6 9a c0 84 86 3f c0 a5 53 8e bf
       -1.4979831 -4.84258 -2.9925852 -1.1119276
000160 c6 4a a4 c0 1c 82 81 bf 71 30 3c c0 7b 88 97 bf
       -5.1341276 -1.0117831 -2.9404566 -1.1838526
000170 42 e8 f2 c0 dd 0e 37 bf d3 64 52 bf 71 0f 4c bf
       -7.590852 -0.71507055 -0.82185096 -0.7971106
000180 8e b7 4c c0 47 c8 a4 c0 3b f1 c1 c0 82 3c b1 c0
       -3.1987033 -5.149448 -6.060697 -5.538636
000190 b0 54 db c0 87 b3 83 bf af 66 a9 c0 56 1b 5e c0
       -6.854088 -1.0289162 -5.2937846 -3.4704185
0001a0 0d 88 c9 c0 bb be 60 bf 7d 01 c2 bf d6 e8 a5 bf
       -6.2978578 -0.8779103 -1.5156704 -1.2961681
0001b0 1b d9 0d 40 5a bd c5 bf f9 2d bf c0 67 83 b3 c0
       2.216376 -1.544841 -5.974362 -5.6097903
0001c0 10 ec e3 bf 94 ac a5 bf 28 4a 73 40 59 e9 54 bf
       -1.7806416 -1.2943292 3.8014011 -0.8316856
0001d0 66 9f 66 c0 ac 58 ae bf 6f 22 b1 c0 65 7b 86 c0
       -3.603479 -1.362081 -5.5354533 -4.202563
0001e0 70 fc f0 3f 75 6e b8 bf 6a 18 ed bf 25 db 30 bf
       1.8827038 -1.4408709 -1.8523076 -0.6908439
0001f0 11 48 95 be a0 27 6d c0 e8 13 46 bf 9b 7b b8 bf
       -0.29156545 -3.7055435 -0.77374125 -1.4412721
000200 38 8a 54 c0 cd 81 a9 bf 69 03 96 c0 47 3d b0 40
       -3.3209362 -1.3242737 -4.6879163 5.50748
000210 2b e4 90 c0 f4 54 76 c0 4d 7e a9 c0 d4 f1 8b bf
       -4.5278525 -3.8489351 -5.2966676 -1.0933175
000220 13 e3 b3 c0 43 23 70 bf 71 d2 7d c0 62 66 dd bc
       -5.621469 -0.93803805 -3.9659693 -0.027026359
000230 15 42 69 bf 89 bf e0 be 4e 86 a3 bf 74 34 ae 3f
       -0.9111646 -0.4389613 -1.2775362 1.3609757
000240 12 fe 71 bf 29 b3 72 bf a2 ec a2 bf 46 b9 a5 bf
       -0.94528306 -0.94804627 -1.2728465 -1.2947166
000250 f3 8b 77 c0 a4 54 84 3f 69 1c 7b bf aa a6 2b c0
       -3.8679168 1.033833 -0.98090225 -2.6820474
000260 df bd e1 bf f5 6c e5 c0 7d da bf bf 50 d4 32 c0
       -1.7636069 -7.1695504 -1.4988552 -2.7942085
000270 73 9e ee bf 3e b5 4f c0 fe cd 77 bf 47 9e 6e bf
       -1.8642105 -3.2454371 -0.96798694 -0.9321026
000280 7a a1 f2 bf fe b0 f7 c0 5b af 57 c0 c1 c8 e7 3c
       -1.8955529 -7.7403555 -3.3700778 0.02829397
000290 74 a5 05 3f 7f 33 c9 bf 7c f1 41 bc 09 59 09 c0
       0.52205586 -1.571884 -0.0118373595 -2.1460593
0002a0 5c fa bf bf 6c 54 e3 c0 90 a7 9c c0 f3 f1 dc 3f
       -1.4998279 -7.1040554 -4.8954544 1.7261337
0002b0 8c b1 c8 bf ff 89 f3 c0 97 18 62 c0 1d eb bc be
       -1.5679183 -7.610595 -3.5327508 -0.36898127
0002c0 1c e7 8b bf 39 da ae bf 50 bc 8b c0 35 f9 d8 c0
       -1.0929904 -1.3660346 -4.3667374 -6.780421
0002d0 4b f3 4f 40 ca 2e be 40 84 20 a2 bf 8c 39 64 c0
       3.2492244 5.9432116 -1.2666173 -3.5660124
0002e0 36 c3 52 40 5e dd 02 c0 d9 53 80 bf 93 fb 50 c0
       3.2931647 -2.0447612 -1.0025588 -3.2653549
0002f0 84 6c a1 bf 7e 1d 68 bf 40 f7 7c c0 56 0f 00 bf
       -1.2611241 -0.9067 -3.952591 -0.500234
000300 f4 71 87 c0 45 36 a4 c0 9c ed fa c0 dd 03 83 c0
       -4.2326603 -5.1316247 -7.841505 -4.0942216
000310 d3 5e bc c0 08 44 86 bf 00 cf 50 c0 7b b5 9e bf
       -5.886575 -1.0489511 -3.2626343 -1.2399133

net.2.weight f4 [128, 200]
000000 7d fc a5 be 7d 66 0f 3e 79 ab 25 40 2c 0f 24 be
       -0.32419196 0.1400394 2.5885909 -0.16021413
000010 ed c8 92 40 2a 97 84 bd 25 40 f1 3f 80 f4 cf 3f
       4.587027 -0.06474145 1.88477 1.624649
000020 cf 68 24 c0 a1 8e c2 3e 38 45 9e c1 ee 81 1a 40
       -2.568897 0.37999442 -19.783798 2.4141803
000030 fc ac af 3e 16 62 87 3e e1 8e b1 c0 95 0e 0c c1
       0.34311664 0.2644202 -5.5486913 -8.75356
000040 e6 10 fc 40 cd fe d4 be bd 96 ac c0 6f 4c 03 c0
       7.877063 -0.41600648 -5.3934007 -2.0515401
000050 9c f1 ad be 26 5b 1c c0 6a ac 19 bc e9 9a 8a be
       -0.33973396 -2.4430633 -0.009379486 -0.27071312
000060 d6 7e 51 3f 00 db 8c bf 45 6d 0f c0 f4 58 4c be
       0.8183416 -1.1004333 -2.2410443 -0.19955808
000070 88 14 c3 c0 e3 ad 85 bd b6 81 e7 c0 9b 31 1d be
       -6.0962563 -0.06527307 -7.234584 -0.15350954
000080 d0 29 c9 bb 92 1a 56 bf 6d 6e e4 bd 79 a3 32 40
       -0.0061390176 -0.83634293 -0.111538745 2.7912276
000090 44 5c 0e c1 6d 0e cf c0 aa 5e a4 be 67 c9 90 40
       -8.897526 -6.470511 -0.32103473 4.5245852
0000a0 3e d8 8f bf cc 4c 1c c1 3b 70 43 40 2f cd 30 c0
       -1.1237867 -9.768749 3.053725 -2.7625234
0000b0 5d 6d 48 c0 7c ca 24 be 85 a2 63 bd 1d df bc c0
       -3.131675 -0.16092867 -0.055574913 -5.9022355
0000c0 35 f8 57 3f 73 35 a9 be 0c d7 d2 c0 dd 47 e7 c0
       0.8436311 -0.3304859 -6.588751 -7.2275224
0000d0 d3 29 14 40 ae af 8b c0 28 85 65 40 55 e6 12 be
       2.3150527 -4.3651953 3.5862522 -0.14345677
0000e0 10 ec 00 c1 54 c4 fa bf e3 56 c0 c0 39 c4 fc c0
       -8.057632 -1.9591165 -6.0106063 -7.898953
0000f0 e9 7c a4 bf b5 e1 92 c0 3d b5 31 40 3f 72 b0 bf
       -1.285062 -4.590052 2.776687 -1.3784865
000100 1e 51 bc 40 0d 39 fc c0 51 85 4b c0 db ab ba bf
       5.884902 -7.881964 -3.180012 -1.4583696
000110 d8 cb ba 40 4a da 8c bf 44 ce 19 bf f2 15 46 c0
       5.8373833 -1.1004117 -0.6008036 -3.0950894
000120 87 35 9a 3e 43 0b c8 be fb d2 7e bd ea 98 a0 bf
       0.30118963 -0.39071092 -0.062212925 -1.2546666
000130 32 76 9d c1 51 26 1a 40 36 d1 3e c1 96 99 bd be
       -19.682713 2.4085886 -11.926077 -0.3703124
000140 9c fe fd bd 42 7f 0c 3f c4 90 69 3e 85 f3 84 c0
       -0.124020785 0.5488168 0.2280913 -4.1547265
000150 44 45 57 bf 00 8e 1f c0 b7 1e 8b 40 f7 d1 e6 3e
       -0.84090066 -2.493042 4.3474994 0.45082065
000160 b5 76 0c c1 ce ff 8e 3e 5c ee 9e c1 66 cf bc be
       -8.778981 0.27929538 -19.866386 -0.36876982
000170 43 8d 1a c1 d5 94 9d bf b4 a1 4a 40 5b 62 90 3e
       -9.659488 -1.2311045 3.1661196 0.2820004
000180 f4 ba 0c c1 4e bb e8 bd ba 7a 56 bf 68 90 6f 40
       -8.795643 -0.113638505 -0.83781016 3.7431889
000190 bd c1 5e c1 dc 7c 59 be f9 bf ed bf e4 08 86 3f
       -13.922299 -0.21239036 -1.857421 1.0471463
0001a0 1d 2e 6b c0 46 e8 0a 3f c5 56 b1 be bf 4e 92 be
       -3.6746895 0.5426067 -0.34636512 -0.28575704
0001b0 fc fe a4 c0 de ef 70 3e 47 74 59 bf 3e 55 6b c0
       -5.156126 0.23529002 -0.8494305 -3.6770778
0001c0 37 4e 65 be 45 d8 2b c1 4e 91 98 c1 41 10 31 be
       -0.22393118 -10.7403 -19.07095 -0.17291357
0001d0 4c 86 73 40 c5 68 c9 3e 0e 02 6f c1 80 08 6a c1
       3.8050718 0.39337745 -14.938002 -14.627075
0001e0 e6 78 1e c1 95 a7 3d be 21 e2 59 be e5 59 c0 bc
       -9.904516 -0.18520959 -0.21277668 -0.023480365
0001f0 78 d2 32 40 ce 6b 51 bf fe 87 06 bf aa f6 c6 bf
       2.794096 -0.8180512 -0.5255126 -1.5544026
000200 45 89 0d 40 bf ce 9f 3e bf ef 2b 3f d1 f0 08 c1
       2.2115033 0.31212422 0.671627 -8.558793
000210 39 a4 b5 c0 12 4c f9 c0 0f 18 28 c0 21 e8 8b bd
       -5.6762967 -7.790536 -2.6264684 -0.068313845
000220 71 bc c5 c0 5e 23 b8 be a7 86 8f c1 3b 2f 95 40
       -6.179253 -0.35964483 -17.940748 4.6620154
000230 05 36 3a 3e b3 d0 83 be dd 44 da be 08 ed 96 c0
       0.1818467 -0.25745162 -0.42630664 -4.7164345
000240 27 bb 02 3f 97 7e c3 be 11 ba 22 3f 41 d4 09 c1
       0.5106682 -0.38182518 0.63565165 -8.61432
000250 6e a6 57 40 54 00 14 40 a1 b6 f8 be 0f 3f 0f 40
       3.369533 2.31252 -0.48576835 2.2382238
000260 8c a2 03 bf 0a e1 a2 3f ab 11 77 3f 18 66 b6 be
       -0.514199 1.2724926 0.96511334 -0.35624766
000270 71 a3 4f be a5 93 df 3f 51 db 6e 3e 75 17 91 be
       -0.20277192 1.7466933 0.2332585 -0.2833821
000280 d9 fd 30 3e cf 6a 03 40 ba fc 05 c0 89 92 91 3f
       0.17284335 2.053394 -2.0935502 1.1372844
000290 81 79 eb c0 ec bd 1f 3e 03 8e 8d c0 60 7f 06 3f
       -7.358582 0.15599793 -4.4235854 0.5253811
0002a0 aa 4d 8f 3d 36 23 0b c1 dc 34 81 c0 4b 34 ef 40
       0.06997235 -8.696096 -4.0377026 7.4751334
0002b0 6c 35 4c 41 e7 81 6a c1 b6 b9 0d 3c 75 67 08 c0
       12.763042 -14.656714 0.008650234 -2.1313145
0002c0 3e b6 15 bd cc ba 12 3d 35 8b 3f 3f 16 a3 3b bd
       -0.036550753 0.035822675 0.7482179 -0.045809828
0002d0 1d d0 34 c1 71 04 a9 c0 c1 96 55 3e f3 15 17 bf
       -11.300809 -5.281792 0.2085829 -0.59017867
0002e0 90 eb ad c0 1f f1 29 bf 65 06 da be 0c bd 8f bf
       -5.435005 -0.66383547 -0.42583004 -1.1229568
0002f0 02 4b 4f bf 01 61 94 3e 2e d1 9d 3e f8 ea c6 bc
       -0.8097383 0.28980258 0.30823654 -0.024281964
000300 48 ad 52 c0 4e 73 aa 40 26 41 b5 c0 76 36 33 c1
       -3.2918262 5.3265753 -5.6642027 -11.200796
000310 29 33 13 c0 b0 11 fe 3d 07 8b 4d c1 e3 41 9f bd
       -2.2999976 0.124057174 -12.846442 -0.07776239
000320 5f e5 b8 be f2 81 86 3c 31 3b e2 be 08 b1 97 be
       -0.36112496 0.016419385 -0.44185784 -0.29627252
000330 3f ac ec 3d ff cb 58 be cc 9a ad 3c 83 8c 56 be
       0.11556291 -0.21171568 0.021191977 -0.20952038
000340 a1 75 6b bd cb 4f a9 be 7b f9 31 3c 36 32 37 3d
       -0.057485227 -0.3306869 0.010862703 0.04472562
000350 94 f8 55 bd 57 65 66 be 37 d0 b2 be d4 2d 82 bd
       -0.052239016 -0.22499596 -0.3492448 -0.06356397
000360 13 02 5b 3d af 47 f3 bd 09 8e 55 3d 6a b4 0e be
       0.053468775 -0.11878907 0.05213741 -0.1393601
000370 32 a7 1d be 84 c2 f5 be 5d 28 82 be 3c aa d2 be
       -0.15395811 -0.47999966 -0.2542142 -0.41145504
000380 b1 fb d1 3c aa 23 d8 bd 8c e5 ed bc 50 b2 66 3c
       0.025632711 -0.105536774 -0.02904012 0.014080599
000390 5b 7e 47 be 2a b3 ba 3a 1b 8e 4d be 14 04 7b be
       -0.19481795 0.0014244069 -0.2007374 -0.24513274
0003a0 c3 6a 6f bd 83 27 57 bb ea 1e f9 bc 24 12 2e be
       -0.058451425 -0.0032829947 -0.030410249 -0.16999108
0003b0 9c 14 cb bc 1f c7 88 3d 9e 4d ab be 49 22 19 be
       -0.0247901 0.06678604 -0.33457655 -0.14954485
0003c0 fe 87 d2 bd 2d 60 b4 bd f9 25 f4 bd 89 57 9b be
       -0.10279845 -0.088074066 -0.11921305 -0.30340222
0003d0 9e 79 3d bd 82 47 8e bc b8 46 00 be b4 43 ce 3c
       -0.04625856 -0.017368082 -0.12526977 0.025178768
0003e0 5c 22 76 bd 74 cb d0 be 35 fb cd be 44 14 a7 be
       -0.06009136 -0.40780222 -0.40230718 -0.3263265
0003f0 80 77 a4 be 79 b0 47 be f0 5f f9 bd 3a 66 2a bd
       -0.3212242 -0.19500913 -0.12176502 -0.041601397

net.2.bias f4 [128]
000000 86 3e b6 c0 f1 10 ea be 5f d2 a4 be a5 98 d4 be
       -5.6951323 -0.4571605 -0.3219175 -0.4152271
000010 9a 43 45 bf 9c d8 b3 bf 3e fb 1f bf 12 86 19 be
       -0.77056277 -1.4050479 -0.6249274 -0.1499255
000020 68 df ae bd e5 98 95 bf 8a d3 ce be cf 2d 30 bf
       -0.08538705 -1.1687285 -0.40395766 -0.688199
000030 42 f9 14 41 7d ff 19 c0 dc d7 78 c0 18 87 c3 bd
       9.310854 -2.4062188 -3.888175 -0.095472515
000040 13 40 3d be 58 8e 92 bd db 38 a0 be a2 1f 6f bd
       -0.18481474 -0.07156056 -0.31293377 -0.058379777
000050 22 fe c3 bc 16 ac 2b bf ac 9e 0b bf 9c e4 4b 40
       -0.02392489 -0.6705946 -0.5453899 3.1858282
000060 42 7c 1b bf ba 58 bf be fb 96 8c bd ee 6f 08 40
       -0.6073648 -0.3737238 -0.06864735 2.1318316
000070 74 02 03 be 4d 36 af be 54 88 92 be e9 68 f1 be
       -0.12793905 -0.34221116 -0.28619635 -0.47150353
000080 04 ee 29 bf a6 45 fc be 75 d0 18 bf 48 f6 40 3d
       -0.6637881 -0.49271888 -0.5969308 0.047109872
000090 61 7d e4 be b4 cf e4 be 35 03 44 bf 79 cc da 40
       -0.44626907 -0.44689715 -0.76567394 6.83746
0000a0 89 06 84 40 4a 41 28 bf 32 35 c8 be f3 b0 be be
       4.1257977 -0.65724623 -0.39103085 -0.37244377
0000b0 f7 ab e5 bf 6f ca 7e c0 53 df e5 be 27 60 05 c0
       -1.7943105 -3.9811056 -0.44896945 -2.0839937
0000c0 24 ef ed bf f6 ef c3 be 0a 7d 0f bf 6e 66 3f bf
       -1.8588605 -0.38269013 -0.5605017 -0.7476567
0000d0 5f b1 ff 40 98 a7 b2 be 1a 40 97 bd e3 a5 3c bf
       7.9904017 -0.3489349 -0.07385273 -0.73690623
0000e0 36 5b c4 bf 84 2c 93 bf 88 0d 9f be fd 8e 8f 3e
       -1.5340335 -1.149796 -0.3106501 0.2803878
0000f0 ca 38 22 be f2 e9 d2 be 9d 78 d3 be f9 10 7e c0
       -0.15841976 -0.4119411 -0.41302958 -3.969786
000100 56 46 22 41 d4 87 80 c0 ef 1e 07 bf de 43 b2 bf
       10.142172 -4.0165806 -0.52781576 -1.3926961
000110 a4 bd a0 be e8 46 af bd 75 dc 6c be 77 a4 06 40
       -0.31394684 -0.08558446 -0.23130973 2.1037881
000120 da dd f5 be 5a 7a 1e be fd fa ac bf 49 18 ba 3e
       -0.48020822 -0.15476361 -1.3514096 0.36346653
000130 ca 4e 42 be f4 2e db be 96 86 a9 be 1d 93 0e 3f
       -0.18975368 -0.4280926 -0.33110493 0.5569323
000140 fd b7 3a 41 ff 13 ed be bd cc c9 be 4b eb c4 bc
       11.669919 -0.46304318 -0.39414015 -0.024037978
000150 c2 90 89 40 00 99 bf be 42 9b 6a be b7 f5 ca 40
       4.2989206 -0.37421417 -0.22910789 6.3424945
000160 b7 5e e3 be 4a dc cf 3b 83 b9 c3 be 27 3e 2f 40
       -0.444082 0.006343399 -0.38227472 2.7381685
000170 d0 00 5b bf 1f d0 38 40 51 d8 10 be e8 c5 a9 bf
       -0.85548115 2.8877027 -0.14145018 -1.3263521
000180 3c cf 1d bc 50 f2 c9 bd 6f b2 c4 be 83 f5 be be
       -0.009631928 -0.098606706 -0.38417384 -0.37296686
000190 c6 26 68 bd 34 3d 18 c0 8b f3 c4 40 31 9b f5 bd
       -0.056677602 -2.3787355 6.1547294 -0.11992491
0001a0 3a cf b8 3f 5e 89 a3 be 3f 17 d4 be 0e fd ff bf
       1.443824 -0.3194074 -0.41423985 -1.9999101
0001b0 66 ea 15 bf 48 7f b9 3f 45 60 ff 40 8e 20 58 bf
       -0.5856079 1.4491968 7.9805017 -0.84424675
0001c0 46 15 67 bf a4 93 0e be 8d c4 3e c0 10 c2 ae be
       -0.90266836 -0.13923508 -2.9807465 -0.34132433
0001d0 1a 6c 91 3f 45 d1 f9 3f e6 c8 25 be 12 fe c6 be
       1.1361115 1.9516989 -0.16189918 -0.38865715
0001e0 e7 61 2a be 43 fb f2 be 62 3f ac be 7b 62 2f bf
       -0.1663891 -0.47457322 -0.33642107 -0.68509644
0001f0 41 31 5f 40 67 38 44 bf c3 a4 02 40 af 90 ba be
       3.4873812 -0.76648563 2.0413063 -0.3643851

net.4.weight f4 [4, 128]
000000 07 e8 2c 41 62 88 85 3e e0 91 1b bd 37 60 3d bc
       10.806647 0.26080614 -0.037980914 -0.011558584
000010 63 95 a4 be 44 32 64 3e cb 3a 92 be 25 cb 0e be
       -0.32145223 0.222848 -0.2856048 -0.13944681
000020 2a cf 30 bd 50 de 2b 40 2d b5 0f 3d 25 3b a1 3e
       -0.043166317 2.6854439 0.035084892 0.31490436
000030 3f d9 0a 40 58 64 fc be 91 5d 0f bf fe 5b 0a 3c
       2.1695096 -0.49295306 -0.56002146 0.008444784
000040 d4 58 8f 3d c6 17 e3 bc 5b 62 42 be 0b 6c b7 3a
       0.069993645 -0.027721297 -0.18982832 0.0013993991
000050 59 da 4c 3c a3 0d 03 be d6 98 0f 3e bc bf 70 40
       0.01250323 -0.12798171 0.14023146 3.7617025
000060 32 0f c3 c0 a1 3d 50 bd a8 d8 63 bd 3d ce 8b 40
       -6.095605 -0.050840024 -0.05562654 4.3689256
000070 47 45 ba bd 7d d6 65 3d 36 f3 a9 bd 97 c5 aa 3d
       -0.09095245 0.056112755 -0.08298342 0.083384685
000080 11 09 36 3e 8b ac 81 bd 77 88 bb 3f 49 6e 13 be
       0.17776896 -0.06331738 1.4651021 -0.14397539
000090 c8 85 a7 3c 78 53 a8 3d 87 ac 85 bd 59 61 6a 40
       0.020449534 0.082190454 -0.065270476 3.6621916
0000a0 17 d5 3f 40 aa 7e bc be b7 64 72 ba 22 8c ef bd
       2.997381 -0.36815387 -0.0009246575 -0.1169665
0000b0 84 cf 3d 40 6e 4c 8a 3f fb 69 ae 3d 57 ab 3c bf
       2.9657907 1.0804574 0.08516308 -0.73698944
0000c0 bf e2 99 40 95 ff 2a 3e ed 94 27 bd d9 8a 90 be
       4.808929 0.1669906 -0.04091351 -0.28230932
0000d0 33 de 70 40 22 41 8b 3c c6 fc 9d 3d b2 da 46 3e
       3.763562 0.016998831 0.07714228 0.19419363
0000e0 91 44 96 3f 35 56 72 be d6 63 93 3d ce 02 c7 bf
       1.1739675 -0.23665698 0.071967766 -1.5547731
0000f0 a5 77 1d 3e c1 86 6f 3d b9 37 13 bd 47 39 31 40
       0.15377672 0.05847812 -0.035941813 2.769121
000100 dd 46 60 40 01 f1 d0 bf 2e b1 3b 40 2f 4d 85 bc
       3.5043252 -1.6323549 2.9326892 -0.016272156
000110 9e 6b 95 3e 39 83 8c bd 8c 64 16 be 08 92 7b 40
       0.29183668 -0.06860966 -0.14686793 3.930788
000120 5f d9 1e 3e 9b e2 ac 40 bf 84 46 bf eb 9b 86 40
       0.15512608 5.402662 -0.77546304 4.206533
000130 fa 8e c9 3c 36 ca 1c 3d 7f 54 3c 3d 87 d4 9c 40
       0.02460431 0.03827878 0.04597902 4.9009433
000140 fc 4d 88 40 df 79 cd 3d 18 de 80 be a7 71 f8 bc
       4.2595196 0.10033011 -0.25169444 -0.030327631
000150 47 e2 7d 40 69 d5 97 bc d1 de 94 bc a1 00 a0 40
       3.9669359 -0.01853438 -0.018172653 5.000077
000160 e2 19 81 3c 44 b1 23 bd a5 1c 7e 3e b6 53 dc 40
       0.015759412 -0.039963976 0.24815615 6.8852186
000170 63 d3 4e 3f 97 1b 5e 40 e1 ab 97 3d 82 7f 8d 40
       0.807913 3.470434 0.0740583 4.421815
000180 10 51 9a bd 5f 07 e2 bc af c5 4c bd e4 13 13 be
       -0.07534993 -0.027591405 -0.049993213 -0.14363056
000190 bf 44 89 be a4 0d fe 40 7d 90 4f 40 7d 89 13 be
       -0.26810262 7.939165 3.2431939 -0.14407916
0001a0 ac 95 9a 40 ee df 02 3d 51 8f 45 bd 89 3b 86 40
       4.8307705 0.031951837 -0.04823238 4.1947675
0001b0 df 9c 9d bd cc 1d 6e 40 74 93 3c 40 59 16 48 3d
       -0.076959364 3.7205687 2.9464998 0.048849437
0001c0 1d 25 97 3e fe 01 94 be cf ba 4f c0 2e b1 0c be
       0.29520503 -0.2890777 -3.245777 -0.13739464
0001d0 27 7d a3 40 8d 4d 35 41 b5 d1 27 be 78 af 3e 3d
       5.1090274 11.331433 -0.1638859 0.04655406
0001e0 4c 17 0b 40 40 3f da bd 51 da e9 be 86 ea 2e bf
       2.173297 -0.10656595 -0.45674375 -0.68326604
0001f0 21 d3 67 40 09 a7 a0 be 75 f5 ac 40 d4 47 16 be
       3.6222613 -0.31377438 5.404963 -0.14675838
000200 a0 71 32 41 2e 02 46 3d 81 1b 86 be cc 3d 4a be
       11.1527405 0.048341922 -0.2619286 -0.19750136
000210 9d 7b 89 3e 88 27 e6 3d 95 c4 7c be 23 9e 82 3e
       0.26852122 0.11238009 -0.24684365 0.25511274
000220 1a d6 08 3e 8e f4 6c 40 1a 12 9e 3e 66 77 d9 be
       0.13362923 3.7024264 0.30873185 -0.42473906
000230 6c 54 a7 3f a9 98 1f 40 1b 4c 17 3e de 6c ac 3d
       1.3072639 2.4936926 0.14775126 0.08419202
000240 00 c4 b0 3d 20 de 14 3e 50 3e 7a bd b1 07 53 3d
       0.08631134 0.14537859 -0.061094582 0.051521007
000250 37 c0 94 bd 6b 63 90 3d c2 a8 8b be f4 b5 38 40
       -0.072632246 0.070502125 -0.2727719 2.8861055
000260 09 1b a5 c0 bf c1 d4 bc b9 51 07 3e b3 c4 9b 40
       -5.15955 -0.025971292 0.13214768 4.867761
000270 a5 f1 99 3d 7c c0 a8 3d e6 78 ce 3d 4c 08 01 be
       0.07516793 0.082398385 0.10081653 -0.12600821
000280 c3 5c 8b 3c 35 05 25 be 5b 30 70 3f bf da 8e be
       0.017012006 -0.16115268 0.93823785 -0.27901265
000290 67 e8 d8 bc 7b db 3e 3c 30 cd 7c be da b9 5f 40
       -0.026478006 0.011649008 -0.24687648 3.4957185
0002a0 3d 7b 2e 40 bb dd 73 be 8f c0 c9 3d 14 e5 6d bd
       2.7262719 -0.23815052 0.09851181 -0.058079794
0002b0 69 49 08 40 4f 41 d9 bf 54 11 94 3e a0 4b 84 3e
       2.1294806 -1.6973056 0.2891947 0.25838947
0002c0 7e 4c 87 40 c2 2c 44 3e 7b 60 b8 be 74 e0 6b be
       4.2280874 0.19157699 -0.3601111 -0.23034841
0002d0 c1 d8 69 40 c8 7e 87 bc 2a fe 05 bd ab c3 95 3e
       3.6538546 -0.016539946 -0.032713093 0.29250845
0002e0 cc 06 af bf 03 f4 2a 3e a9 02 c1 bd 2c 28 30 c0
       -1.3673949 0.16694646 -0.094243355 -2.752452
0002f0 fa 0c a7 3d 60 94 e0 3a 3b 4e 50 bb 2d 9f 39 40
       0.08156772 0.0017134063 -0.003178491 2.9003403
000300 76 e8 7c 40 39 80 c8 bf 21 5c 44 bf 87 1a 34 be
       3.9516883 -1.566413 -0.7670308 -0.17588244
000310 5e 33 a6 3b 3b 19 67 bd da c0 1f be 7e 09 7b 40
       0.0050720414 -0.056420546 -0.15600911 3.9224544
000320 a9 d0 d6 3e 88 d1 b9 40 ed 92 33 bf be 4c 9b 40
       0.4195607 5.8068275 -0.70146066 4.853118
000330 54 f5 83 bd b8 94 74 bd ee d9 16 3a ca 83 96 40
       -0.06443277 -0.05971214 0.000575452 4.7035875
000340 40 f4 8c 40 76 5d c8 bd e1 68 b6 3d 65 82 9a 3d
       4.4048157 -0.09783451 0.08906723 0.07544402
000350 18 95 9e 40 78 bb 14 3e 4f 34 a7 3d 6f 50 a8 40
       4.9557 0.14524639 0.08164274 5.2598186
000360 42 eb 37 3e d3 44 0c 3e 06 44 80 3d f8 ad ec 40
       0.17960837 0.1369813 0.062629744 7.3962364
000370 8e 19 17 3f ca d9 1a c0 ac b5 cf bd 17 b3 ae 40
       0.5902337 -2.4195428 -0.10142073 5.4593616
000380 62 a9 22 3d c6 66 14 3e f6 d9 20 3d 94 4b 4d 3c
       0.039712317 0.1449233 0.039270364 0.012530226
000390 23 73 24 3d a4 44 f6 3f 14 30 3e 40 e6 74 22 3d
       0.040148865 1.9239697 2.9716845 0.039662264
0003a0 a3 9e bf 40 8a 35 5e bc 31 75 13 3d eb 16 1c c0
       5.988115 -0.013562569 0.036000434 -2.4388988
0003b0 09 44 07 3e 8f 25 6d 40 3a 2c 61 40 f5 6e 8d bd
       0.13209547 3.7054174 3.5183244 -0.06905929
0003c0 65 cb c1 bd a7 06 dd 3d 88 87 57 c0 f5 ec 67 3d
       -0.094626226 0.107922845 -3.3676472 0.056622464
0003d0 45 33 a3 40 f3 76 32 41 3e 68 cf 3d 16 fb 8f 3e
       5.1000085 11.15404 0.101273045 0.2812125
0003e0 5a 95 a2 3f 58 57 78 3e 15 89 a2 be fa 1d 45 3e
       1.2701828 0.24252069 -0.3174521 0.19249716
0003f0 55 be 51 40 4c a3 a1 be 54 a8 a5 40 ad d9 81 be
       3.277242 -0.31569898 5.176798 -0.25361386

net.4.bias f4 [4]
000000 ec 73 b3 41 40 8d de 41 11 1a f4 41 02 c4 ca 41
       22.431602 27.81897 30.512728 25.345707
