experiments/LunarLander-v2-descrete-hyperpra-tunnig/bz/512/model.pt (torch, 114135 bytes, 6 tensors)

net.0.weight f4 [200, 8]
0	0x3fa8ed2e	1.3197381
1	0x3e036bfd	0.12834163
2	0xbfa9141c	-1.3209262
3	0x3f73507c	0.95044684
4	0xbe335c0a	-0.17515579
5	0xbfb835db	-1.4391435
6	0xbda05940	-0.07829523
7	0xbe7a0780	-0.24416924
8	0x3f868806	1.0510261
9	0xbeb3ea59	-0.3513973
10	0x3f2cf7b7	0.6756548
11	0x3dd214f1	0.102579005
12	0xbfaca412	-1.348757
13	0xbe70cb78	-0.23515117
14	0xbf639786	-0.8890308
15	0x3ec5fb1c	0.38668144
16	0x401b5250	2.426899
17	0x3d186052	0.037201233
18	0xbe324474	-0.17408925
19	0xbfcfcea8	-1.6234941
20	0x3f5823d3	0.84429663
21	0xbf2b20cc	-0.6684692
22	0xbddc0f2a	-0.1074508
23	0xbe5d20bb	-0.21594517
24	0x3e238b54	0.15971118
25	0xbf64f6dc	-0.8943918
26	0xbde83917	-0.11339014
27	0xbed6d12d	-0.41956463
28	0x3e543850	0.20724607
29	0xbb4ad8a0	-0.0030951872
30	0xbe8b6a4d	-0.2722954
31	0xbeeba6e1	-0.46025756
32	0xbe20ff4d	-0.1572239
33	0x3de3c4a8	0.111214936
34	0xbf532a16	-0.82486093
35	0xbf589a7b	-0.8461072
36	0x3f8fc066	1.123059
37	0x3e36dccb	0.17857663
38	0x3f39a949	0.72523934
39	0x3f3da381	0.7407761
40	0x3e7426c0	0.23842907
41	0xbf37ece4	-0.7184584
42	0xbe917bcb	-0.2841476
43	0xbf7c9190	-0.9865961
44	0xbed83368	-0.4222672
45	0x3f51aab5	0.81901103
46	0x3da0b722	0.0784743
47	0xbee80c16	-0.4532172
48	0xbefb69aa	-0.49104053
49	0x3ea8fdb3	0.33006057
50	0x3db1aaa1	0.08675123
51	0x3f9ac27c	1.2090602
52	0x3fca0361	1.5782281
53	0x3ebd29f2	0.36946064
54	0x3f23a06a	0.6391665
55	0x3e0d688d	0.13809414
56	0xbd19eda6	-0.037580155
57	0xbf6ea35c	-0.93218017
58	0x3f9c2afe	1.220062
59	0xbe6b8ed0	-0.23003697
60	0xbf2c7526	-0.67366254
61	0xbf0e1dbe	-0.5551413
62	0xbe5b01c4	-0.21387392
63	0x3fcf87bb	1.6213297
64	0xbf0f3146	-0.5593456
65	0xbf7305a7	-0.949305
66	0xbfc93070	-1.5717907
67	0xbfcd5c4f	-1.6043795
68	0x3e6b786e	0.22995159
69	0xbf841fa2	-1.0322154
70	0x3f92d392	1.1470816
71	0xbfb8118a	-1.4380352
72	0xbed5f7f4	-0.41790736
73	0xbdebefe6	-0.11520366
74	0xbe514c3f	-0.20439242
75	0x3dd97513	0.10618033
76	0xc03748fd	-2.8638299
77	0xbebbbf63	-0.36669454
78	0xbf77af25	-0.96751624
79	0x400d6682	2.2093816
80	0x3eb19489	0.34683636
81	0x3edce050	0.43139887
82	0xbe809afc	-0.25118244
83	0x3f41826a	0.7558962
84	0x3f52e480	0.82379913
85	0xbfb68c97	-1.4261655
86	0xbe802baf	-0.25033328
87	0xbf47502d	-0.77856714
88	0xc084403a	-4.13284
89	0xbf65443d	-0.8955725
90	0x3eaf7f8e	0.34277004
91	0xbf942681	-1.157425
92	0xbf61a039	-0.88135105
93	0x3fa4a6b9	1.286338
94	0xbdf7e324	-0.121038705
95	0x3fa70368	1.3047915
96	0xbe6fdf60	-0.23425055
97	0xbe55e868	-0.20889437
98	0x3e8a172c	0.26970804
99	0xbefc4bfb	-0.49276718
100	0x3f8da4e7	1.1065949
101	0x3f0edbfa	0.5580441
102	0xbce7013a	-0.028198827
103	0xbfdd7d49	-1.7303859
104	0xbe4ce074	-0.20007497
105	0xbf898e66	-1.0746582
106	0x3f4900b6	0.7851671
107	0x3df36018	0.11883563
108	0xbf6ca611	-0.924409
109	0xbf499c26	-0.7875389
110	0xbe733ce5	-0.23753698
111	0xbf43844a	-0.7637373
112	0x3edde4c4	0.43338597
113	0xbe834a78	-0.25642753
114	0x3f80cf61	1.0063287
115	0xbf231eba	-0.6371876
116	0xbba3089b	-0.004975391
117	0x3e967fc6	0.29394358
118	0x3f6968a0	0.9117527
119	0x3f7ea1f8	0.99465895
120	0x3eb4cc74	0.35312235
121	0xbf5caadf	-0.8619823
122	0xc0147ac8	-2.319994
123	0xbd3266a1	-0.043554906
124	0xbed9bff4	-0.4252926
125	0xbde8fd11	-0.113763936
126	0x3f957e18	1.1679106
127	0xbe2c8091	-0.16845919
128	0xbe9b7e83	-0.30369958
129	0x3f963885	1.1735998
130	0xbf80f2fb	-1.0074152
131	0x3a8ba751	0.0010654723
132	0x3f8b29d2	1.0872138
133	0x3ed3f510	0.41397905
134	0x3f43e672	0.76523507
135	0xbeb7e91d	-0.3592004
136	0xbfef9ed9	-1.8720351
137	0xc05011bd	-3.2510827
138	0x3eb048ef	0.34430644
139	0x3e9ead63	0.3099166
140	0x3ea68836	0.32525796
141	0x3deaf095	0.11471669
142	0xbe031937	-0.12802587
143	0x3f8f366a	1.1188481
144	0x3f05c616	0.5225538
145	0x3f11febc	0.5702932
146	0xbedcc7aa	-0.43121082
147	0x3f39d94b	0.7259719
148	0xbf089f1c	-0.5336778
149	0xbfa43914	-1.2829919
150	0x3d0f3cb2	0.034969993
151	0x3ea83de9	0.32859734
152	0xbf45bb51	-0.7723895
153	0xbe8c78c2	-0.2743588
154	0xbf540fae	-0.82836425
155	0xbfe17371	-1.7613355
156	0xbe64f835	-0.22360308
157	0x3ec11a8e	0.37715572
158	0x3fd2d5eb	1.6471533
159	0xbf99a3b0	-1.2003078
160	0x3e13dd60	0.14439917
161	0x3eadb4f3	0.33927116
162	0xbf30920d	-0.68972856
163	0x3f9e403b	1.2363352
164	0x3f0332c8	0.5124936
165	0x3f391e89	0.7231222
166	0x3da88307	0.082281165
167	0x3e45372f	0.19259332
168	0x3eaa0c0f	0.33212325
169	0xbed68f21	-0.41906074
170	0xbf1e5ff0	-0.6186514
171	0x3e370d58	0.17876184
172	0xbc61b460	-0.013775915
173	0x3d8c6f0a	0.068571165
174	0xbf60ba6a	-0.87784445
175	0xbe47efe3	-0.19525103
176	0xbf414e2e	-0.7550992
177	0xc023acf6	-2.5574317
178	0x3f22a340	0.6353035
179	0xbf477543	-0.779133
180	0xbf449661	-0.7679196
181	0x4011df13	2.2792404
182	0x3da3f711	0.080061086
183	0x3e6daf28	0.23211348
184	0xbfad1da9	-1.3524677
185	0x3f1f8a52	0.62320435
186	0x3f9fc477	1.2481831
187	0xbf4d55ae	-0.8020886
188	0xbe387fcc	-0.180175
189	0xbf0c9872	-0.54920113
190	0xbfb7834f	-1.4336947
191	0xbda13a42	-0.0787244
192	0xbf87e33f	-1.0616225
193	0x3f37b5a6	0.7176155
194	0x3e40b74d	0.18819924
195	0xbf39a5cc	-0.7251861
196	0x3f6e6c8e	0.9313439
197	0x3f703860	0.9383602
198	0x3f1c5fbd	0.61083585
199	0xbe702f6b	-0.23455589
200	0xbf80758d	-1.0035874
201	0xbfda55ec	-1.7057471
202	0xbf265088	-0.6496663
203	0xbeb5e1e8	-0.35523915
204	0x3fca9d25	1.5829207
205	0xbf9dfe5e	-1.2343252
206	0x3fef4bbf	1.8694991
207	0xc00f0608	-2.234743
208	0xbe450aeb	-0.19242446
209	0xc05cb919	-3.4487975
210	0x3f955438	1.1666327
211	0x40393825	2.8940518
212	0x3e69fee0	0.22851133
213	0xbfc60398	-1.5469847
214	0xbe8cf971	-0.2753406
215	0x3ee24ae1	0.44197753
216	0x3f90a479	1.1300193
217	0x3cd6781f	0.026180325
218	0xbeb73b42	-0.35787398
219	0x3e4d6775	0.20058997
220	0xbe8983ea	-0.26858455
221	0xbf3cb3d6	-0.7371191
222	0x3e3b2f55	0.18279774
223	0x3f52717d	0.8220442
224	0x3fb3928e	1.40291
225	0x3ee8d386	0.4547388
226	0x3e5236e9	0.20528759
227	0xbeadbcfc	-0.33933246
228	0xbff515db	-1.9147295
229	0xbf1bf17e	-0.6091536
230	0x3d04df0a	0.03243927
231	0x3f9e52d2	1.2369025
232	0x401b4cb0	2.4265556
233	0xbf614034	-0.8798859
234	0xbf984653	-1.1896461
235	0x3f67a24e	0.9048203
236	0xbe17c1e6	-0.1482006
237	0xbcee83b5	-0.029115537
238	0x3f758921	0.9591237
239	0xbe4bcd0c	-0.19902438
240	0x3f2c163a	0.67221415
241	0xbeb2ed3b	-0.34946617
242	0x3ef2af04	0.4739915
243	0x3f94ad93	1.1615471
244	0xbe7065cf	-0.23476337
245	0xbf00e591	-0.5035029
246	0x3f089db8	0.5336566
247	0x3fbd67b5	1.4797274
248	0xbed627c8	-0.41827226
249	0x3e9ce5b0	0.30643988
250	0x3f713dd5	0.94234973
251	0xbfad648c	-1.354631
252	0xbf20c58e	-0.62801445
253	0xbf39fce1	-0.7265149
254	0x3eee565c	0.46550262
255	0xbe957f15	-0.29198518

net.0.bias f4 [200]
0	0xbf35118c	-0.707299
1	0x3ebb103d	0.36535826
2	0x3f014325	0.5049308
3	0x3f41c3d5	0.7568944
4	0xbed3ebb3	-0.41390762
5	0x3f3a65bc	0.72811484
6	0x3f19ea8c	0.60123515
7	0xbf31218e	-0.69191825
8	0xbf597b5d	-0.8495386
9	0x39549bc2	0.0002027592
10	0x3f024544	0.5088694
11	0x3dcd53ae	0.10025726
12	0x3ef4dedc	0.47826278
13	0x3f80e5dc	1.0070148
14	0xbe93d795	-0.28875414
15	0x3cb55ab7	0.022137983
16	0xbf063c3b	-0.52435654
17	0xbf75d839	-0.96033055
18	0x3c75947c	0.014989015
19	0x3ef0b062	0.4700957
20	0x3f8791f2	1.0591414
21	0x3f7318cc	0.9495971
22	0xbe8c3abb	-0.27388558
23	0x3f5211ec	0.82058597
24	0xbfba2033	-1.4541076
25	0xbecfa242	-0.4055348
26	0x3f4c716f	0.79860586
27	0xbe4b36d7	-0.19845138
28	0xbf436293	-0.7632229
29	0xbe59bebd	-0.21264167
30	0xbed9f87d	-0.42572394
31	0x3dd8d9f8	0.10588449
32	0x3f08db39	0.5345951
33	0x3ed1c925	0.40973774
34	0x3f059443	0.52179354
35	0x3eeba164	0.4602157
36	0xbda35090	-0.079743505
37	0x3ebe9f87	0.37231085
38	0xc0070a7d	-2.1100152
39	0x3ee33b97	0.443814
40	0x3e4c1f81	0.19933893
41	0x3f0a27ec	0.53967166
42	0xbecf2d2b	-0.40464148
43	0xbf4e2533	-0.8052551
44	0xbe766fe7	-0.24066125
45	0x3f0042dc	0.5010202
46	0xbdf655d8	-0.12028092
47	0x3edfc3c0	0.43704033
48	0x3f2124ef	0.6294698
49	0x3f2990ca	0.66236556
50	0x3e1a6dc0	0.15080929
51	0x3f300178	0.6875224
52	0x3f6929b0	0.91079235
53	0x3ed352ec	0.41274202
54	0x3f28f7b0	0.6600294
55	0xbeaa5009	-0.33264187
56	0xbdc14184	-0.09436324
57	0xbf4ebd70	-0.8075781
58	0x3ef1adf6	0.47203034
59	0xbf120305	-0.5703586
60	0xbf517ca5	-0.8183082
61	0xbcdddef2	-0.027083848
62	0xbf97a167	-1.1846131
63	0x3f1386a1	0.576273
64	0x3f04c837	0.51868004
65	0x3d3d5c43	0.046230566
66	0x3f74ee74	0.9567635
67	0x3e84f34d	0.25966874
68	0x3f01c547	0.50691646
69	0xbef2afc1	-0.47399715
70	0xbeba75d3	-0.36418018
71	0x3dc2ce24	0.095119745
72	0xbe2ca6ae	-0.16860458
73	0xbe67573a	-0.22591868
74	0x3d3610f2	0.044449754
75	0x3f1a9540	0.6038399
76	0x3d2de0f8	0.042450875
77	0x3e139f4a	0.14416233
78	0x3ccbb3c5	0.024865994
79	0x3ee1b78b	0.44085345
80	0x3f0273f5	0.50958186
81	0x3ef6eb5e	0.48226446
82	0xbf4fbc9e	-0.8114718
83	0xbf3ba94d	-0.7330521
84	0x3eb700d4	0.3574282
85	0x3d8ef0d9	0.06979532
86	0x3f0908a3	0.53528804
87	0x3eab92f3	0.3351055
88	0xbf222685	-0.63340026
89	0xbf482ac6	-0.7819027
90	0xbef3e2c9	-0.4763396
91	0xbf689473	-0.90851516
92	0x3e6bb9b3	0.23020057
93	0x3f8ce195	1.1006342
94	0x3f4ce894	0.80042386
95	0xbf84d5b8	-1.0377722
96	0x3eb6f062	0.35730273
97	0xbe03a39a	-0.12855378
98	0x3f0939e4	0.5360396
99	0xbe049f62	-0.12951425
100	0xbbf51d53	-0.0074803024
101	0xbf50e288	-0.8159566
102	0x3e1104bd	0.14161964
103	0xbe87f942	-0.26557356
104	0x3eb1e7a0	0.34747028
105	0x3f0d6f37	0.55247825
106	0xbf329ad8	-0.6976752
107	0x3e707feb	0.23486297
108	0xbeb6bc03	-0.35690317
109	0x3e4f8853	0.20266847
110	0xbc845567	-0.016154004
111	0x3e4d7085	0.20062454
112	0xbe304dba	-0.1721715
113	0x3e967c9a	0.29391938
114	0x3f0c8669	0.54892594
115	0xbf0c0506	-0.54695165
116	0x3f8130e7	1.0093049
117	0xbeacbcfd	-0.33737937
118	0x3e7bdcc0	0.24595928
119	0x3ecf45ea	0.40483028
120	0x3f960a24	1.1721845
121	0x3f459279	0.77176625
122	0x3e24e591	0.16103198
123	0x3c998ee4	0.018744893
124	0x3fb8ad4d	1.4427887
125	0xbe68c975	-0.227331
126	0x3cc3759a	0.023859788
127	0x3f121295	0.57059604
128	0x3f10232e	0.5630368
129	0x3ee03b2c	0.43795145
130	0xbe9c8a91	-0.30574468
131	0xbe104526	-0.14088878
132	0x3f5d5d40	0.86470413
133	0x3e651791	0.22372271
134	0xbeb562cf	-0.35426947
135	0xbd0e8c85	-0.03480198
136	0x3f7c905b	0.9865777
137	0xbf0effa8	-0.5585885
138	0xbeb8af4a	-0.36071235
139	0x3eeae8e7	0.45880815
140	0x3f288004	0.65820336
141	0x3e8cbffa	0.27490216
142	0xbc812df1	-0.015768977
143	0x3f58bf04	0.84666467
144	0xbdffc637	-0.12488978
145	0x3f06fc4a	0.5272871
146	0x3f03a19e	0.51418483
147	0x3d37f535	0.044911582
148	0x3f98213f	1.1885146
149	0xbe3aeae2	-0.18253663
150	0x3ea14cae	0.31503814
151	0xbf368fe2	-0.713133
152	0xbe9f503f	-0.3111591
153	0x3e7c6c29	0.24650635
154	0x3f9f1b93	1.243029
155	0xbe601024	-0.21881157
156	0x3da55b8f	0.08074104
157	0x3ec5963c	0.38591182
158	0xbf757840	-0.9588661
159	0xbe0520ff	-0.13000868
160	0x3f428e21	0.7599812
161	0x3e8d6155	0.2761332
162	0x3e9679f5	0.2938992
163	0xbf3885a7	-0.7207894
164	0xbf3ce65c	-0.73789
165	0xbe3a3ec2	-0.18188003
166	0x3f1cc9c1	0.6124535
167	0xbf3a4e0a	-0.7277533
168	0x3d845a1b	0.06462499
169	0xbe839a69	-0.25703743
170	0x3f1d5887	0.61463207
171	0xbf2e1a92	-0.68009293
172	0x3eed5696	0.46355122
173	0x3da16f3e	0.07882546
174	0x3f04658a	0.51717436
175	0xbe306e33	-0.17229538
176	0xbe88a99f	-0.2669191
177	0xbf3cc460	-0.73737144
178	0x3ed0966c	0.40739763
179	0x3e3d24e1	0.184711
180	0xbe9cf316	-0.3065421
181	0xbd36fe4b	-0.044676106
182	0x3f0b0f00	0.54319763
183	0xbf71e6f7	-0.9449305
184	0x3f2d83dd	0.6777933
185	0xbc0d037f	-0.008606791
186	0xbfbba6b5	-1.466025
187	0xbdda183b	-0.10649153
188	0xbeffa5a5	-0.49931064
189	0xbece10ef	-0.40247294
190	0xbf92dc1b	-1.1473421
191	0xbcacb69a	-0.021083165
192	0x3f754c81	0.9581986
193	0x3e8bbc65	0.2729217
194	0x3e748f11	0.238827
195	0x3ea937b8	0.33050323
196	0x3eeb84a7	0.45999643
197	0x3d17acc7	0.037030008
198	0xbfa2d7c5	-1.2722098
199	0x3f00664c	0.5015609

net.2.weight f4 [128, 200]
0	0xbc415521	-0.0118000815
1	0xbd983a7c	-0.0743303
2	0xbd51942d	-0.051166702
3	0xbbe5c671	-0.0070121814
4	0xbc880422	-0.016603533
5	0xbd4ce88e	-0.05002647
6	0x3bd3e4c9	0.0064664823
7	0x3cd687da	0.026187826
8	0x3d491bd9	0.049098823
9	0x3cb3cf83	0.021949535
10	0xbcb239ad	-0.021756018
11	0xbd4f588e	-0.05062156
12	0x3d0be22a	0.034151234
13	0x3bbd2746	0.005772504
14	0x3c8c9e8d	0.017165447
15	0xbce43dd5	-0.027861515
16	0xbd779303	-0.060442936
17	0x3be5cf65	0.0070132487
18	0x3c93111d	0.017952496
19	0xbd33e57d	-0.04392003
20	0xbccd7814	-0.025081672
21	0xbb818deb	-0.0039536855
22	0xbda3c36c	-0.07996258
23	0x3d13704a	0.03599576
24	0xbd12d2fd	-0.035845745
25	0x3d478a00	0.04871559
26	0x3c4e5fcb	0.012596081
27	0xbbe1782f	-0.006880782
28	0xbd838dfb	-0.06423565
29	0xbcf70fc2	-0.030158881
30	0x3d97e074	0.07415858
31	0x3c13e34d	0.009026361
32	0xbd2443ea	-0.04010383
33	0xbd5be3e5	-0.053684134
34	0xbda45d69	-0.08025629
35	0xbd633569	-0.055470858
36	0x3c9e6974	0.019337393
37	0xbd928fb0	-0.071563125
38	0xba895943	-0.0010478873
39	0xbd10e5c4	-0.03537537
40	0xbb85ccb8	-0.0040832423
41	0xbd40109f	-0.04689085
42	0x3d096e60	0.033552527
43	0xbd119305	-0.0355406
44	0x3cd38023	0.025817936
45	0xba59b92c	-0.0008305486
46	0x3cd321c4	0.025772937
47	0x3d02ce09	0.03193477
48	0x3c6469e6	0.013941264
49	0xbd0f942c	-0.035053417
50	0x3cb0568d	0.021525646
51	0xbd819ccc	-0.06328735
52	0xbcc8a953	-0.024494803
53	0xbd06edfa	-0.032941796
54	0xbd294c74	-0.041332677
55	0xbb84ba59	-0.0040505347
56	0xbc05e950	-0.008173302
57	0x3c8e14e8	0.017343953
58	0xbd994d43	-0.0748544
59	0xbd61a4dd	-0.055088867
60	0x3c77f22f	0.015133425
61	0x3d566d8c	0.052350566
62	0x3d0bf7ea	0.034171976
63	0x3d2b183d	0.041771162
64	0xbd339bca	-0.043849744
65	0xbd90811b	-0.07055875
66	0x3d79cb42	0.060984857
67	0x3d6c9f8c	0.057769343
68	0xbca13393	-0.019677913
69	0x3ca2314e	0.019798901
70	0x3d1e8058	0.038696617
71	0x3d69378e	0.056937747
72	0xbc57f487	-0.013180858
73	0x3d2d41bc	0.042299017
74	0xbcc7a32d	-0.0243698
75	0xbca8d508	-0.020609394
76	0x3d4f6071	0.050629083
77	0x3bc71c2f	0.006076358
78	0x3d955ed6	0.07293479
79	0xbda2a4c1	-0.079415806
80	0x3c12d3a5	0.008961593
81	0xbd584c4b	-0.052807134
82	0xbb79396a	-0.0038028606
83	0x3d482877	0.048866715
84	0x3cc062ae	0.023484554
85	0x3b18f10b	0.0023337032
86	0xbbf91bd9	-0.0076021967
87	0xbd742a7f	-0.05961084
88	0x3c7d317d	0.015453693
89	0xbd3bb8a5	-0.045830388
90	0x3d261154	0.04054387
91	0xbce29f27	-0.02766378
92	0x3d18ea6a	0.03733293
93	0xbc88784a	-0.01665892
94	0xbd8a3e82	-0.06750204
95	0x3c1f5a96	0.009726187
96	0xbb06b8c0	-0.0020556897
97	0x3cd49d8b	0.025954029
98	0xbbcbc183	-0.0062181368
99	0x3b493d11	0.0030706564
100	0xbd66e473	-0.05637021
101	0xbc97203a	-0.018447984
102	0xbd83a710	-0.06428349
103	0x3d2baacf	0.041910943
104	0xbc87acd2	-0.0165619
105	0xbcc2d30b	-0.023782274
106	0xbc91c07f	-0.017791985
107	0xbcd7d977	-0.026348813
108	0x3cd2bcb0	0.025724739
109	0xbaaa0df0	-0.0012974124
110	0xbcde2ce1	-0.02712101
111	0xbd875469	-0.06607897
112	0xbda7a919	-0.0818655
113	0xbc9cccbb	-0.019140592
114	0xbd8caeb5	-0.0686926
115	0x3d699a26	0.057031773
116	0xbd8ef647	-0.069805674
117	0xbd817469	-0.063210316
118	0x3d29a700	0.04141903
119	0x3d80df75	0.06292621
120	0x3d0b4964	0.034005538
121	0x3cd3fbf2	0.025876973
122	0xbc3d15f5	-0.0115408795
123	0x3c1b5f6d	0.0094832005
124	0x3d1f622f	0.038911995
125	0x3d57867d	0.052618492
126	0x3d6c111e	0.05763351
127	0x3c8a97d5	0.016918102
128	0x3d20b4a9	0.03923479
129	0x3cbbe966	0.022938441
130	0xbd2520f3	-0.040314626
131	0x3ced9262	0.029000465
132	0x3d38127d	0.044939507
133	0x3d2acd69	0.0416998
134	0xbb62ea7a	-0.0034624622
135	0x3d64ecf5	0.055890042
136	0xbcc67f3f	-0.024230598
137	0x3d4739c2	0.048639067
138	0x3d8a4cef	0.06752955
139	0xbcb5cfda	-0.022193838
140	0xbd90bab4	-0.07066861
141	0xbda5da73	-0.080983065
142	0xbd221965	-0.039575
143	0xbc356067	-0.011070347
144	0xbd720950	-0.059090912
145	0xbd95fbf8	-0.0732345
146	0xbcfa95d1	-0.030589016
147	0xbd8e4b3a	-0.06947942
148	0xbc761d5f	-0.015021651
149	0x3ccfa23f	0.02534592
150	0xbd998ec6	-0.07497935
151	0xbd4b7ca6	-0.04967942
152	0x3cefaf0f	0.02925828
153	0x3cc8cde9	0.024512248
154	0xbc564380	-0.013077617
155	0xbcedc311	-0.029023679
156	0x3c852367	0.016252233
157	0xbd85c70e	-0.06532107
158	0xbd8d802c	-0.069092125
159	0x3c7fbd0a	0.015609035
160	0xbd13ead3	-0.036112618
161	0xbcb66c2a	-0.022268374
162	0x3c74ddca	0.014945457
163	0xbd43ea8a	-0.047831096
164	0xbd3e83a6	-0.04651227
165	0x3cb6b77e	0.022304293
166	0xbd159f80	-0.036529064
167	0xbc804f48	-0.015662804
168	0xbbd2a1c0	-0.0064279735
169	0xbd26d48b	-0.04073004
170	0x3d5d738b	0.05406527
171	0xbd06f15f	-0.032945033
172	0x3beeac89	0.0072837514
173	0xbd616898	-0.05503139
174	0xbd9a5d54	-0.07537332
175	0xbcc9f9b0	-0.024655193
176	0x3c15e5cc	0.009149026
177	0xbd77caae	-0.060496025
178	0xbc5525b6	-0.013009479
179	0x3d01f58d	0.031728316
180	0xbda6abef	-0.081382625
181	0xbcd4bac1	-0.025967957
182	0x3d8095fe	0.06278609
183	0x3cac39b1	0.021023603
184	0xbbd0db47	-0.006373796
185	0xbd7a7a4b	-0.061151784
186	0xbd4b3260	-0.04960859
187	0x3c9af378	0.018914923
188	0xbd329c99	-0.043606374
189	0x3d55c17a	0.052186467
190	0x3bd4f61a	0.006499064
191	0x3d05950a	0.032612838
192	0x3d5b0caa	0.053478874
193	0xbd5a9cef	-0.05337232
194	0x3d23ef02	0.040022857
195	0x3ced2e82	0.02895284
196	0xbd6c5bbe	-0.05770468
197	0x3a2481d6	0.00062754506
198	0x3d20b44e	0.039234452
199	0xbd640a62	-0.055673964
200	0x3d1176d2	0.035513707
201	0x3c9c6fd5	0.019096294
202	0xbd9e4333	-0.07727661
203	0xbd2b3765	-0.041800875
204	0x3d62576b	0.05525915
205	0xbd56a0e1	-0.05239952
206	0x3cc97a0a	0.024594326
207	0xbae561f9	-0.0017500512
208	0x3cdff88b	0.027340194
209	0x3c85b14c	0.016319893
210	0x3d1a51a2	0.037675507
211	0x3bdfce5d	0.0068300203
212	0xbd6863fc	-0.056735978
213	0x3c9fa424	0.019487448
214	0xbd8d0e83	-0.068875335
215	0xbd1468fb	-0.03623293
216	0xbd0b5f17	-0.03402623
217	0xbd4b5266	-0.04963913
218	0x3ca202d9	0.019776748
219	0xbd2bf467	-0.041981127
220	0x3d375ec9	0.04476813
221	0x3d2467e6	0.040138148
222	0x3ce90993	0.028446948
223	0x3ce059f1	0.027386637
224	0xbb1f2a2e	-0.0024286616
225	0x3d3b886b	0.045784395
226	0xbc9be94a	-0.01903214
227	0x3ca64839	0.02029811
228	0x3ce27252	0.027642403
229	0x3ca4e94e	0.02013078
230	0xbd3164c3	-0.043308984
231	0xbdba0ad0	-0.090840936
232	0xbd4c90dd	-0.04994284
233	0xbd4f244b	-0.05057172
234	0x3cd27e8e	0.025695112
235	0xbd899bed	-0.067191936
236	0xbc997794	-0.018733777
237	0x3b7f03d3	0.0038912192
238	0x3ce82171	0.028336259
239	0x3d2045b0	0.03912896
240	0xbc012d65	-0.007884358
241	0xbc125858	-0.008932196
242	0xbdb7f8a0	-0.08982968
243	0xbd34a20e	-0.04409986
244	0xbaeca495	-0.001805442
245	0x3d11767f	0.035513397
246	0x3d353449	0.044239316
247	0x3d2639a2	0.040582307
248	0xbc62ec42	-0.013850274
249	0x3d3d47d0	0.046211064
250	0x3c236efe	0.009975193
251	0xbd974e16	-0.073879406
252	0xbc363c6b	-0.011122803
253	0xbcde21af	-0.027115671
254	0xbcde1498	-0.02710943
255	0xbd9094b3	-0.07059612

net.2.bias f4 [128]
0	0xbc66ee13	-0.014094847
1	0xbc3a29b9	-0.0113624865
2	0x3b268c47	0.0025413202
3	0x3cb454bb	0.022013059
4	0xbd5f2354	-0.05447705
5	0xbde1a740	-0.110182285
6	0x3ed2ed17	0.4119651
7	0x3e6ae68d	0.2293951
8	0x3f36cf5e	0.7141017
9	0xbe056754	-0.13027698
10	0x3e02aaa6	0.1276041
11	0xbe890e3c	-0.26768672
12	0x3bb14eaa	0.005410989
13	0x3d184005	0.03717043
14	0x3cf9d2e2	0.030496065
15	0xbd52d4b4	-0.05147238
16	0x3ee3fdd3	0.4452959
17	0xbd9c30ae	-0.076264724
18	0x3d02dd9e	0.031949632
19	0x3e9a42b1	0.30129007
20	0xbd6b66ff	-0.05747127
21	0xbdc7c30e	-0.097540006
22	0x3e139dba	0.14415637
23	0x3e3d3c30	0.18479991
24	0xbda8b2f8	-0.082372606
25	0xbd918671	-0.07105721
26	0xbd23ba57	-0.03997263
27	0x3e75f61a	0.24019662
28	0xbc02733e	-0.007962046
29	0x3d100cff	0.035168644
30	0x3cc71cc7	0.024305714
31	0x3db53ab0	0.088490844
32	0x3ebae150	0.36500025
33	0x3ea85100	0.32874298
34	0x3eb64955	0.35602823
35	0x3c964fd0	0.018348604
36	0xbb300732	-0.0026859757
37	0x3e963318	0.29335856
38	0x3d571e7a	0.0525193
39	0xbe2b34fc	-0.1671943
40	0xbe530255	-0.20606358
41	0x3cfd9fe8	0.030960038
42	0xbd542a63	-0.051798236
43	0x3e517a5a	0.2045683
44	0x3e5ac148	0.21362793
45	0x3ecb7985	0.3974115
46	0xbd71678e	-0.058936648
47	0xbda55051	-0.0807196
48	0x3e12e759	0.14346065
49	0xbdb493df	-0.08817267
50	0xbd5113d8	-0.051044315
51	0x3efe3009	0.49646023
52	0xbc1303a4	-0.008973036
53	0x3e51f5fa	0.20503989
54	0x3f006e24	0.5016806
55	0x3f1e2fc5	0.6179164
56	0x3e98d18e	0.29847378
57	0x3eb23411	0.3480535
58	0xbdad2509	-0.084543295
59	0xbd98fc8e	-0.07470046
60	0x3e59ac20	0.21257067
61	0x3d04225f	0.03225934
62	0x3f0dcb12	0.55387986
63	0xbeaa696a	-0.3328355
64	0xbdac11ad	-0.08401809
65	0xbce5d2a8	-0.02805455
66	0x3ea22f9e	0.31676954
67	0x3ed8ce6b	0.42344984
68	0x3e0885a6	0.13332233
69	0x3f058b37	0.5216555
70	0xbda45ad5	-0.08025137
71	0xbd8b4240	-0.067997456
72	0xbc950328	-0.018189982
73	0xbe9312fe	-0.28725427
74	0x3eb2f94a	0.34955817
75	0xbd731a58	-0.059351295
76	0x3ef1ad71	0.47202638
77	0xbd86fc42	-0.06591083
78	0x3ea7a970	0.32746458
79	0x3de83627	0.11338454
80	0x3c679189	0.014133819
81	0x3c181676	0.009282699
82	0xbd0716e3	-0.03298081
83	0x3c2f14a4	0.010686073
84	0xba2361c2	-0.00062325236
85	0xbd7e4ac4	-0.06208302
86	0xbec8c1f4	-0.39210474
87	0x3f030882	0.51184857
88	0x3ecab6fc	0.3959273
89	0x3eba6c4f	0.36410758
90	0xbd261d80	-0.040555477
91	0x3bacd292	0.0052741254
92	0x3eca612f	0.3952727
93	0xbc4ae0b8	-0.012382679
94	0x3ec575a5	0.38566318
95	0xbd2b4ed8	-0.041823238
96	0xbd684ffb	-0.0567169
97	0xbe9ce0b9	-0.306402
98	0xbd83ee61	-0.064419515
99	0xbc02f561	-0.007993073
100	0xbd6a432d	-0.05719297
101	0x3c160c55	0.009158214
102	0x3d1b8404	0.037967697
103	0xbebf0a5a	-0.37312585
104	0x3cb3fcf3	0.021971202
105	0xbcca58cd	-0.024700547
106	0x3d696ddc	0.056989536
107	0x3da73533	0.08164444
108	0x3c08e814	0.008356113
109	0x3cba8e76	0.022773009
110	0x3ea398a9	0.31952408
111	0xbee39f67	-0.44457552
112	0xbd8f9a99	-0.07011909
113	0xbd14ebb8	-0.03635761
114	0xbd9f19ae	-0.0776857
115	0x3f5d62e8	0.86479044
116	0xbced0978	-0.02893518
117	0x3eb95c5c	0.36203277
118	0x3e552464	0.20814663
119	0xbd64fc83	-0.055904876
120	0xbe5f7e11	-0.21825434
121	0x3c6337c3	0.013868275
122	0x3ecc1fc6	0.3986799
123	0xbd226719	-0.039649103
124	0xbf4193de	-0.7561625
125	0x3e9613e3	0.29312047
126	0xbd250e82	-0.04029704
127	0x3e2d543a	0.16926661

net.4.weight f4 [4, 128]
0	0x3d3ec9d2	0.04657919
1	0x3cbfe7e7	0.02342601
2	0x3cf0b99a	0.029385377
3	0xc00174e4	-2.0227594
4	0xbd227c0a	-0.039669074
5	0xbd0b17e0	-0.033958316
6	0x3f42817a	0.75978816
7	0xc04d49f1	-3.207638
8	0xbfef420f	-1.8692034
9	0xbf383aad	-0.7196453
10	0xbfa5b268	-1.294507
11	0xbe6e7f10	-0.23290658
12	0x3d65cc6f	0.056103166
13	0x3c4220d4	0.011848647
14	0xbd129b6b	-0.03579275
15	0xbd2aa426	-0.04166045
16	0xbf1a3b8e	-0.60247123
17	0x3b496cb6	0.0030734963
18	0xbd88e75c	-0.06684753
19	0xbfea22de	-1.8291891
20	0xbdbffae7	-0.09374028
21	0x3f922cb4	1.1419892
22	0x3f8f2a4e	1.1184785
23	0xbf87fe4c	-1.062448
24	0xc08a04ae	-4.3130713
25	0x40562c73	3.346463
26	0x3db38055	0.08764712
27	0xbfa512f1	-1.2896405
28	0xbd9baa50	-0.07600844
29	0x3d2274c2	0.03966213
30	0xbf9f6a36	-1.2454288
31	0xbfd10412	-1.6329367
32	0xbfb689da	-1.4260819
33	0xbf632bbc	-0.8873861
34	0xbfae306a	-1.3608525
35	0x3d381562	0.044942267
36	0x3ce0d5ec	0.027445756
37	0xbf6828f3	-0.90687484
38	0xc06133f8	-3.518797
39	0xbfa6adb6	-1.3021762
40	0xc00509bb	-2.078719
41	0xbbc9a5b1	-0.006153785
42	0xbd397c7a	-0.045284726
43	0xbeb91bba	-0.36153966
44	0xbec3b37b	-0.3822287
45	0xbfd8c933	-1.6936401
46	0xbcded93b	-0.027203193
47	0x3bac5053	0.005258599
48	0xbec09b1b	-0.37618336
49	0x3b85d3b7	0.0040840763
50	0xbd5436ec	-0.05181019
51	0xbe6d7ea3	-0.2319284
52	0x3d10b38c	0.03532748
53	0xbfc282cc	-1.5196166
54	0x4004178d	2.0639374
55	0xbf10f86f	-0.5662908
56	0xbfebf735	-1.8434817
57	0x3f7004e3	0.93757457
58	0x3fbfbc52	1.4979346
59	0x3d5132f8	0.051074
60	0xbfe3a4cc	-1.7784667
61	0xc036a17d	-2.8536065
62	0xc08cdf81	-4.402283
63	0x3fd481d4	1.660212
64	0x3db4a041	0.088196285
65	0x3d132b7f	0.035930153
66	0xbf39b819	-0.72546536
67	0xc0c665ab	-6.1999106
68	0xbdd42518	-0.103586376
69	0xbe83f769	-0.25774696
70	0xbd89c553	-0.0672709
71	0x3d4842ef	0.048891958
72	0xbc04c797	-0.008104227
73	0x3fcdf1f2	1.6089461
74	0xbfc11b8c	-1.5086532
75	0x3da15685	0.078778304
76	0x3f3da34e	0.7407731
77	0xc02b5507	-2.6770647
78	0xbf99d7cb	-1.201898
79	0xbfa05658	-1.252635
80	0xbd5ca59a	-0.053868867
81	0x3ce7f3d4	0.028314508
82	0xbff3babd	-1.9041363
83	0xbd14cbb2	-0.03632707
84	0x3c8cc154	0.01718203
85	0xbdada63f	-0.084789746
86	0x3fd6b54f	1.6774081
87	0xbfcf403c	-1.6191478
88	0xbd5fd0ef	-0.054642614
89	0xbf5ca0ae	-0.8618268
90	0x3d601a7a	0.05471275
91	0xbc2dc7b8	-0.010606699
92	0xbfd4e03d	-1.6630932
93	0xbc940dab	-0.018072924
94	0xbf32b327	-0.69804615
95	0x3d19f8d8	0.03759083
96	0x3d084f4f	0.03327876
97	0xc01a5d68	-2.411951
98	0xbd4b605f	-0.049652454
99	0x3bd4cb67	0.006493974
100	0x3cb3be50	0.021941334
101	0xbd399f76	-0.04531809
102	0x3d81b4cf	0.063333146
103	0x3ea23d03	0.31687173
104	0x3d45b5d2	0.0482691
105	0xbb507c99	-0.0031812547
106	0xbfd6fa32	-1.6795104
107	0xbeee0fec	-0.46496522
108	0xbd91432b	-0.070928894
109	0x3d1631f3	0.03666873
110	0xbfeb81ef	-1.8399028
111	0x3f17c88f	0.59290403
112	0xbd50a05c	-0.05093418
113	0xbdc3e68c	-0.09565458
114	0x3d985ddc	0.07439777
115	0x3f8c9817	1.0983914
116	0xbcf00e10	-0.02930358
117	0x3e08a8ff	0.13345717
118	0xbede594e	-0.4342751
119	0xc012edc0	-2.295761
120	0xc01d6b47	-2.4596727
121	0xbd8805c0	-0.06641722
122	0xbf003e00	-0.50094604
123	0x3cb35dd7	0.021895332
124	0xc0871c7f	-4.2222285
125	0xbf61c645	-0.8819316
126	0x3d908748	0.07057053
127	0xbf4095ed	-0.7522877
128	0x3bd49a11	0.0064880927
129	0xbc6bacb1	-0.014384435
130	0xbdc5703a	-0.09640546
131	0xbfc1a117	-1.5127286
132	0xbd646f92	-0.055770464
133	0xbcc00d90	-0.023443967
134	0x3f23e27d	0.6401747
135	0xc0824bdf	-4.0717616
136	0xbfd9e488	-1.7022867
137	0xbfbb1d1a	-1.4618256
138	0xbf8446c4	-1.0334096
139	0xbebcf52b	-0.36905798
140	0x3c8491f6	0.01618288
141	0x3d18d1ee	0.03730958
142	0x3cbed117	0.023293061
143	0xbd8703c8	-0.06592518
144	0xbe91b990	-0.28461885
145	0x3cf823b1	0.030290456
146	0x3d832c7e	0.064049706
147	0xbff2b084	-1.8960118
148	0xbd892d49	-0.066980906
149	0x3f862a77	1.0481709
150	0x3f7047d1	0.93859583
151	0xbf8c24c9	-1.0948726
152	0xc104e9d3	-8.307086
153	0x4035b517	2.8391778
154	0xbd1615e2	-0.036641963
155	0xbfa91101	-1.3208314
156	0x3d4ee982	0.05051566
157	0x3d9ac378	0.07556814
158	0xbfab851f	-1.34
159	0xbfa19fdc	-1.262691
160	0xbf9fbe10	-1.2479877
161	0xbf5eb848	-0.8699994
162	0xbfd4bb5d	-1.6619679
163	0xbdb47af5	-0.08812515
164	0xbd83a44b	-0.06427821
165	0xbfca0028	-1.5781298
166	0xbfc6dca3	-1.5536083
167	0xbff01e57	-1.8759259
168	0xbe8f4418	-0.2798164
169	0x3d61e021	0.055145387
170	0xbdb7ce7a	-0.08974929
171	0xbf1d5087	-0.61451
172	0xbf3942cc	-0.7236755
173	0xbfd02a52	-1.6262915
174	0xbd135556	-0.035970055
175	0xbc31db77	-0.010855547
176	0x3f2ca612	0.67440903
177	0xbe0cee31	-0.13762738
178	0x3d89263a	0.06696744
179	0xbe0b7e2d	-0.13622351
180	0xbb14ec0f	-0.002272371
181	0xbfa43e84	-1.2831578
182	0x3ff6da8e	1.9285448
183	0xbf97dad6	-1.1863658
184	0xbfc869f2	-1.5657332
185	0x3f803895	1.0017267
186	0xbf376f56	-0.7165426
187	0x3d81e995	0.0634338
188	0xbfbf8393	-1.4962028
189	0xc022a4a4	-2.5412989
190	0xc0ba2d97	-5.818065
191	0x4001372e	2.018993
192	0x3d60d9eb	0.054895323
193	0xbd04a7b8	-0.03238651
194	0xbe981f85	-0.29711547
195	0xc089b615	-4.303477
196	0x3f9f9503	1.246735
197	0x3e86d20e	0.26332134
198	0xbd05a146	-0.032624505
199	0xbacde461	-0.0015708321
200	0xbdb58f67	-0.088652425
201	0x3ffa9c84	1.9579015
202	0xbfb5aab7	-1.4192723
203	0x3d905106	0.07046704
204	0x3f96eb92	1.179064
205	0xc04140f3	-3.0195892
206	0xbf552cd5	-0.83271533
207	0xbfb8c097	-1.4433774
208	0x3cb30c83	0.021856552
209	0x3d8122b4	0.06305447
210	0xbfdcfa00	-1.7263794
211	0x3d41c029	0.0473024
212	0xbdadc243	-0.08484318
213	0xbdaa7dc6	-0.08324771
214	0x3fd1db53	1.6395057
215	0xbfa40631	-1.281439
216	0x3f2793ac	0.65459704
217	0xbf6c05fd	-0.9219664
218	0x3d3d5005	0.04621889
219	0xbd9ac0aa	-0.07556279
220	0xc0047ed6	-2.0702415
221	0xbca9cf10	-0.020728618
222	0xbf443ee7	-0.7665848
223	0xbd27de82	-0.040983684
224	0x3d8f96f0	0.07011211
225	0xc071d0f7	-3.7783792
226	0x3d5c0fbc	0.053725943
227	0x3d2722ca	0.04080466
228	0x3d3aaf78	0.045577496
229	0x3d98fcb6	0.07470076
230	0xbccef6fe	-0.02526426
231	0x3fc9a430	1.5753231
232	0x3cd0606c	0.025436603
233	0x3b046867	0.002020383
234	0xbfdf31c1	-1.7437059
235	0xbf29b19e	-0.6628665
236	0x3bddab5f	0.006764814
237	0x3d8758ab	0.06608709
238	0xbff62b47	-1.9231957
239	0x3fce072f	1.6095942
240	0x3d58178c	0.05275683
241	0x3d69ac9a	0.05704937
242	0x3d6b1148	0.057389528
243	0x3f8e2095	1.1103693
244	0x3a8ac421	0.0010587015
245	0xbed3fbdf	-0.414031
246	0x3f3123f2	0.69195473
247	0xc0d29ee4	-6.581896
248	0xc0258b2d	-2.5866196
249	0x3d1b78b0	0.037956893
250	0xbf248d4d	-0.6427811
251	0x3ca8f9d4	0.02062694
252	0xc0820904	-4.0636005
253	0xbf9f2d8f	-1.2435778
254	0x3d90c1c8	0.07068211
255	0xbf93e3b0	-1.155386

net.4.bias f4 [4]
0	0x3f4ba47c	0.7954786
1	0x3f30a5c4	0.6900294
2	0x3eaee393	0.34158
3	0x3e0af40e	0.13569662
