experiments/LunarLander-v2-descrete-hyperpra-tunnig/lr/1e-05/model.pt (torch, 114135 bytes, 6 tensors)

net.0.weight f4 [200, 8]
0.2076905 -0.0020062376 -0.20449094 -0.25425014 0.24753805 0.012178003 -0.055598527 0.3931127
-0.15052949 -0.025335085 -0.10386866 -0.15907918 0.57962835 0.15659375 0.3357982 0.3084644
-0.08750106 -0.15014991 0.27713296 0.6887252 1.0528002 -0.07212809 0.08329845 0.02020541
0.05574892 -0.08283171 -0.6431878 -0.4086449 -0.74104017 -0.06821504 0.15852419 -0.20583211
0.37338635 -0.1571406 0.18124883 -0.21468006 -0.09656108 0.3603276 -0.33051223 -0.03468599
0.2190051 0.16866772 -0.22981076 -0.015193012 -0.024430132 -0.36429313 0.15904285 -0.23400089
0.11345948 0.07812588 -0.040392093 -0.0924888 -0.03770256 -0.44711354 0.11824055 0.10618656
0.27068728 -0.10870576 -0.03107189 0.17367102 -0.08269563 -0.646597 -0.23463915 0.11706128
0.10337424 0.23293342 0.38286054 -0.68463475 0.7127389 0.18517764 0.33362997 0.05671025
0.09740178 0.20176986 -0.40814915 -0.84686905 0.16433387 0.05208366 0.2410891 0.2711048
-0.14105073 0.08307121 -0.057916127 -0.9350352 0.48194933 0.10805473 0.07260467 0.0322985
0.29331803 0.46744376 -0.43247128 -0.6137809 0.16901399 -0.21971448 -0.2081518 0.0103029
-0.058154054 0.01233053 0.08791718 0.45545432 0.47024935 0.15118521 0.16756424 -0.061639477
-0.10355016 -0.17966025 -0.34182006 -0.32056156 0.52131665 0.24527317 -0.049836885 -0.23528636
-0.08645677 0.19549356 -0.4790779 -0.79774845 -0.5751229 0.34641656 -0.21098171 0.14093375
-0.025666988 -0.053701535 -0.2400816 -0.15793103 -0.10106621 -0.3556939 0.402976 -0.1816663
-0.2283788 0.47474688 -0.01504255 -0.4840601 -0.5278797 0.17879967 0.35813022 0.27381137
-0.14193563 0.1039616 -0.51037323 -0.3528953 -0.0047643334 -0.46017393 0.14636655 -0.17137404
0.017811589 -0.09597405 0.06923577 -0.4517355 -0.08142597 -0.35686097 0.09240919 0.21712272
0.16249312 0.35628685 0.50768685 -0.6213798 0.022184784 0.1943797 0.31901702 0.11288783
0.017439803 -0.010203773 -0.10986518 -0.2877703 -0.35452494 -0.3098641 0.25175372 0.2558521
0.0464226 -0.3225895 -0.08164707 -0.05822983 0.23205374 0.48329183 -0.26303658 -0.29250458
-0.06683766 0.4393479 0.29290712 -0.9297635 0.05476097 0.114436425 -0.010907524 0.061505016
0.06677602 0.397312 -0.029106122 -0.45347804 -0.3601417 0.29233745 0.3407071 0.16762893
0.007904845 -0.11114307 -0.013494383 -0.25385493 0.33344862 0.633103 0.38185728 -0.27174532
0.15436721 0.39828402 0.26055762 -0.9148667 0.2949124 -0.15900928 0.18680836 0.27800256
0.3068818 0.54484713 0.26387033 -0.9099601 0.021007022 -0.049411815 -0.15493612 -0.09261252
0.009180324 0.028618738 0.10739211 0.04557904 0.27857962 0.68570703 -0.27876693 0.33815035
0.15110767 0.005218867 0.3756315 -0.40960056 -0.37946162 0.23039207 0.10938593 0.19559953
0.04662037 -0.15784782 0.46483508 -0.29429495 -0.30131668 0.15021917 -0.052605983 0.009323757
-0.4200788 0.45514432 -0.5651272 -0.033613607 -0.6651065 0.4109521 -0.0764211 -0.22413175
0.055174712 -0.03758627 -0.17664523 -0.16690002 -0.02452895 0.5871477 -0.121837474 -0.23097798
00000000: d2ac 543e 157b 03bb 1366 51be 132d 82be
00000010: 9d7a 7d3e 3f86 473c 48bb 63bd 1146 c93e
00000020: 6724 1abe 868b cfbc 18b9 d4bd a7e5 22be
00000030: 8662 143f 1d5a 203e beed ab3e 0cef 9d3e
00000040: c133 b3bd e6c0 19be 5fe4 8d3e 4b50 303f
00000050: 28c2 863f e4b7 93bd 6198 aa3d d185 a53c
00000060: fb58 643d aca3 a9bd f5a7 24bf e839 d1be
00000070: cfb4 3dbf 54b4 8bbd 2a54 223e a7c5 52be
00000080: 7f2c bf3e 77e9 20be 4b99 393e 17d5 5bbe
00000090: d1c1 c5bd dc7c b83e e638 a9be e612 0ebd
000000a0: df42 603e 3bb7 2c3e 8353 6bbe 1cec 78bc
000000b0: b321 c8bc a184 babe 21dc 223e ee9d 6fbe
000000c0: 725d e83d 7600 a03d 2e72 25bd c56a bdbd
000000d0: 006e 1abd 11ec e4be 1a28 f23d 5778 d93d
000000e0: 8697 8a3e 20a1 debd 7a8a febc d1d6 313e
000000f0: 545c a9bd 6287 25bf 3f45 70be d3bd ef3d
00000100: e0b5 d33d 1986 6e3e 4c06 c43e 3944 2fbf
00000110: 0e76 363f 359f 3d3e 8cd1 aa3e 0249 683d
00000120: 967a c73d c29c 4e3e edf8 d0be 69cc 58bf
00000130: 2347 283e ad55 553d 10e0 763e 40ce 8a3e
00000140: 9a6f 10be 3d21 aa3d 7639 6dbd 785e 6fbf
00000150: 10c2 f63e cc4b dd3d c2b1 943d 6f4b 043d
00000160: c82d 963e ca54 ef3e e06c ddbe bf20 1dbf
00000170: 0112 2d3e d5fc 60be bf25 55be 7fcd 283c
00000180: f232 6ebd fe05 4a3c ec0d b43d 4f31 e93e
00000190: 86c4 f03e 4cd0 1a3e f695 2b3e ad79 7cbd
000001a0: 1b12 d4bd dbf8 37be 0a03 afbe a520 a4be
000001b0: 0275 053f e428 7b3e c321 4cbd e8ee 70be
000001c0: 3f10 b1bd 772f 483e b349 f5be 3e39 4cbf
000001d0: 413b 13bf 835d b13e 970b 58be f050 103e
000001e0: 9343 d2bc 24f6 5bbd f3d7 75be acb8 21be
000001f0: cdfb cebd 831d b6be df52 ce3e bb06 3abe
00000200: 22dc 69be 0612 f33e 0775 76bc bad6 f7be
00000210: 2023 07bf 4317 373e d85c b73e 0131 8c3e
00000220: 9357 11be d2e9 d43d d2a7 02bf b1ae b4be
00000230: 201e 9cbb eb9b ebbe 1de1 153e ad7c 2fbe
00000240: 9ce9 913c 0b8e c4bd 7ccb 8d3d e049 e7be
00000250: a9c2 a6bd 7bb6 b6be 0841 bd3d 6b55 5e3e
00000260: 9964 263e 3b6b b63e c4f7 013f bf12 1fbf
00000270: ddbc b53c 790b 473e 3356 a33e bc31 e73d
00000280: ebdd 8e3c ba2d 27bc ff00 e1bd a156 93be
00000290: 4b84 b5be 82a6 9ebe dde5 803e 0cff 823e
000002a0: a025 3e3d 732a a5be 9436 a7bd 6782 6ebd
000002b0: 7f9f 6d3e 0772 f73e bbac 86be 29c3 95be
000002c0: 2fe2 88bd 35f2 e03e ecf7 953e fb04 6ebf
000002d0: 0a4d 603d a55d ea3d 79b5 32bc afec 7b3d
000002e0: dec1 883d 7a6c cb3e f66f eebc 462e e8be
000002f0: 7e64 b8be 41ad 953e 2971 ae3e eba6 2b3e
00000300: 5383 013c fa9e e3bd 8b17 5dbc 46f9 81be
00000310: c7b9 aa3e 0a13 223f cc82 c33e 3422 8bbe
00000320: 7012 1e3e e2eb cb3e cf67 853e b434 6abf
00000330: c2fe 963e 54d3 22be b14a 3f3e 5a56 8e3e
00000340: 9c1f 9d3e 1a7b 0b3f 031a 873e 25f3 68bf
00000350: eb16 ac3c 0b64 4abd 93a7 1ebe a2ab bdbd
00000360: 1269 163c d871 ea3c 65f0 db3d 16b1 3a3d
00000370: fda1 8e3e 7f8a 2f3f 8aba 8ebe 0b22 ad3e
00000380: f8bb 1a3e 0803 ab3b c652 c03e 2ab7 d1be
00000390: cb48 c2be e6eb 6b3e bb05 e03d 3e4b 483e
000003a0: 00f5 3e3d dca2 21be ddfe ed3e d4ad 96be
000003b0: 2e46 9abe 0ed3 193e 5f79 57bd acc2 183c
000003c0: 9214 d7be ad08 e93e 2dac 10bf 6cae 09bd
000003d0: 6b44 2abf 5068 d23e aa82 9cbd cb82 65be
000003e0: e1fe 613d 10f4 19bd 7de2 34be d7e7 2abe
000003f0: f0f0 c8bc 504f 163f ed85 f9bd 7e85 6cbe

net.0.bias f4 [200]
-0.17324825 0.21994032 0.19981065 0.11277363 -0.2695906 -0.3883086 -0.21723926 0.23937134
0.37073871 0.14837119 0.010735945 -0.084510006 0.2209881 0.12304933 0.219961 -0.25464255
0.36585692 0.11001812 -0.20912255 0.3310955 -0.355761 0.10817287 -0.065612845 0.10250653
-0.24177274 -0.059316184 -0.008567444 -0.0920522 0.09081108 0.030799197 0.06660379 -0.041309107
-0.0557927 0.028622203 -0.05129568 0.2072083 0.19758937 0.18804476 0.48069134 0.22775917
0.27797508 0.32142743 0.32039934 0.24750613 0.43297365 0.18170786 -0.2957935 0.06900761
0.2965884 -0.10574815 0.13568217 0.3394952 0.2531151 0.06790913 0.21535508 0.03323273
0.051266436 0.042934302 -0.3464542 0.024757259 0.092193745 0.09959335 -0.13475087 0.35289228
-0.12177184 0.037315726 0.17431061 0.030228829 0.29582554 -0.31894815 0.035680853 0.17586392
0.06033747 -0.24720721 -0.23024777 0.13030776 0.61325705 -0.028731523 -0.27082875 0.38237184
-0.21767865 -0.029273264 -0.00017352498 0.08313019 0.07041129 0.38052663 0.47165012 0.44514185
0.11297962 0.26802742 -0.23496169 -0.0840064 -0.067070775 -0.36794877 0.06608785 0.32463646
0.3428746 -0.1712126 0.077230565 0.38287497 0.49191305 0.09550384 0.23721617 0.1509656
0.00035493137 -0.22975609 -0.3642257 0.24664654 0.27051556 0.15324837 0.0064640353 -0.39465788
0.16795784 0.1316369 -0.03502462 -0.12334703 -0.09042526 0.5195873 -0.051364783 0.39607647
-0.020829873 -0.04664673 -0.14374892 0.0010336033 -0.22443935 -0.11617724 0.13294749 0.5001003
0.11739376 0.116190076 -0.17555499 -0.06262449 0.18092811 0.32780504 0.25690097 0.2601237
-0.17599152 0.1640692 0.29006916 0.1459574 -0.1639561 -0.09832619 -0.17455237 -0.057772305
-0.25761682 0.053201117 0.21907216 0.3739958 0.3854233 0.21523122 0.019921817 0.21558015
-0.19249386 0.04455374 0.29531533 -0.022836925 -0.02816804 -0.25313717 0.21005599 0.19562688
0.041424334 -0.17174229 -0.32010314 -0.03895777 -0.0898604 -0.38712195 0.041498136 -0.19931683
0.16621609 0.033201896 0.21680664 -0.10803242 -0.035339635 0.15477838 -0.35457164 0.17903791
-0.46301624 0.03376675 0.13261142 0.06491401 0.13426682 -0.34795684 0.10368577 0.16176234
-0.29059613 0.1462468 -0.15635525 0.21276155 -0.040771473 0.30596805 0.09240724 -0.1808009
-0.12343312 0.48584917 -0.052312557 0.18915638 -0.26119092 0.19661032 0.43028095 -0.3228486
00000000: fd67 31be 0938 613e 2a9b 4c3e dcf5 e63d
00000010: c707 8abe 63d0 c6be f873 5ebe c31d 753e
00000020: 77d1 bd3e 9eee 173e d1e5 2f3c 9513 adbd
00000030: b44a 623e 4a01 fc3d 753d 613e 8260 82be
00000040: 9951 bb3e 2e51 e13d 3924 56be 5985 a93e
00000050: 4e26 b6be bd89 dd3d 0760 86bd f2ee d13d
00000060: 4693 77be 87f5 72bd 775e 0cbc dd85 bcbd
00000070: 29fb b93d 994e fc3c 9167 883d bd33 29bd
00000080: e386 64bd 1c79 ea3c 6b1b 52bd 6a2e 543e
00000090: de54 4a3e ce8e 403e 2d1d f63e b339 693e
000000a0: c052 8e3e 2392 a43e 620b a43e 3f72 7d3e
000000b0: b9ae dd3e a011 3a3e 3f72 97be dd53 8d3d
000000c0: 6fda 973e 7c92 d8bd 44f0 0a3e 51d2 ad3e
000000d0: 4d98 813e f113 8b3d 0b86 5c3e 0b1f 083d
000000e0: c1fc 513d e1db 2f3d 7262 b1be bccf ca3c
000000f0: 13d0 bc3d 99f7 cb3d 22fc 09be 4cae b43e
00000100: 8463 f9bd 60d8 183d 7b7e 323e 73a2 f73c
00000110: 7276 973e 2c4d a3be 1626 123d ac15 343e
00000120: 6c24 773d e323 7dbe 12c6 6bbe 666f 053e
00000130: 6afe 1c3f 5f5e ebbc 11aa 8abe 3ec6 c33e
00000140: 27e7 5ebe 7cce efbc 42f4 35b9 2940 aa3d
00000150: cb33 903d 63d4 c23e 207c f13e a2e9 e33e
00000160: dc61 e73d e43a 893e cc99 70be 8c0b acbd
00000170: 675c 89bd c863 bcbe 1159 873d c036 a63e
00000180: 428d af3e 5b52 2fbe 0f2b 9e3d 3008 c43e
00000190: 07dc fb3e 8497 c33d cce8 723e ba96 1a3e
000001a0: 1516 ba39 2e45 6bbe ca7b babe e990 7c3e
000001b0: 0481 8a3e 24ed 1c3e 42d0 d33b 9910 cabe
000001c0: 24fd 2b3e d3cb 063e fa75 0fbd 5e9d fcbd
000001d0: e130 b9bd ac03 053f e163 52bd 89ca ca3e
000001e0: 69a3 aabc a410 3fbd eb32 13be f979 873a
000001f0: 6ed3 65be 55ee edbd 6323 083e 9306 003f
00000200: 246c f03d 10f5 ed3d b0c4 33be 4541 80bd
00000210: 3845 393e 10d6 a73e 8688 833e ef2e 853e
00000220: 1f37 34be c201 283e f283 943e db75 153e
00000230: 1ce4 27be 3e5f c9bd dbbd 32be a7a2 6cbd
00000240: 5ae6 83be 6ae9 593d 7454 603e 617c bf3e
00000250: 3456 c53e 9365 5c3e 1433 a33c 0bc1 5c3e
00000260: 1c1d 45be fc7d 363d 9233 973e 8114 bbbc
00000270: a9c0 e6bc 329b 81be eb18 573e 6a52 483e
00000280: 90ac 293d 36dd 2fbe 8fe4 a3be 2f92 1fbd
00000290: bb08 b8bd d934 c6be f3f9 293d b619 4cbe
000002a0: 8d34 2a3e b6fe 073d 8f02 5e3e 1a40 ddbd
000002b0: 4bc0 10bd 397e 1e3e 6a8a b5be b755 373e
000002c0: 7710 edbe 014f 0a3d 4acb 073e a3f1 843d
000002d0: 3e7d 093e 6627 b2be 3459 d43d 07a5 253e
000002e0: 04c9 94be b9c1 153e 971b 20be 2ade 593e
000002f0: fdff 26bd d8a7 9c3e 0240 bd3d df23 39be
00000300: 81ca fcbd 39c1 f83e b145 56bd 36b2 413e
00000310: d1ba 85be 3754 493e c94d dc3e 694c a5be

net.2.weight f4 [128, 200]
0.22900409 0.1891904 -0.30792186 -0.27792382 0.07996977 0.23145977 0.14617957 0.19047406
0.017207839 0.037270743 0.13504182 0.13546042 0.12011721 0.13036086 0.13059324 0.031437337
0.052837484 0.21340139 0.17538716 0.06929845 0.13337551 0.1527165 0.102690674 0.03601131
0.20861003 0.12906264 0.026479091 0.07857855 0.019939857 0.17533128 -0.022614233 0.26762366
0.104613364 0.17034318 0.16290209 0.17258495 0.11868536 -0.51983035 0.095438085 0.0015072463
0.15177393 0.123094894 0.09529417 0.0044889376 0.08043085 -0.5116468 -0.016073175 0.20226178
0.14726229 0.15362045 0.18469548 0.023329336 0.1205376 -0.43437138 0.12079956 -0.07480661
0.004934674 0.040333375 0.13599901 0.18451315 0.15905325 0.18578279 0.15805724 0.17654221
-0.28711453 0.30009034 0.14368519 0.0957974 0.0031350425 0.12671387 0.19872044 0.27387708
-0.7193303 0.13866404 0.15696958 0.088495806 0.07997486 0.17409219 0.18159 0.023089977
0.27283883 -0.0044086855 0.10193808 0.008050944 0.09467473 0.028261878 0.14195801 0.13881017
0.09531004 0.092366576 0.13913383 0.035363406 0.11273714 0.07378327 -0.3441879 0.23098013
0.19093667 0.02107928 0.099874444 0.0066249873 -0.006972768 0.11269652 0.22425602 0.18142962
-0.17890164 0.1750552 0.35925627 0.21449952 0.142416 -0.33015928 0.14226934 0.264692
-0.16780743 0.090808034 0.12726551 0.28758425 0.09095994 0.09095042 0.04377705 -0.023525132
0.17305666 0.11552648 0.15615037 0.19589663 0.21976885 0.22821195 0.18359756 -0.035986695
0.17084855 0.08184853 0.08473083 0.05029628 0.09296609 0.017840141 0.06698194 0.0006787342
0.0769042 0.13790949 0.17467771 -0.7375049 0.25076005 0.08877536 0.09786606 0.23579374
0.14127624 -0.009062161 0.07179143 -0.00062816957 0.040368058 0.13524511 0.014986364 0.091830894
0.05182373 0.2374917 0.21384408 0.0901208 0.15381029 0.29915708 0.08441555 0.15725909
0.029940825 -0.56617725 0.19006799 0.040282764 0.26694378 0.108689174 0.0223543 0.10104572
0.13874908 0.10266953 0.024200497 0.23369567 0.025147405 0.13692088 0.2301991 0.1253372
0.17744355 0.16280167 0.06374959 0.28235456 0.1270173 0.14682612 0.20624352 -0.41911605
0.14337313 0.15869203 0.2922903 0.11516612 0.10778774 -0.014947901 0.07514433 0.24155821
0.0847639 0.029693266 0.2655377 -0.39947394 0.17002617 0.0655106 0.0755687 0.30262473
0.092647955 0.13064753 -0.37294346 -0.35380977 0.027339036 0.08043937 0.013670692 0.067549706
-0.011483255 0.040503923 0.22084032 0.1449786 0.010709275 0.057660565 0.1131487 0.09771478
0.013098445 0.13392094 0.19961374 0.052319147 0.14360791 0.051892467 0.08919869 0.067614734
0.16576853 0.122203514 0.05930634 0.045315735 0.014825916 0.05312767 0.04037426 0.12825619
-0.06302701 0.13316226 0.07195188 0.029817345 0.082636796 -0.58895355 0.08571415 -0.06250205
0.24811377 0.14020471 0.13539092 0.0849606 0.1035092 -0.60993135 -0.019115375 0.14315471
0.22422145 0.1905597 0.08244407 0.01242594 -0.01198447 -0.36983177 0.055496186 -0.0960333
00000000: 0c80 6a3e 21bb 413e efa7 9dbe 084c 8ebe
00000010: 31c7 a33d ca03 6d3e 19b0 153e a20b 433e
00000020: 74f7 8c3c 35a9 183d 6748 0a3e 23b6 0a3e
00000030: 0300 f63d 517d 053e 3cba 053e 70c4 003d
00000040: 1e6c 583d e585 5a3e b198 333e 59ec 8d3d
00000050: 9793 083e b761 1c3e 7d4f d23d 9880 133d
00000060: de9d 553e ff28 043e aeea d83c caed a03d
00000070: e958 a33c 0b8a 333e 7c41 b9bc f805 893e
00000080: 883f d63d 716e 2e3e cecf 263e 1cba 303e
00000090: 4f11 f33d 9a13 05bf 0b75 c33d cb8e c53a
000000a0: a06a 1b3e 2d19 fc3d 9729 c33d f017 933b
000000b0: eeb8 a43d 49fb 02bf e4ab 83bc b61d 4f3e
000000c0: edcb 163e ae4e 1d3e d020 3d3e 2a1d bf3c
000000d0: 6bdc f63d ed65 debe c265 f73d 3534 99bd
000000e0: 0cb3 a13b 9c34 253d 5343 0b3e 04f1 3c3e
000000f0: dbde 223e d83d 3e3e c2d9 213e 7bc7 343e
00000100: ad00 93be 71a5 993e 3622 133e 6d31 c43d
00000110: 4975 4d3b 48c1 013e 5f7d 4b3e 9e39 8c3e
00000120: 0826 38bf f2fd 0d3e a2bc 203e 4a3d b53d
00000130: dcc9 a33d 3945 323e bbf2 393e 3127 bd3c
00000140: 88b1 8b3e bc76 90bb e9c4 d03d 1be8 033c
00000150: d3e4 c13d 7485 e73c 715d 113e 4124 0e3e
00000160: e931 c33d b02a bd3d 1979 0e3e 38d9 103d
00000170: bbe2 e63d af1b 973d 6539 b0be 0e86 6c3e
00000180: e784 433e 74ae ac3c f98a cc3d 6c16 d93b
00000190: d17b e4bb 6fcd e63d 5fa3 653e b0c8 393e
000001a0: fe31 37be ac41 333e 70f0 b73e c3a5 5b3e
000001b0: 80d5 113e a30a a9be 0eaf 113e b685 873e
000001c0: b6d5 2bbe 90f9 b93d e451 023e 3e3e 933e
000001d0: 3449 ba3d 3744 ba3d 904f 333d c7b7 c0bc
000001e0: c435 313e 2699 ec3d e2e5 1f3e 2099 483e
000001f0: 160b 613e 65b0 693e 0001 3c3e c966 13bd
00000200: ecf2 2e3e 34a0 a73d 5b87 ad3d 7903 4e3d
00000210: 0165 be3d 7d25 923c d42d 893d 15ed 313a
00000220: f37f 9d3d 2538 0d3e b7de 323e 1fcd 3cbf
00000230: 9f63 803e dbcf b53d 006e c83d ea73 713e
00000240: b8aa 103e 7579 14bc 6307 933d bfab 24ba
00000250: fa58 253d b27d 0a3e 5e89 753c d611 bc3d
00000260: 1f45 543d 0631 733e f1f9 5a3e 4191 b83d
00000270: 7280 1d3e 1e2b 993e 0fe2 ac3d 8708 213e
00000280: 7646 f53c fef0 10bf 2fa1 423e 8aff 243d
00000290: dbac 883e 6e98 de3d 5d20 b73c 0ff1 ce3d
000002a0: 3d14 0e3e 6744 d23d 1f40 c63c eb4d 6f3e
000002b0: ee01 ce3c fd34 0c3e 50b9 6b3e 6558 003e
000002c0: c3b3 353e 7bb5 263e 258f 823d c790 903e
000002d0: d310 023e 9659 163e 8031 533e 6196 d6be
000002e0: 68d0 123e 2a80 223e 13a7 953e 37dc eb3d
000002f0: d2bf dc3d 0ae8 74bc 45e5 993d 095b 773e
00000300: b298 ad3d 4b3f f33c 8ff4 873e d987 ccbe
00000310: 571b 2e3e 6c2a 863d c3c3 9a3d a1f1 9a3e
00000320: 36be bd3d 77c8 053e 72f2 bebe 8e26 b5be
00000330: 1df6 df3c 65bd a43d 0afb 5f3c 8057 8a3d
00000340: 4324 3cbc 71e7 253d f723 623e 4575 143e
00000350: f475 2f3c 7c2d 6c3d 81ba e73d b01e c83d
00000360: dc9a 563c 9222 093e 8b67 4c3e 9a4c 563d
00000370: f40d 133e 328d 543d cead b63d 9879 8a3d
00000380: 3abf 293e d645 fa3d 34eb 723d fe9c 393d
00000390: 66e8 723c 669c 593d 7b5f 253d 9755 033e
000003a0: 4e14 81bd b05b 083e 825b 933d 8143 f43c
000003b0: 7b3d a93d a9c5 16bf e68a af3d 1301 80bd
000003c0: 8911 7e3e d391 0f3e eba3 0a3e d3ff ad3d
000003d0: a2fc d33d 7624 1cbf d997 9cbc 2697 123e
000003e0: 4f9a 653e 1522 433e 70d8 a83d 2b96 4b3c
000003f0: 835a 44bc 975a bdbe f84f 633d 1bad c4bd

net.2.bias f4 [128]
0.11196161 -0.030232253 0.032580785 0.031335074 0.08292526 0.069295 0.13502723 0.1874772
0.026743356 -0.01890097 0.19045031 0.19083746 0.046444464 0.018860348 0.022652341 -0.016824085
0.18404679 -0.0030450895 0.06971985 0.09930349 0.06469078 -0.0030387577 0.0062341006 -0.007819463
-0.028702864 0.066387475 0.046258938 -0.016932668 0.06091895 0.10441084 -0.025827916 0.05201786
-0.00054543675 0.013351288 0.10287574 0.09551663 0.0441241 -0.01359993 0.20900168 0.059507716
-0.02210254 -0.0016964424 -0.02666517 -0.021257171 0.06542073 0.03572188 0.2967393 -0.008271714
0.10899489 -0.010584093 -0.030276306 0.0012685963 -0.06711769 -0.014965878 -0.044912416 -0.06942318
-0.025193118 0.1567687 0.019473804 -0.020812847 0.02789176 0.22517806 -0.011747302 0.0052501014
0.23415478 0.08324017 0.16903603 -0.0051621567 0.19236161 0.024216792 0.065146625 0.06153009
-0.02374706 -0.0046682307 -0.04711686 0.0016103715 0.0036250926 0.004256183 0.07761882 0.28241098
0.03736809 0.092458785 0.04037495 -0.0524762 0.061914872 0.052117646 0.04756464 0.17313787
0.06363479 0.19687264 -0.016308313 0.060494687 0.14868201 0.07720932 -0.008877264 -0.04566878
-0.034908496 0.04035448 -0.019860648 -0.059158165 0.009742361 -0.005390365 0.037677716 0.0011403421
-0.061905663 0.2231471 -0.010517482 0.05325757 -0.031561095 0.043220196 0.06882716 0.10654869
0.056870475 0.09000745 0.07271927 0.0634121 0.024987023 0.079169065 0.0942831 -0.014237837
0.04569644 0.01987116 0.061618946 0.220422 -0.02853646 0.00014902698 0.102079764 0.06342367
00000000: 214c e53d a1a9 f7bc 6e73 053d 3559 003d
00000010: b8d4 a93d 89ea 8d3d 9444 0a3e 06fa 3f3e
00000020: e214 db3c 35d6 9abc 6805 433e e56a 433e
00000030: 8d3c 3e3d 0481 9a3c 6791 b93c aad2 89bc
00000040: c376 3c3e 2090 47bb 48c9 8e3d a15f cb3d
00000050: 9a7c 843d e525 47bb 6d47 cc3b 341d 00bc
00000060: 4522 ebbc 28f6 873d 037a 3d3d 61b6 8abc
00000070: 2686 793d 5ad5 d53d 1195 d3bc ae10 553d
00000080: a4fb 0eba 5cbf 5a3c 84b0 d23d 399e c33d
00000090: 79bb 343d 3ed2 5ebc 8904 563e 5dbe 733d
000000a0: 6310 b5bc 295b deba ea70 dabc 8523 aebc
000000b0: 4efb 853d 1b51 123d 37ee 973e 1586 07bc
000000c0: b638 df3d e768 2dbc 0406 f8bc 0747 a63a
000000d0: 0075 89bd 7133 75bc 15f6 37bd bd2d 8ebd
000000e0: cc61 cebc f987 203e 8787 9f3c b47f aabc
000000f0: 437d e43c 1495 663e c177 40bc 0b09 ac3b
00000100: 45c6 6f3e d279 aa3d c817 2d3e 4f27 a9bb
00000110: 71fa 443e 4b62 c63c 986b 853d fa06 7c3d
00000120: 3289 c2bc f5f7 98bb 9cfd 40bd 1a13 d33a
00000130: f692 6d3b 7377 8b3b 9ef6 9e3d 2c98 903e
00000140: 480f 193d 085b bd3d 3460 253d 49f1 56bd
00000150: 739a 7d3d 5079 553d 24d3 423d 0e4b 313e
00000160: f552 823d fb98 493e 0399 85bc 47c9 773d
00000170: 1940 183e ec1f 9e3d f271 11bc 300f 3bbd
00000180: 36fc 0ebd bd4a 253d ccb2 a2bc d54f 72bd
00000190: 6c9e 1f3c a9a1 b0bb f353 1a3d 8877 953a
000001a0: cb90 7dbd ac80 643e 8451 2cbc 9c24 5a3d
000001b0: 3546 01bd a907 313d 41f5 8c3d 3336 da3d
000001c0: 04f1 683d d355 b83d d7ed 943d 34de 813d
000001d0: 96b1 cc3c 6423 a23d 7f17 c13d d145 69bc
000001e0: 312c 3b3d d8c8 a23c 2664 7c3d 4eb6 613e
000001f0: 4bc5 e9bc 2044 1c39 320f d13d 45e4 813d

net.4.weight f4 [4, 128]
-0.20654872 -0.13535398 -0.18360999 -0.16679172 -0.22495872 -0.13615449 0.35482782 0.21306214
-0.15809983 -0.24016878 0.19700912 0.32157618 -0.1342418 -0.12143472 -0.26476207 -0.20409161
0.17138451 0.01085096 -0.13392219 -0.22585158 -0.17068692 -0.17364402 -0.22097975 -0.17131811
-0.04351443 0.27010387 -0.15209186 -0.10667075 -0.21370046 -0.2390094 -0.2317678 -0.2096026
-0.20936014 -0.15562591 -0.21709976 -0.11176988 -0.23073505 -0.23438509 0.41115046 -0.21870789
-0.21982414 -0.14773157 -0.13560909 -0.22892553 -0.10961694 -0.080118865 0.4303394 -0.08117836
0.20693527 -0.26055056 -0.20471041 -0.23432678 -0.02099698 -0.15877837 0.032110523 -0.22589654
-0.13279851 0.28515103 -0.2309788 -0.24808833 0.44439292 0.29542607 -0.12890503 -0.20808023
0.31916133 -0.1953359 0.312343 -0.15957533 0.29893866 -0.17521842 -0.22697052 -0.20589474
-0.17989098 -0.160147 -0.13640077 -0.26838514 0.05071388 0.25977978 -0.14499938 0.4416061
-0.18297681 -0.24781713 -0.12416684 -0.07883576 -0.18712227 0.14205241 -0.23163997 0.3661747
-0.19786751 0.3756139 -0.24760541 -0.2306921 0.30163366 0.26296267 0.07551348 -0.14045869
-0.1241534 -0.162596 -0.08909668 -0.102683984 -0.17339441 -0.11644774 -0.21751504 0.03366764
-0.16649105 0.3607777 -0.13390276 -0.1810023 -0.23114987 -0.13849717 -0.17162257 -0.23427331
-0.23430316 -0.22360851 0.27099538 -0.18372203 -0.2525153 -0.25288785 -0.09488046 -0.24172616
0.060953047 -0.11087813 -0.21956268 0.33374345 -0.14835933 -0.22803597 -0.2028081 -0.18183103
-0.21698539 -0.3192057 -0.25539547 -0.15720618 -0.20526987 -0.23229474 0.5282123 0.25541347
-0.111149035 -0.27376285 0.3663374 0.18613097 -0.20523271 -0.20212652 -0.20868906 -0.23679061
0.28342983 0.72661537 -0.324344 -0.22828099 -0.14853065 -0.086059146 -0.12571362 -0.2004129
0.070542604 0.2161802 -0.19941065 -0.3087116 -0.11790985 -0.23695926 -0.17810212 -0.09200667
-0.13338858 -0.25797817 -0.2175764 -0.30502498 -0.13637324 -0.25717393 0.542156 -0.04008189
-0.19864471 -0.12592289 -0.5245914 -0.2448436 -0.33598107 -0.5792138 0.5026671 -0.3397737
0.28181782 -0.13420568 -0.21190096 -0.15703861 0.023643106 -0.25975114 0.076667525 -0.07726341
-0.23810823 0.40433714 -0.120942935 -0.12801392 -0.031627845 0.34042773 -0.3061641 -0.1826803
0.38411003 -0.23760922 0.07233079 0.23776795 0.3153996 -0.31040975 -0.22071776 -0.11115869
-0.11687731 -0.087697014 -0.2207084 -0.08906248 0.20439862 0.5191544 -0.2711593 0.42791277
-0.16897476 -0.29568502 -0.25379562 0.04493486 -0.041859053 0.29755563 -0.17092119 0.2725786
-0.23936331 0.42307544 -0.12015927 -0.06698001 0.3860166 0.2960794 -0.0077361804 -0.29332224
-0.1937604 -0.18273093 -0.14900203 -0.22883396 -0.26418227 -0.45322278 -0.15897302 -0.04078229
-0.18700305 0.20970446 -0.38027054 -0.21707106 -0.09145094 -0.25306582 -0.08091573 -0.23444659
-0.31068 -0.15147145 0.46486688 -0.0710219 -0.17161213 -0.16111277 -0.075628966 -0.3422627
0.04671396 -0.28014338 -0.07042517 0.15952581 -0.20863074 -0.14113577 -0.2749136 -0.039936922
00000000: 8281 53be 3c9a 0abe 4204 3cbe 73cb 2abe
00000010: 945b 66be 156c 0bbe feab b53e f62c 5a3e
00000020: ece4 21be ceee 75be c2bc 493e a2a5 a43e
00000030: af76 09be c4b2 f8bd e58e 87be 64fd 50be
00000040: 6c7f 2f3e 3ac8 313c e622 09be a345 67be
00000050: 8dc8 2ebe bdcf 31be 8448 62be 046e 2fbe
00000060: 303c 32bd 0e4b 8a3e f8bd 1bbe 3276 dabd
00000070: 4bd4 5abe e1be 74be 8a54 6dbe 10a2 56be
00000080: 8162 56be 665c 1fbe 664f 5ebe 9be7 e4bd
00000090: cf45 6cbe a502 70be 5082 d23e f6f4 5fbe
000000a0: 9419 61be f246 17be 1cdd 0abe 746b 6abe
000000b0: d97e e0bd 5c15 a4bd 7255 dc3e d740 a6bd
000000c0: d7e6 533e e266 85be 9b9f 51be 5cf3 6fbe
000000d0: dc01 acbc cc96 22be 5386 033d 6c51 67be
000000e0: 55fc 07be 51ff 913e b585 6cbe de0a 7ebe
000000f0: 7887 e33e 1642 973e aeff 03be fc12 55be
00000100: 1d69 a33e 2206 48be 6ceb 9f3e b767 23be
00000110: 7d0e 993e 756c 33be f66a 68be 12d6 52be
00000120: 5735 38be 93fd 23be a5ac 0bbe c769 89be
00000130: 5cb9 4f3d db01 853e b87a 14be 321a e23e
00000140: 465e 3bbe c6c3 7dbe 2f4b febd a574 a1bd
00000150: fb9c 3fbe 3076 113e 0733 6dbe 407b bb3e
00000160: c89d 4abe 7750 c03e 468c 7dbe 8d3a 6cbe
00000170: ba6f 9a3e 0ba3 863e d0a6 9a3d 67d4 0fbe
00000180: 2344 febd 917f 26be 5278 b6bd fb4b d2bd
00000190: 4e8e 31be 277c eebd 43bc 5ebe 14e7 093d
000001a0: a17c 2abe dbb7 b83e ce1d 09be ab58 39be
000001b0: 8db2 6cbe 34d2 0dbe d4bd 2fbe 58e5 6fbe
000001c0: 2bed 6fbe a1f9 64be e8bf 8a3e a121 3cbe
000001d0: af49 81be 847a 81be b050 c2bd 1087 77be
000001e0: e7a9 793d 1314 e3bd 0ad5 60be 6ce0 aa3e
000001f0: 82eb 17be 4382 69be edac 4fbe ea31 3abe
00000200: 6b31 5ebe ee6e a3be 32c3 82be a8fa 20be
00000210: 4432 52be acde 6dbe ec38 073f 8ec5 823e
00000220: 1ba2 e3bd a52a 8cbe 9390 bb3e 1e99 3e3e
00000230: 8628 52be 41fa 4ebe 96b2 55be 3d79 72be
00000240: b71d 913e 7703 3a3f 6b10 a6be 7ec2 69be
00000250: 6b18 18be c73f b0bd 12bb 00be 0a39 4dbe
00000260: a478 903d 585e 5d3e 4e32 4cbe 720f 9ebe
00000270: b87a f1bd 73a5 72be 6760 36be fe6d bcbd
00000280: 0497 08be b715 84be 59cc 5ebe 3c2c 9cbe
00000290: 6da5 0bbe 4dac 83be bcca 0a3f e82c 24bd
000002a0: 8569 4bbe eef1 00be 9f4b 06bf 48b8 7abe
000002b0: b605 acbe 5b47 14bf cbae 003f d2f6 adbe
000002c0: 6d4a 903e 376d 09be 91fc 58be bbce 20be
000002d0: 30af c13c 1afe 84be dd03 9d3d 473c 9ebd
000002e0: a5d2 73be 4705 cf3e eeb0 f7bd 1516 03be
000002f0: 338c 01bd 8b4c ae3e 8ac1 9cbe 8b10 3bbe
00000300: 12aa c43e d54f 73be 2a22 943d 7179 733e
00000310: 0e7c a13e 07ee 9ebe d603 62be 2ba7 e3bd
00000320: 5f5d efbd 7e9a b3bd 6201 62be 6466 b6bd
00000330: df4d 513e 4ee7 043f 64d5 8abe 6217 db3e
00000340: b807 2dbe 0764 97be 80f1 81be 9e0d 383d
00000350: 6674 2bbd 3659 983e f705 2fbe 6c8f 8b3e
00000360: a81b 75be 589d d83e 1016 f6bd d12c 89bd
00000370: f8a3 c53e b897 973e c97f fdbb 552e 96be
00000380: 2069 46be d11d 3bbe fd93 18be 7353 6abe
00000390: e642 87be d10c e8be d3c9 22be 550b 27bd
000003a0: ba7d 3fbe c4bc 563e d2b2 c2be e047 5ebe
000003b0: a14a bbbd d891 81be 25b7 a5bd c412 70be
000003c0: 7311 9fbe 551b 1bbe 0803 ee3e ee73 91bd
000003d0: 17bb 2fbe bffa 24be 5ce3 9abd 0e3d afbe
000003e0: 2357 3f3d f46e 8fbe 123b 90bd bc5a 233e
000003f0: 4ca3 55be e585 10be 7ac1 8cbe e694 23bd

net.4.bias f4 [4]
-0.045677286 -0.047907595 0.031131376 0.082107216
00000000: 1b18 3bbd c13a 44bd 3a07 ff3c d427 a83d
