experiments/LunarLander-v2-descrete-hyperpra-tunnig/ed/5e-06/model.pt (torch, 114135 bytes, 6 tensors)

net.0.weight f4 [200, 8]
00000000: bcff bb3e 6979 913d 3cd0 e13e 68f9 bbbd
00000010: 99b6 823e cb6c 8b3c 8ff9 97bc 5685 263d
00000020: 7369 443f 8236 b43e a68c 7a3e c14c 9f3e
00000030: f4d3 edbe 0b61 1dbf 75ca 24bf b78a adbf
00000040: 310b 363f c797 11bf b191 663f 59bd 183f
00000050: e4cc 263f 9917 243f 5bcd 1a3f 344b 0fbe
00000060: 4f24 2d3e 371a 82bf 470b 303f 8eea 303e
00000070: 7950 72bf 62b1 723e d785 e6bd 3e9a 413f
00000080: b455 a6be 3411 043f 2e52 7c3f bb10 183f
00000090: a9f2 15bf 4241 32be 3f36 57bd 0d35 d93c
000000a0: 7460 b53e 9d9e 533e b832 523e acac dfbe
000000b0: e4b8 fbbb bb0d b83e b8ae 403f 4144 adbe
000000c0: 614b 99be 62ab 03bf 37d5 8c3e 6fed 623d
000000d0: 3d3a dcbe 4ee6 24bf 1024 f53e ae5b c13e
000000e0: 96b4 0fbe c2e9 963e 13f7 dcbe 175f b13e
000000f0: b255 723f 218a e83e 2cac c1bd 1a9f 24bf
00000100: 3b5e d43d 07f2 02bf f0b4 00bf 19f4 04bf
00000110: 34fc 083e 8a1f a9be 25b4 363c 943d 0ebf
00000120: e365 3bbd 287e ca3e 3997 053d dde0 eabe
00000130: 30fa 763e 7ace 13bf c716 ddbe 5677 0ebf
00000140: fef9 3c3f 2842 f5be 201a b43c 0a54 c1bd
00000150: 77de 67bd fa05 2bbf 8d14 22bf 7266 d6be
00000160: 28ff a1be e3a0 e03d 136b a03e 29c7 19bf
00000170: 51a8 87be ec1c 963a e334 7e3e f432 bf3e
00000180: 55cf 673c 5e66 26be 7c53 9d3e af8c 09bf
00000190: f184 e3be 387e 68be 4a0e 2ac0 4054 39bc
000001a0: fdea e63e a837 4b3f f444 943e fc84 b4be
000001b0: d6f7 a93e a183 3ebd 86b3 37bd 53ac 0cbe
000001c0: abe6 afbe 83ac c1be 0210 84be 5c54 b13f
000001d0: 208e 2d3e 91ec 1dbf f8c4 bc3e de93 0d3e
000001e0: 0ac4 8d3f 0c37 cbbe e5d5 833e 697b edbe
000001f0: 005a 343e 1f0d 6bbf d9f8 13bf 332a 843e
00000200: 83d2 153e c9a8 87be 8f8d f3bc 6df6 86be
00000210: eb4d 0f3c 7c0d 023f 3349 d73d d486 e8be
00000220: 5e1f 20be 133b 8a3e 2c4e f03e 2b1d d53e
00000230: c3ec f4be c7c0 1cbf 3012 1bbe 6b3b 7dbc
00000240: 96d7 50be 1751 31bf 0a20 0e3f fb80 2cbe
00000250: c6ce 12bf 0920 13bf dc8f 96be 6b74 ac3e
00000260: 0af3 aebe a555 44bf 0d7c b7bc 561f 8abe
00000270: 9652 663f 6bca 683f 46f4 473e cf15 1dbe
00000280: 4ba7 403f 2fb0 10be 1559 053f 0bb7 053f
00000290: 6daf 4c3e 2e5d 033f 167a 83be 1910 df3d
000002a0: c099 6d3f f1a2 8dbd c434 a4be 6421 0e3f
000002b0: 257e 703f 7324 f73c e6e6 c1bb ccad 8a3e
000002c0: 3fed d63d f6f3 b93e d1aa 8c3e a1db a63e
000002d0: 8757 febe f34d 4bbf a5b9 f1bd 67d5 263d
000002e0: 0abd de3e e59a d23c 96cc c2be 48f5 c5bd
000002f0: 2eb0 833f 4d12 293f 64c0 823f 7a37 a8bd
00000300: 1dd4 aabe 6cb0 06bf d3d6 7cbf c799 11bf
00000310: 68c0 493e 1a53 c23d 5524 99be 3283 42bd
00000320: be90 293f 41b5 d63e e78d 8bbe 5c6a 0fbe
00000330: 0655 3a3e 98fc 263f 33f6 14be af93 92be
00000340: 1c16 abbe 876e 773e aa56 d63d ddf2 f23f
00000350: 852e 77be 8abc 4ebe 0590 043e f03e 6dbe
00000360: e640 993e 50a8 25bf 8acc 163f f263 a3be
00000370: c178 55bf d126 00bf c977 49bc a862 e83e
00000380: 39ff 083f 972c 953d bee7 043f 14fb 60be
00000390: c347 333e 7add 3ebe 3b4b 94be 8ea2 a23d
000003a0: 0be0 833d 8010 0d3d af04 803e dd0c 0bbd
000003b0: 264e 1dbf ea04 61bf a413 ac3d baac 1cbc
000003c0: 999c cbbe f727 143e c9ec b4bd 6b1a b93e
000003d0: 8578 6e3e 60d8 663f 0f43 523f 1041 e2bc
000003e0: ffe0 4c3e 6d77 d4be 83b9 40be 04c9 243f
000003f0: af17 4ebf 4168 22bf 60af 36bd 3d75 dbbd
0.36718547 0.07103235 0.44104183 -0.0917843 0.25529936 0.01701965 -0.018551616 0.040654503
0.767234 0.35197836 0.24467716 0.31113246 -0.4645077 -0.614762 -0.64371425 -1.3557957
0.71110827 -0.5687222 0.9006606 0.5966392 0.6515639 0.6409851 0.604696 -0.13993531
0.16908382 -1.016425 0.6876721 0.17276976 -0.9465404 0.23700479 -0.11255997 0.7562598
-0.3248726 0.5158875 0.98562896 0.5940053 -0.58573395 -0.17407706 -0.052541967 0.026514554
0.3542515 0.20665975 0.2052716 -0.43686426 -0.007681953 0.35947976 0.752666 -0.33841136
-0.29940322 -0.51433384 0.2750642 0.055402216 -0.43013182 -0.6441392 0.47879076 0.3776526
-0.14033732 0.29475218 -0.43157253 0.3464286 0.9466201 0.45417884 -0.09456667 -0.6430527
0.103695355 -0.51150554 -0.5027609 -0.51934963 0.13377458 -0.33031875 0.011151348 -0.5556271
-0.045751464 0.39549375 0.03261492 -0.45874682 0.24118876 -0.57736933 -0.4318144 -0.5565084
0.7381896 -0.47902036 0.021985114 -0.09439857 -0.056608643 -0.66805995 -0.6331261 -0.41875035
-0.3163998 0.10968187 0.3133169 -0.6006952 -0.26495603 0.0011452711 0.24824862 0.37343562
0.014148553 -0.16249987 0.30727756 -0.5373029 -0.44437364 -0.22704399 -2.6571221 -0.011311591
0.45101157 0.793818 0.28958857 -0.3525771 0.33196896 -0.04651225 -0.04484894 -0.13737611
-0.34355673 -0.37826928 -0.25793463 1.385387 0.16948748 -0.61689097 0.36869025 0.13825938
1.1075451 -0.39690435 0.25749126 -0.46383217 0.17612457 -0.91816896 -0.57801586 0.25813445
0.14631085 -0.2649596 -0.029730586 -0.26359883 0.008746604 0.50801826 0.105120085 -0.45415366
-0.15636966 0.26998195 0.4693464 0.41623816 -0.47836885 -0.61231655 -0.15143657 -0.015456061
-0.2039474 -0.6926436 0.5551764 -0.16846077 -0.5734676 -0.57470757 -0.2940663 0.3368257
-0.341698 -0.76693183 -0.02239802 -0.26977032 0.89969766 0.90933865 0.19526777 -0.1534035
0.7525527 -0.14129709 0.52089053 0.52232426 0.19988795 0.51314056 -0.25679082 0.10891742
0.9281273 -0.06915844 -0.32071507 0.555197 0.9394248 0.030168748 -0.005917418 0.27085721
0.1049447 0.3631894 0.27474073 0.3258944 -0.49676153 -0.79415816 -0.11802987 0.04073086
0.435036 0.025708625 -0.38046712 -0.09665924 1.0288141 0.6604355 1.0214963 -0.08213706
-0.33364955 -0.5261295 -0.98765296 -0.5687527 0.19702303 0.094885066 -0.29910532 -0.0474884
0.66236484 0.4193516 -0.272567 -0.14005417 0.18196496 0.6522918 -0.14547043 -0.286283
-0.33415306 0.24163257 0.104657486 1.8980366 -0.2413884 -0.2018911 0.12945564 -0.2316854
0.29932326 -0.6470995 0.5890585 -0.3191219 -0.8338738 -0.5005923 -0.012296625 0.4538777
0.5351444 0.072838955 0.5191611 -0.21970779 0.17507844 -0.18639174 -0.28963646 0.07941161
0.06439217 0.034439564 0.25003573 -0.033947814 -0.6144737 -0.87898123 0.08402184 -0.009562666
-0.39767912 0.1446837 -0.08834226 0.36152968 0.23288162 0.9017391 0.82133573 -0.027618915
0.20007704 -0.41497365 -0.18820767 0.64369226 -0.8050489 -0.6344033 -0.044600844 -0.10715721

net.0.bias f4 [200]
00000000: 582b 153f 1a45 a7bd 6026 833e 8275 a23e
00000010: 00f1 043e 7903 c33e dc0f 863e 5d8b b53d
00000020: f6db 213e 34ef eb3d 13d4 e33e 04b1 edbd
00000030: b4fd 72be 71da ec3e 3080 9ebe ea67 b3bc
00000040: b9e7 d73d 81ed 803c 2d13 853e c7f5 b53e
00000050: 2fa5 b5be 1fb3 b6be 8f6b efbd e7fc 6abd
00000060: 4125 b53e a4e3 173f 5e5d 563e dbc4 dc3d
00000070: 8c90 193f 6abc 3b3f 7b82 093e 8476 103f
00000080: ac88 05bf 134c b73d 2653 173f ffd0 f53e
00000090: 9bc2 5a3f 5c0f 22be 97b5 cc3e f633 e4be
000000a0: 5348 13bd e847 093f f83c 203d ef64 e4bc
000000b0: b922 fc3c 7f7c c03e 69c4 883d f477 903b
000000c0: 0026 19bd b341 333f b804 1cbe 2b70 e93d
000000d0: 6aaf 9e3e fde6 8abd f48c 61bd 0cd9 503e
000000e0: 71db cc3e 60d8 00bd 0ec5 843d 6780 9e3d
000000f0: 45f0 7b3f 9799 04bd 00fd 883e be49 803d
00000100: 9684 ab3e db45 cfbd 1da9 8c3c aa73 4b3e
00000110: 35d5 053e edd1 103d 467f 7fbd db85 49be
00000120: 5d05 c53e 19f1 f7bd 8b11 e6be c0c4 b6bb
00000130: a62d 32be b721 fc3d 5b30 b53e 932b 233e
00000140: 5714 863e e57c 87be d730 b53e 9e41 033f
00000150: d187 fab9 b932 61be 54f5 183f 499b c53e
00000160: 9779 023f a5db f53c d38b 7a3f 175e 223e
00000170: d177 a6bf b87a a73e 7884 d03e 947e 5abd
00000180: 1010 283f 35b3 083e 3e9a 5f3f 27cd 473e
00000190: 3811 f03d 1b56 b1be 255a 1c3e a1a8 773e
000001a0: c56b 063f 7d89 2d3f 172a 2dbe 1fdd 993d
000001b0: 2f22 85be 1e29 093f 42dc 03bf ffac 863e
000001c0: 708f 0e3f a21a d83d 6406 09be c45b 003e
000001d0: c9f0 d73d cc22 613e 37c2 323f 93d6 133c
000001e0: 3dec eb3e f975 c43c e4c0 d83e a095 913e
000001f0: 5260 393e ba60 013e 93ac 5f3f 71a4 78be
00000200: a120 f53e 37b8 ed3d 1c08 033f 78dd 033e
00000210: 74d1 bf3e c90e da3e 2820 a93b 08b2 0b3e
00000220: 152f 35be 9a8f 063e 67fe 183f 161c babe
00000230: 8562 c93d b194 7a3e 3ab4 bc3e b371 243f
00000240: 6450 fa3e 1133 bf3e bc66 ba3e 1ee7 513e
00000250: b40b 2c3c 7325 5c3f aa4e 83bf 8c17 a33e
00000260: 58d8 dc3e 8f80 60bc 285d ddbd d470 133f
00000270: 4abd 1bbf d9f0 483e d252 903e 02c8 083d
00000280: d922 8bbd 4a15 b73e 792b afbd e42a 11bf
00000290: 16f1 f6bc eedf c53c 6927 aa3e a6d5 34be
000002a0: cfe8 853d 71bb 203f c091 31bf 26f1 1f3f
000002b0: cfb4 103f 845a f13e 0a07 a23e 1ebb 3c3d
000002c0: a598 cfbe 17bc afbe a8b1 323e f374 443e
000002d0: 0a4a 133e 279c 183f 1102 ff3e 3c75 51bf
000002e0: ae57 733c d335 853e 9698 ef3e 12b8 733e
000002f0: 08c9 0c3f 840d 793e 5004 02be 10b3 473d
00000300: 4fca fc3e b123 813d 1ec4 a83e feaf 893d
00000310: db93 a23e 168a e8be 7314 883e 7e80 afbe
0.5826926 -0.08167477 0.25615215 0.31730276 0.12982559 0.38088587 0.26183975 0.08864472
0.15806565 0.11520234 0.44497737 -0.11606029 -0.23729593 0.46260408 -0.30957174 -0.021900136
0.105422445 0.01573825 0.25991192 0.35539076 -0.35477588 -0.35683534 -0.11690437 -0.057370093
0.35379985 0.5933173 0.20934054 0.10779735 0.59986186 0.7333437 0.1342868 0.5643084
-0.5216167 0.08950057 0.5911125 0.48011014 0.85453194 -0.15826172 0.39982292 -0.44570893
-0.035957646 0.53625345 0.039120644 -0.02788016 0.030778276 0.37594983 0.06678087 0.004408831
-0.037389755 0.70022124 -0.15236175 0.113983475 0.30993205 -0.06782339 -0.055066064 0.20395297
0.4001117 -0.03145635 0.06482898 0.077393346 0.984135 -0.032373037 0.26755524 0.06264065
0.33499593 -0.10120746 0.017170483 0.19868341 0.13069613 0.03535645 -0.062377237 -0.19679968
0.38480654 -0.121065326 -0.4493526 -0.0055776536 -0.17400226 0.12311118 0.35388455 0.15934591
0.26187393 -0.26462474 0.35388824 0.51272 -0.00047784907 -0.21992005 0.5974934 0.38595036
0.5096678 0.030011961 0.97869605 0.15856205 -1.3005315 0.32710814 0.40726066 -0.05334337
0.6564951 0.13349612 0.8734473 0.19511853 0.11722034 -0.34636006 0.15268762 0.2418542
0.52508193 0.67787915 -0.16910587 0.075128786 -0.26002643 0.53578365 -0.5150796 0.2630386
0.5568762 0.10551955 -0.13381344 0.12535006 0.10543973 0.2198593 0.698276 0.009023326
0.46078673 0.023982035 0.42334664 0.28434467 0.1810315 0.12634555 0.873727 -0.2428148
0.47876456 0.11607402 0.5118425 0.12877452 0.37464488 0.42589405 0.005161304 0.13642132
-0.17693742 0.13140717 0.5976319 -0.36349553 0.09833244 0.24470784 0.36856252 0.6423599
0.48889458 0.37343648 0.36406505 0.2049832 0.010500837 0.8599464 -1.0258381 0.31853902
0.43133807 -0.013702526 -0.10808784 0.5759404 -0.6083571 0.19623126 0.28188187 0.033393867
-0.06793756 0.3575843 -0.085532136 -0.5670607 -0.030144256 0.02415463 0.33233193 -0.17659625
0.06538545 0.6278601 -0.6936302 0.6247734 0.5652589 0.4713937 0.31645995 0.046076886
-0.40546146 -0.3432319 0.17450583 0.19185238 0.14383712 0.5961327 0.49806264 -0.8181951
0.014852447 0.26017627 0.467961 0.23800686 0.5499425 0.24321562 -0.12696958 0.04875475
0.493731 0.06305636 0.32962126 0.06723021 0.3175343 -0.4541785 0.26578102 -0.3427772

net.2.weight f4 [128, 200]
00000000: 1c98 523f 8c52 913e 2f58 983f c1f4 9dbe
00000010: 453d 03bf 1fbf 183f 7355 0c3f bb31 f3be
00000020: 0b2c 053f a91d 073f 6402 f43e 3689 e83e
00000030: 118c 04bf 075a ed3e 032d 9cbf b386 2e3f
00000040: 132a dc3e 7dce 88bf c3b4 863e a38c 1bbe
00000050: 4506 0ebf 29f6 3ebf 9d8e 46bf 1fc8 103f
00000060: a847 c9be db8e 443f 40b2 bfbe 56af 7fbf
00000070: babe 1f3f 755b eb3e 6390 073f 3e69 b03f
00000080: 303e 1c3f 7d8e 1a3f 69c0 87be 77cc 603d
00000090: 1811 2e3f 461b 803e cf8f 593f 7d81 23bf
000000a0: 4a3d 57be 8dcd f43e c096 e3bd bf55 4e3d
000000b0: a3a8 1cbf bc56 173f b066 4dbe 400c 143f
000000c0: 206d 28bf f00e 923f 74d8 44be 74e8 813e
000000d0: 0e98 893e 126a 0ebf bf28 1ec0 6047 733f
000000e0: a616 8c3f db7f 88bf 8933 1fbf 3679 4dbe
000000f0: 13d5 743e 85e3 303f 6e49 353f ddb4 b33c
00000100: b428 6c3f e1d7 243f db4e 86bd cc06 bd3e
00000110: 656c 3ebf 40f1 e93e 0fb3 4abe cd39 ed3e
00000120: c294 c53f efa9 cfbe 27ec 6b3e 1c8c bd3e
00000130: b660 c7be 8917 3c3e fe59 3d3f 64b3 91bd
00000140: 86f5 fe3e 184b 393d e471 0d3e 6700 183d
00000150: 6bc2 06c0 fcb5 08bf 05bc 2b3f 7b4b fabe
00000160: d623 2f3f ef2d 0540 0a6b 593f c840 693d
00000170: 19e9 9c3f 88c6 94be 1ad8 e3be 562c 71bf
00000180: 6e1b 453f e75d 91bc f35e c83d e101 243e
00000190: af96 d13e e6a0 1fbf 20e8 ca3e 28ef dabd
000001a0: ddb3 613f 9a62 0e3e 6484 ff3d de0e d1be
000001b0: 94cf a7bf f346 d2be 456c 7e3e 573b 553f
000001c0: b92e 83be 03b8 f53e 0182 313e 2f4e 9a3d
000001d0: f3c8 c93e 56fd 663e 3520 bf3f 02d4 853f
000001e0: 1bb0 3a3e 8050 b8be aec4 0f3e 1c51 7abd
000001f0: 4809 3ebe 9c52 473f 845e 423f d510 7abf
00000200: d7bc 03bf f1d8 f7be 7ca2 02bd 68be 323f
00000210: 8782 9bbd 50ec 093f 9c27 523f e775 fe3e
00000220: ce68 d23e 929e a43e 21ab 493f f6f0 d6be
00000230: 1f9c fe3e 17c5 2f3f 7e6b 663f 13fd 943e
00000240: 3665 c8be 3352 a13e d7b8 e93e 6fe7 733e
00000250: e36b 323f 3761 803f d267 38c0 8795 0e3f
00000260: 5956 24bf 2640 aebf f74f 60bf f830 ffbe
00000270: fb32 d2bf 4947 4e3f 981f c83e 2246 bf3e
00000280: 267f 253f 15ad 3abf 597f 113f 30c2 d83f
00000290: 3472 553e ce2c 1bbd 8421 593f f7f1 cdbd
000002a0: c1f5 bbbe 17cf ebbe 14de 7b3c 2908 373f
000002b0: bddf 683f 2443 1cbf d978 3b3f 68fe fe3e
000002c0: 62ff f93b 7313 38bd a31c 213f 480b d33e
000002d0: e3af 6cbe a39d 8d3f 13c8 2abf f57f 0740
000002e0: a8f6 cbbe 7e95 24bf 5786 15be eac3 163f
000002f0: 845d 703e b047 d73e 0b7a 3f3e 50fc 1ebf
00000300: ec26 d0bd 9f68 4abd d9c4 8fbe 96bb 15be
00000310: 1957 663e 09c8 57bf 95df 103f bc10 5bbf
00000320: 4fb9 d03d 68de 7bbe a001 bebe 25a3 8f3e
00000330: f83f c83e a92a e03c c8d9 1d3e e761 3c3f
00000340: e1aa eabe 26cd 22be 522c ef3e 3dfa a0bc
00000350: e050 6f3f f24e 4b3e c17d 423f bbdc 80bf
00000360: c719 613d 0673 c43e 731d c63d bc51 c43e
00000370: 912a 233f 18cc 163f 7c7d 153f 1ffd 8b3e
00000380: 6811 8b3e 276d 033e 59d2 463f 62f8 653e
00000390: 21a8 223e 8db3 223e 1b75 f93e 1c90 a6be
000003a0: 6d88 1bbf 431b c3be 319a 94bc 9934 233d
000003b0: f8a9 823e 23cc 273f 823f 92bd 4928 5b3f
000003c0: bc0a 863e 15cb ce3c 1110 f53e 6f25 a7be
000003d0: 28f1 a63e a33d 213d 163f be3d 921f b8be
000003e0: 84db 673f 264e 6fbe f230 f83d 5dcc a53d
000003f0: 9b96 d23e 677b 483c 40a3 0040 ff2b a83d
0.8226335 0.2838329 1.1901911 -0.30850795 -0.51265365 0.5966663 0.54817885 -0.4749888
0.5202033 0.5277963 0.47658074 0.45417184 -0.51776224 0.46357748 -1.2201236 0.68174285
0.4300085 -1.0688015 0.26309785 -0.15190367 -0.55478317 -0.7459436 -0.7756136 0.5655536
-0.39312482 0.7678048 -0.3744068 -0.99876916 0.624004 0.45968214 0.5295469 1.3782117
0.6103239 0.6037367 -0.26513985 0.054882493 0.67994833 0.25020808 0.8498506 -0.6386946
-0.21019474 0.47813073 -0.11112738 0.050374743 -0.6119482 0.5911672 -0.20058703 0.5783119
-0.6579151 1.1410809 -0.19223195 0.2537266 0.2687382 -0.556306 -2.471237 0.95030785
1.0944412 -1.0664018 -0.6218801 -0.2006577 0.23909406 0.6909717 0.7081517 0.021936828
0.9224961 0.64391905 -0.06558009 0.36919248 -0.74384147 0.45691872 -0.19794868 0.4633316
1.5436022 -0.40559337 0.23039304 0.37020957 -0.38940972 0.18368353 0.7396544 -0.07114294
0.49796695 0.04523763 0.13812977 0.03710976 -2.1056163 -0.53402686 0.6708377 -0.48885712
0.68414056 2.0809286 0.84928954 0.056946546 1.2258636 -0.29057717 -0.4450081 -0.94208276
0.7699498 -0.017744971 0.09783735 0.16016342 0.40935275 -0.62354887 0.39630222 -0.10690147
0.88165075 0.13904801 0.124764234 -0.40831655 -1.3110223 -0.41069755 0.24845989 0.8329367
-0.25621584 0.47991952 0.17334749 0.075344436 0.39411125 0.22557577 1.4931704 1.0455325
0.18231241 -0.35998917 0.14039871 -0.06111251 -0.18558228 0.77860427 0.7592547 -0.97681934
-0.5146002 -0.484077 -0.03189324 0.69821787 -0.075932555 0.5387621 0.8209169 0.49699327
0.41095585 0.3215223 0.78776747 -0.41980714 0.49728486 0.6866011 0.9000777 0.2909933
-0.39139718 0.31508026 0.45648834 0.23818754 0.6969587 1.0029668 -2.8813367 0.5569691
-0.64194256 -1.3613327 -0.87622017 -0.49842048 -1.6421808 0.8057752 0.39086604 0.37358195
0.6464714 -0.7292035 0.5683494 1.6934261 0.20844346 -0.037884526 0.84816766 -0.10055917
-0.36710933 -0.46056435 0.015372772 0.71496826 0.909664 -0.6103995 0.73231274 0.49803472
0.007629321 -0.044940423 0.6293432 0.41219544 -0.2311397 1.1063732 -0.6671154 2.1171849
-0.3983662 -0.64290607 -0.14602028 0.5889269 0.23473173 0.4204688 0.186989 -0.6210375
-0.10163674 -0.04941618 -0.2807987 -0.1462234 0.22494163 -0.84289604 0.5659116 -0.8557241
0.10191595 -0.2459656 -0.37110615 0.28054157 0.39111304 0.027364092 0.15415108 0.7358689
-0.45833495 -0.1589857 0.467135 -0.019650573 0.9348278 0.19854334 0.75973135 -1.0067362
0.054956224 0.38369006 0.09673586 0.38343608 0.63736826 0.5890517 0.583946 0.27341554
0.27161717 0.12834607 0.77664715 0.22458032 0.15884449 0.15888806 0.48722157 -0.32531822
-0.60755044 -0.38106737 -0.01813993 0.039845083 0.255203 0.6554586 -0.071410194 0.85608345
0.26180065 0.025243321 0.4786382 -0.32645747 0.32605863 0.039365422 0.092893764 -0.35961586
0.9056933 -0.23369655 0.121187106 0.0809562 0.41130528 0.012236453 2.009964 0.082115166

net.2.bias f4 [128]
00000000: 2896 5a3f a54e 033e 20eb 1c3d 7a33 423d
00000010: 6a13 7e3d ecf6 85bd 5277 b13e 16b9 efbd
00000020: a065 f73e 8f19 543e ef21 d23d d4a8 03bd
00000030: 3a55 c5bc 392a d53d 84db ca3c ee8a 4b3e
00000040: 9bd8 4b3e 63a7 21bd 0bb5 1dbc 70d4 2fbd
00000050: dcf6 a23a 2fa3 ba3c 1dee f23d e6a8 3e3e
00000060: 8222 353d 471c 673c 13a9 2b3e 7eb8 a1bd
00000070: c959 663e f5a3 54bc 1ab5 863c aa65 5ebb
00000080: 1e24 83bc 6612 30bd 3603 0e3e 90ea 5f3e
00000090: 72da f33d 5677 d93d c62a 453e 0acd 52bd
000000a0: c1dd 50bd 2e33 173e e6d9 2e3c 3260 95bc
000000b0: 4bdd 243e fb56 2f3e a4ab 2bbd 602f 333d
000000c0: b05a f73d 3726 8cbd 19d7 ba3d 9f61 013e
000000d0: 59b7 f03d ef02 453e 5cd7 1c3e ed37 463e
000000e0: cf95 aebd f4fb 1d3e 3663 373d 8178 52bd
000000f0: 58d5 cf3d 1414 3f3d ac19 a5bd cb70 cebd
00000100: 77dd 0e3e c8e0 303d 7c25 a8bd d54e 233e
00000110: 2349 c13e 5e21 df3d 53f4 4d3e e49c 05bd
00000120: 4871 313e 5e68 0e3e d01f 2b3c eaba 95bd
00000130: e008 b63e d2c7 eabc 4d61 283e 3c84 1c3e
00000140: 448c 4a3d 57d1 ed3e 604b d33d e453 223f
00000150: a7e0 eb3d b33d ef3d 5561 f33c 52c3 973d
00000160: c1c6 a4bd 1932 503d 3d8a 623c d190 133e
00000170: f37a ca3d ff31 573d 525e 4a3e 0544 cf3c
00000180: 9a7e a5bd bbf5 db3d abc9 c43d d3ee 53bb
00000190: 74ab df3d 3241 d43d 112a 6cbd 2d65 a43d
000001a0: 60e8 713d 3e24 553e a1f0 a23e b6d7 2a3e
000001b0: 8685 673d b524 d93c f566 1a3d e235 1b3e
000001c0: b6fe 7e3d df21 b73d afce f93d 2352 a93d
000001d0: 433d 003f 2056 423d af6d 973d 45ac 363e
000001e0: a7bb d73d 948a b03c 0d1d 4e3d da20 853c
000001f0: 1037 073e 4129 293d 2f83 053e 770b 293e
0.8538537 0.1282297 0.03831017 0.047412373 0.062030233 -0.06541237 0.34661347 -0.11705224
0.4831972 0.20712875 0.102603786 -0.03214343 -0.02408849 0.10408444 0.024762876 0.19877216
0.19906847 -0.039466273 -0.009625684 -0.042927206 0.0012433189 0.02278289 0.11861823 0.18619117
0.044222362 0.014105863 0.16763715 -0.07896517 0.22495188 -0.0129785435 0.016443778 -0.0033935108
-0.016008433 -0.042986296 0.13868412 0.21866822 0.119068995 0.10618465 0.19254598 -0.05146507
-0.05099273 0.14765617 0.010672068 -0.018234346 0.16100042 0.17123024 -0.041911736 0.043746352
0.12077844 -0.068432264 0.09123058 0.12634896 0.11753721 0.192394 0.15316528 0.19357271
-0.085246675 0.15428144 0.04477235 -0.051384453 0.10148114 0.046650007 -0.08061537 -0.10080107
0.1395167 0.043183118 -0.082102746 0.15948041 0.3775111 0.10895036 0.20112734 -0.032620326
0.1732837 0.13907 0.010444596 -0.07311042 0.35553646 -0.028659735 0.16443367 0.15284818
0.049450174 0.46448776 0.10317111 0.63409257 0.115174584 0.1168169 0.029709497 0.07410301
-0.08045722 0.050829027 0.013826904 0.14410712 0.09886732 0.052537914 0.19762543 0.025300989
-0.08080788 0.10740229 0.096087776 -0.0032338395 0.10921374 0.103639975 -0.057657305 0.0802711
0.0590595 0.20814607 0.3182421 0.1668385 0.056523822 0.026506761 0.037695844 0.15157273
0.06225463 0.08942007 0.12197625 0.082676195 0.5009348 0.047445416 0.07393967 0.17839153
0.10533839 0.021550454 0.050320674 0.016251016 0.13204598 0.04129911 0.13038324 0.1650828

net.4.weight f4 [4, 128]
00000000: 5078 f43e 9d76 1ebf 9d7c 8a3b 80fe 09bf
00000010: 295b f7be b53a 0a3d 9d18 713d 6660 123d
00000020: 73ae bf3f b018 01bf 4f2a d3be 50c5 963c
00000030: c692 8e3d c335 c4be 754c a7bd 6405 04bf
00000040: 2681 f3be 40d8 783d 8e77 743d 49bd 0d3c
00000050: 87b6 0e3c c4eb 443f 2926 06bf 7e58 ebbe
00000060: bd8a dfbc 7c55 94bd e590 0dbf fa0a 0cbd
00000070: 38c3 f4be 06e9 c23c ed6f 20bd 008a 8a3c
00000080: 7264 b13f 80eb 2dbd 51b3 f4be f447 e0be
00000090: eac1 fdbe 3412 dbbe 2962 f4be 1072 8a3d
000000a0: 3937 9cbd 45d3 ba3f 43bc 97bd 338e a13c
000000b0: 7da8 0abf 96c3 12bf f473 edbc 697c 8a3f
000000c0: 027c 16bf 1329 18bd d342 f9be e66c dabe
000000d0: 80bc e5be c023 17bf ea7a 0bbf e8c6 f5be
000000e0: d7b4 17bc 1926 b7be 284c a43f d1ba 7b3b
000000f0: 1bc5 f3be 284f 1ebd 9a05 8d3c 6ef4 f6bc
00000100: 2f81 27bf e8f7 0ebf a2d6 363d 1f96 0dbf
00000110: 10bf b13f 3517 0cbf 2550 04bf db47 aa3d
00000120: 2766 f5be 0db8 e1be d4d7 43bd d039 cd3c
00000130: f6d3 4a3f a264 7ebd f520 c3be e112 c0be
00000140: 2739 26bf e483 883f 19b1 16bf 02a9 e73e
00000150: 389b 1e3f 615e 0abf 6dd9 01bf 5f97 0abf
00000160: 77da b23c 0a82 803d 0679 043d b1cf 00bf
00000170: a0c8 d5be 5328 15bf 14d5 e1be baed bbbc
00000180: 36e9 51be 20e9 07bf da47 e1be 3f31 f8be
00000190: a9ba 07bf 135a 15bf 4d42 dfbb 6e32 2dbf
000001a0: a771 fbbe 5b98 06bf d95e 863f d86d 04bf
000001b0: 2daf 653d e97a 8f3d aef9 d0be 7637 893f
000001c0: c22c 07bf cd44 17bf e5ed f5be a44e e7be
000001d0: 89c9 0540 70fc 993f 657a 2cbf 3ea7 f3be
000001e0: 00de 1abf d119 22bf e091 5e3d 23ec 8e3b
000001f0: 049e f9be 0fd9 3abf a8e2 0abf 3c47 40bf
00000200: 85b5 743e 35e1 1ebf 511e d63c 9940 9fbe
00000210: ab45 c7be d62a 7fbb 5a38 303f 55ac 063d
00000220: 73f2 e03f 9bf4 54bf 3d48 40bf 9ebb 653c
00000230: 79cb 853d f0ac 16bf 7d1b 44bd 4ce7 45bf
00000240: 6ea9 98be dfb8 13bd 3428 933d 18d7 94bd
00000250: bd9b 1e3d ad5f b23d 0cfd 28bf 49ec 0abf
00000260: d096 d3bc 0ef7 51ba c7af 40bf e2e2 cb3c
00000270: 8bd3 19bf 6bdb d73c 1761 a4ba ab28 c6bd
00000280: de89 bc3f 5b88 613d 1751 f9be cf0a 1abf
00000290: 4349 42bf 8482 c2be bb49 4dbf 5af1 543d
000002a0: ec6f 9ebd 8f81 e23f 5b3e 763d a206 043d
000002b0: 0fa5 b8be ad60 18bf 3b06 1b3d eb96 c83f
000002c0: 850c 00bf 9e03 163d 8555 34bf 9b4c dabe
000002d0: 5bd9 1dbf f580 27bf 1b2a 08bf c32c e7be
000002e0: efff cdbc fd8c 2fbf 1b3c 173e 2db4 da3c
000002f0: 61e9 47bf 7ed2 3a3d 0060 483b 5d34 bc3c
00000300: a2a1 02bf 2822 cfbe f5a9 873d e2d5 93be
00000310: 9232 b13f b9ef 15bf d6d4 afbe 65eb bd3c
00000320: ce62 a2be d891 2bbe accb 843d 9d07 983d
00000330: 1c42 0e3f d495 14bd def6 f7be ca21 2ebf
00000340: aeee 07bf cfff 57bd e8d3 20bf b477 5d3f
00000350: ef56 bfbe bb0f d6be dabe 91be b24e c4be
00000360: cf72 7abc 9c1c 333c 152e 9dbd eda4 c6be
00000370: abf6 a9be 3043 c5be 5481 4dbf 3971 283d
00000380: 221a 243f fe49 acbe acd2 30bf ca77 7dbe
00000390: 0648 09bf d143 afbe 824d b03c f422 91be
000003a0: 1d8b 2abf 6132 30bf 0f29 3f3f c87a d8be
000003b0: bb74 b63c 3507 9ebd 80f0 79bf 6fbc 463f
000003c0: 04cf cebe dd8e 86be 5886 e5be 0a8d bfbe
000003d0: 6c42 0e40 306d 7a3f 14d3 4ebf ea00 1dbf
000003e0: 668a 02bf 2715 ecbe 9dd5 943d d9eb 15bd
000003f0: 8fea 07bf a6de bfbe a9d3 95be 343f cebe
0.4774804 -0.6189974 0.004226281 -0.5390396 -0.48311737 0.033747394 0.058861364 0.035736464
1.4975113 -0.50428295 -0.41243216 0.018404633 0.069615886 -0.38322267 -0.0816888 -0.51570725
-0.4755947 0.060753107 0.05968433 0.008651086 0.00871051 0.7692225 -0.5240198 -0.45965952
-0.027287835 -0.07242867 -0.55299217 -0.034190156 -0.4780519 0.023792755 -0.03916924 0.016911507
1.3858778 -0.04246092 -0.47793058 -0.43804896 -0.49562007 -0.42787325 -0.4773114 0.06760037
-0.076277204 1.4595724 -0.07408955 0.019721126 -0.5416334 -0.5732969 -0.028985955 1.0819217
-0.5878297 -0.037148546 -0.48683795 -0.42661208 -0.44870377 -0.59038925 -0.54484427 -0.48003316
-0.009259424 -0.35771254 1.2835741 0.0038410912 -0.47611317 -0.038649708 0.017214585 -0.03014585
-0.65431494 -0.55847025 0.044638284 -0.5530719 1.3886433 -0.5472291 -0.5168479 0.083144866
-0.479295 -0.44085732 -0.04781325 0.025051981 0.79229677 -0.06210769 -0.38111082 -0.37514403
-0.6493096 1.066525 -0.5886398 0.4524613 0.61955595 -0.5405026 -0.5072239 -0.54137224
0.021832688 0.06274803 0.03234198 -0.5031691 -0.41754627 -0.58264655 -0.44107878 -0.022940505
-0.20499119 -0.53090096 -0.4400013 -0.48475072 -0.53019196 -0.5834057 -0.0068133236 -0.67655075
-0.49110147 -0.52576226 1.0497695 -0.5173011 0.056075264 0.07005865 -0.4081549 1.072005
-0.5280267 -0.59089357 -0.48033062 -0.45177186 2.0904257 1.2030163 -0.6737426 -0.47588533
-0.60494995 -0.6332064 0.054338336 0.004361646 -0.4875337 -0.72987455 -0.542521 -0.75108695
0.23897369 -0.6206239 0.026137503 -0.31103972 -0.3892034 -0.0038935444 0.68835986 0.032879192
1.757399 -0.8318574 -0.75110227 0.014021782 0.0653295 -0.5885763 -0.047877777 -0.77306056
-0.29816765 -0.03606498 0.071854025 -0.072675884 0.038722742 0.08709655 -0.6601112 -0.5426679
-0.025828749 -0.00080095313 -0.75268215 0.02488846 -0.60088414 0.026349744 -0.0012541142 -0.096757255
1.4729574 0.05506168 -0.4869468 -0.6017274 -0.7589304 -0.379902 -0.8019063 0.051987983
-0.07736191 1.7695788 0.06011806 0.032232888 -0.3606343 -0.59522516 0.03784774 1.5671057
-0.50019103 0.036624543 -0.7044299 -0.4263657 -0.61659783 -0.6543115 -0.5318925 -0.45151338
-0.025146453 -0.68574506 0.14769022 0.026697243 -0.7809048 0.045610897 0.0030574799 0.022974188
-0.5102788 -0.40455747 0.066242136 -0.28874117 1.3843558 -0.5856891 -0.34342068 0.023183534
-0.31716007 -0.16754854 0.0648416 0.07423327 0.55569625 -0.0362757 -0.48430532 -0.6802031
-0.5309857 -0.052734192 -0.62823343 0.8651078 -0.37371013 -0.41808876 -0.2846592 -0.3834129
-0.015286162 0.010932114 -0.07674805 -0.38797703 -0.33196005 -0.38527822 -0.80275464 0.041123603
0.64102376 -0.33650202 -0.6907146 -0.24752727 -0.53625524 -0.34231427 0.021521334 -0.2834698
-0.6661852 -0.6882687 0.74672025 -0.42281175 0.022272458 -0.077162184 -0.976326 0.77631277
-0.40392315 -0.2628087 -0.4482906 -0.37412292 2.222804 0.97822857 -0.8079083 -0.6132952
-0.5099243 -0.46109888 0.07267306 -0.036601875 -0.53092283 -0.37474555 -0.29263046 -0.40282595

net.4.bias f4 [4]
00000000: d0fe 503f 195e db3e 2635 0c3f ad46 60bd
0.81638813 0.42845228 0.547686 -0.0547549
