src/agent.pt (torch, 114071 bytes, 6 tensors)

net.0.weight f4 [200, 8]
0.009923591 0.20295154 -0.3064423 -0.27761286 -0.09852433 0.12144013 0.019479183 0.30808768
0.0018984231 0.10023331 -0.083438665 -0.06659881 -0.30293348 -0.23987857 -0.114819854 0.043091085
0.15895441 0.22627266 -0.2532955 -0.17604844 0.16399941 0.31044236 -0.0452954 0.29195526
-0.025422273 0.023756675 0.34869766 -0.3545247 -0.19484445 -0.11216064 -0.107882395 0.33693162
-0.20972542 -0.15956767 -0.255827 -0.35546565 -0.17025866 0.34099242 0.18828902 0.19975223
0.051539764 -0.21447752 0.09098816 -0.3554675 -0.22527969 -0.20209824 0.25557557 0.23953737
-0.12636243 0.004371362 0.24574307 0.38176817 0.17410913 0.080263935 0.26522028 -0.18000536
0.06457614 -0.25181258 -0.26238984 -0.21526644 0.19421501 0.15355335 -0.20942824 0.13858788
0.19598258 -0.04094617 0.013863935 0.08421896 0.21826689 0.3403101 -0.2724566 -0.12956661
0.1685579 0.29571775 0.33234105 0.29297748 0.102780946 -0.32845294 0.056924734 -0.19786474
-0.3010771 0.31845698 0.29804796 -0.3827152 0.06488612 -0.08366056 -0.030677246 -0.13372707
0.14911762 -0.2171494 0.13217276 0.18164153 0.28135788 0.16187935 -0.34992424 -0.22934899
0.17100833 0.10794328 -0.284672 -0.23665147 0.37484217 0.26917022 -0.15415816 -0.0599167
-0.34316757 0.02473245 -0.29375476 -0.29008597 -0.004096013 0.068455346 -0.13788551 0.21426967
-0.18751483 0.33264604 0.26961568 -0.32558018 -0.073705025 -0.010684376 0.080347076 0.10801534
0.17284888 0.03701144 -0.13923016 0.15667586 -0.3081417 -0.22246103 -0.07062389 -0.15433952
-0.089292824 -0.32474098 -0.042469848 0.060387213 -0.19999978 -0.033196032 0.28137708 -0.0071572373
0.040136546 -0.011929193 0.06375702 0.22479431 0.37742275 0.26313895 0.36841607 0.010360215
-0.29897678 -0.18824528 0.25912094 -0.021298634 -0.15264548 -0.29006544 -0.31172934 -0.27925763
-0.06261693 0.20322761 0.1936124 -0.35069937 0.22238362 -0.29160163 -0.053963907 -0.13987514
-0.06557732 -0.038847506 -0.31212604 -0.3353736 -0.03543373 -0.00032147893 -0.14518948 0.15186362
-0.3267813 -0.013383153 0.2982456 -0.17711405 0.35862175 0.13328965 -0.31906813 0.2518316
-0.01463522 -0.17341149 0.30844918 -0.31352723 0.054064307 -0.09364593 0.2777326 0.12425672
0.19754401 0.15214433 -0.0696925 -0.10040794 -0.25649554 0.17538036 0.3102951 0.27136442
-0.22617075 0.031454973 -0.26517954 -0.21259266 -0.16961655 0.14668155 -0.17302288 0.025740687
0.039085824 0.2514016 -0.2733097 -0.2667091 -0.16718364 0.27480724 -0.097140625 0.32778147
0.1536336 0.06512711 0.0029361956 -0.089878276 0.076741785 -0.092659056 0.022211695 0.07044711
-0.2470678 -0.19364865 0.2971209 -0.30254516 0.01065004 0.38207707 0.15796262 0.036782555
-0.27696824 0.18804556 -0.23356038 -0.12770796 -0.08628555 -0.071278244 0.03380532 0.32186985
0.07243231 0.32754946 0.20871836 -0.23968896 0.19617808 -0.26185855 -0.116907544 0.13270979
0.11666652 0.2644176 -0.11295008 0.0042853607 0.16855927 -0.34092876 0.25490588 -0.2935732
-0.02930372 -0.025006933 -0.22120363 0.026777731 0.3263944 -0.06847654 -0.20990255 -0.13075776
00000000: 8f96 223c 87d2 4f3e 01e6 9cbe 4623 8ebe
00000010: 20c7 c9bd 9ab5 f83d cf92 9f3c abbd 9d3e
00000020: 82d4 f83a 1f47 cd3d e4e1 aabd f564 88bd
00000030: 191a 9bbe baa2 75be ac26 ebbd 4780 303d
00000040: f2c4 223e 05b4 673e f3af 81be 0b46 34be
00000050: 76ef 273e 4df2 9e3e ab87 39bd 297b 953e
00000060: 5f42 d0bc 5c9d c23c 8088 b23e 4384 b5be
00000070: 4e85 47be 7ab4 e5bd 72f1 dcbd 4d82 ac3e
00000080: 43c2 56be b565 23be c2fb 82be 98ff b5be
00000090: 4958 2ebe 8f96 ae3e d6ce 403e d98b 4c3e
000000a0: 5c1b 533d ff9f 5bbe 0058 ba3d d6ff b5be
000000b0: b8af 66be d7f2 4ebe cdda 823e 4949 753e
000000c0: 2765 01be a43d 8f3b 12a4 7b3e 1e77 c33e
000000d0: aa49 323e 6b61 a43d f4ca 873e 5353 38be
000000e0: 7f40 843d 94ed 80be f657 86be ce6e 5cbe
000000f0: 4de0 463e 173d 1d3e 5b74 56be fbe9 0d3e
00000100: a8af 483e 2cb7 27bd 8f25 633c fd7a ac3d
00000110: 5b81 5f3e 203d ae3e 6e7f 8bbe 1cad 04be
00000120: 719a 2c3e 5168 973e 9b28 aa3e 2501 963e
00000130: d17e d23d fc2a a8be e929 693d 0e9d 4abe
00000140: c726 9abe cb0c a33e be99 983e 3ff3 c3be
00000150: 04e3 843d 3a56 abbd d94e fbbc c0ef 08be
00000160: 4ab2 183e 6a5c 5ebe 4c58 073e 3d00 3a3e
00000170: 240e 903e b3c3 253e 4529 b3be 76da 6abe
00000180: cf1c 2f3e 5e11 dd3d 87c0 91be c354 72be
00000190: 50eb bf3e aed0 893e a3db 1dbe 376b 75bd
000001a0: a9b3 afbe b59b ca3c 0667 96be 2686 94be
000001b0: d937 86bb 5132 8c3d dc31 0dbe 8269 5b3e
000001c0: e303 40be 9550 aa3e 110b 8a3e 72b2 a6be
000001d0: a9f2 96bd 850d 2fbc 028d a43d 2637 dd3d
000001e0: 4cff 303e 4f99 173d 5a92 0ebe a36f 203e
000001f0: c0c4 9dbe d3cc 63be 42a3 90bd 2e0b 1ebe
00000200: 28df b6bd 7344 a6be ddf4 2dbd 9558 773d
00000210: becc 4cbe 90f8 07bd a810 903e 4287 eabb
00000220: 3866 243d a972 43bc 0a93 823d 7b30 663e
00000230: 8e3d c13e 26ba 863e 08a1 bc3e e4bd 293c
00000240: 7c13 99be 5fc3 40be 80ab 843e 797a aebc
00000250: 194f 1cbe 7583 94be fd9a 9fbe dbfa 8ebe
00000260: 4e3d 80bd e61a 503e 5442 463e de8e b3be
00000270: 88b8 633e cf4c 95be 4209 5dbd 6e3b 0fbe
00000280: 674d 86bd 901e 1fbd fcce 9fbe 17b6 abbe
00000290: f522 11bd 2c8c a8b9 8dac 14be 2382 1b3e
000002a0: e14f a7be 0345 5bbc a6b3 983e 635d 35be
000002b0: 459d b73e 157d 083e e65c a3be 12f0 803e
000002c0: 90c8 6fbc c892 31be 0ded 9d3e a486 a0be
000002d0: 8972 5d3d 70c9 bfbd f832 8e3e 4f7a fe3d
000002e0: fa48 4a3e b9cb 1b3e f1ba 8ebd aea2 cdbd
000002f0: 6253 83be e996 333e 00df 9e3e 47f0 8a3e
00000300: 4e99 67be eed6 003d 9dc5 87be e4b1 59be
00000310: f6af 2dbe b033 163e e92c 31be 22de d23c
00000320: 7518 203d b6b7 803e 40ef 8bbe 188e 88be
00000330: 3032 2bbe 89b3 8c3e aaf1 c6bd f9d2 a73e
00000340: 2052 1d3e 5d61 853d 306d 403b 1a12 b8bd
00000350: cc2a 9d3d 08c4 bdbd 4df5 b53c 9346 903d
00000360: 57ff 7cbe d54b 46be 3b20 983e 33e7 9abe
00000370: 817d 2e3c 9b9f c33e f4c0 213e 4ea9 163d
00000380: c8ce 8dbe 048f 403e 742a 6fbe e0c5 02be
00000390: 7ab6 b0bd 54fa 91bd 7277 0a3d 20cc a43e
000003a0: 6457 943d 90b4 a73e 44ba 553e 0671 75be
000003b0: e8e2 483e 5312 86be 396d efbd 13e5 073e
000003c0: dbee ee3d be61 873e 5f52 e7bd 366c 8c3b
000003d0: cd9a 2c3e 378e aebe 0683 823e 3a4f 96be
000003e0: 5b0e f0bc 57db ccbc 3483 62be f95c db3c
000003f0: 2b1d a73e 6e3d 8cbd b2f0 56be 5de5 05be

net.0.bias f4 [200]
-0.15590802 0.32506368 0.21915564 -0.029088417 0.048735455 -0.0048632766 0.1134256 0.03580115
-0.2125179 0.095519274 0.035601374 0.04830893 -0.10160715 0.09657935 -0.2577904 0.13998301
0.22583935 -0.0018827902 -0.2555992 0.011086793 0.023059133 -0.27199593 -0.22308826 0.35637438
0.29474333 0.22898345 0.27460477 0.16991419 0.23164521 0.26997936 -0.083829455 -0.009585727
0.27076316 0.03541689 -0.25090036 -0.24975684 0.22558169 0.29064286 0.31099302 0.0912842
0.26523677 -0.29871556 -0.22914618 -0.31267124 0.2998894 0.031297624 -0.16279885 0.14527677
-0.10632914 -0.19993871 0.17024356 0.10172291 -0.23046942 -0.21282052 0.17901771 0.30238998
0.0410262 -0.15021448 0.20450164 0.095238246 -0.28678823 -0.2055218 0.092363834 0.24106883
-0.10414431 0.20626928 -0.1972841 0.3730185 0.28388235 0.09939299 0.19147025 0.15079112
-0.2056022 0.031395275 0.13131371 -0.0581826 0.37342548 -0.10324963 -0.29071784 -0.14022267
-0.32812753 0.32339597 -0.1257795 -0.2100966 -0.005385744 -0.22997859 -0.15237373 0.2048455
-0.26544634 0.20322292 0.29123792 0.03147054 0.18928924 -0.16745406 0.30422506 0.3774769
0.11710972 0.35709196 -0.326368 -0.025945105 0.09984968 -0.29725403 0.20069158 -0.10213164
-0.11359457 -0.24849981 0.17159861 -0.22592337 -0.05230063 0.19060034 0.30142033 0.114246346
-0.10780848 -0.14570267 0.23367682 0.09721301 0.31319258 0.16281956 0.2830228 -0.26251978
0.30096155 -0.12963256 -0.07159497 0.03387935 -0.047506012 0.102555424 0.34362808 -0.20575395
0.14393623 -0.28356522 0.080020726 0.3274443 0.27170816 0.337565 0.22459368 0.0064662094
0.12620522 -0.11573447 0.31899253 0.20907415 -0.2587728 0.33401138 0.0041654585 0.007785419
-0.066513516 -0.070052855 0.036440667 -0.1527751 -0.3058184 -0.15418486 -0.03642549 0.29832247
0.2956759 -0.18136092 0.019448213 -0.07157613 -0.15602069 -0.06476183 -0.08981619 0.2283186
-0.14156644 0.08487022 -0.17251404 -0.08663161 0.3127972 -0.14333878 -0.0026132264 0.36973506
0.15346587 -0.17375652 -0.17193283 -0.09173398 -0.091569446 0.1833697 -0.0662822 0.33117136
-0.19679505 -0.0914631 0.15602148 0.3071107 0.3615035 0.089898564 0.024598997 -0.13830554
0.23268726 -0.1745403 -0.059678853 -0.2696181 -0.33988613 0.22492374 0.05057702 0.31320363
0.31755495 0.21916868 0.17388557 -0.07754162 0.22204189 0.20411867 0.15463404 0.026240332
00000000: 5aa6 1fbe bf6e a63e 566a 603e d54a eebc
00000010: d49e 473d 1f5c 9fbb ae4b e83d 3aa4 123d
00000020: 4b9e 59be 9c9f c33d bfd2 113d 96df 453d
00000030: 6917 d0bd 65cb c53d 1afd 83be b557 0f3e
00000040: 6e42 673e f5c7 f6ba e6dd 82be 61a5 353c
00000050: 82e6 bc3c 0d43 8bbe 4071 64be b476 b63e
00000060: 99e8 963e a37a 6a3e ff98 8c3e fcfd 2d3e
00000070: 6734 6d3e bc3a 8a3e c7ae abbd 740d 1dbc
00000080: 78a1 8a3e 4d11 113d 0376 80be 42c0 7fbe
00000090: e3fe 663e 24cf 943e 7a3a 9f3e 36f3 ba3d
000000a0: 1dcd 873e 3ff1 98be 4ca5 6abe 7216 a0be
000000b0: 1a8b 993e f031 003d beb4 26be 6fc3 143e
000000c0: 18c3 d9bd bcbc 4cbe 5454 2e3e 1a54 d03d
000000d0: 2d00 6cbe 9fed 59be 6b50 373e dcd2 9a3e
000000e0: 170b 283d d3d1 19be e168 513e 450c c33d
000000f0: e8d5 92be 4f74 52be 4029 bd3d bfda 763e
00000100: 9d49 d5bd 4138 533e d804 4abe 48fc be3e
00000110: 0759 913e 8d8e cb3d c710 443e fd68 1a3e
00000120: 6289 52be 5598 003d 1a77 063e e150 6ebd
00000130: a031 bf3e 8b74 d3bd f8d8 94be 8896 0fbe
00000140: 5500 a8be 2894 a53e 57cc 00be 9023 57be
00000150: e57a b0bb 827f 6bbe dc07 1cbe 05c3 513e
00000160: 95e8 87be ab19 503e 231d 953e 41e7 003d
00000170: 0ad5 413e 1479 2bbe 63c3 9b3e a744 c13e
00000180: 39d7 ef3d c2d4 b63e b519 a7be d48a d4bc
00000190: fd7d cc3d ae31 98be 1882 4d3e 652a d1bd
000001a0: 45a4 e8bd bc76 7ebe 8cb7 2f3e 7558 67be
000001b0: 2f39 56bd bc2c 433e c453 9a3e fdf9 e93d
000001c0: b1ca dcbd 1533 15be fa48 6f3e 9d17 c73d
000001d0: c75a a03e 2cba 263e 5de8 903e fe68 86be
000001e0: a217 9a3e 66be 04be 62a0 92bd 13c5 0a3d
000001f0: aa95 42bd 9408 d23d 05f0 af3e 2ab1 52be
00000200: 0564 133e 762f 91be e8e1 a33d c7a6 a73e
00000210: 551d 8b3e 52d5 ac3e e3fb 653e 7fe2 d33b
00000220: f13b 013e 3206 edbd fd52 a33e 8917 563e
00000230: de7d 84be 8a03 ab3e 667e 883b d41c ff3b
00000240: 3d38 88bd df77 8fbd cf42 153d 1371 1cbe
00000250: 3b94 9cbe a3e2 1dbe e532 15bd b9bd 983e
00000260: d562 973e adb6 39be dc51 9f3c 8296 92bd
00000270: e3c3 1fbe daa1 84bd 8df1 b7bd 5acc 693e
00000280: cbf6 10be 70d0 ad3d 85a7 30be ea6b b1bd
00000290: f426 a03e 67c7 12be aa42 2bbb ea4d bd3e
000002a0: 2826 1d3e 3bed 31be 290f 30be 06df bbbd
000002b0: c388 bbbd 44c5 3b3e f6be 87bd 4b8f a93e
000002c0: a484 49be 0151 bbbd 18c4 1f3e 9d3d 9d3e
000002d0: fd16 b93e bd1c b83d d683 c93c f89f 0dbe
000002e0: 9245 6e3e b1ba 32be d071 74bd 620b 8abe
000002f0: 8e05 aebe 6952 663e d929 4f3d 3a5c a03e
00000300: 9096 a23e c16d 603e 0f0f 323e 24ce 9ebd
00000310: f35e 633e 7c04 513e 6358 1e3e f7f5 d63c

net.2.weight f4 [128, 200]
0.04144193 0.026627164 -0.02184344 0.044491917 -0.022593338 0.05963666 -0.016495232 -0.0030340687
-0.027548147 0.076576546 -0.021602474 0.06068255 0.058886368 0.07427605 0.046065968 0.060595356
0.08194474 0.039500587 0.043399703 -0.031600423 0.0030290228 0.032265775 0.034105994 0.0023078346
-0.040145386 0.011235464 0.054584842 0.089404635 -0.03582042 0.060972463 -0.04848393 -0.06308733
-0.016249156 0.019050308 0.04180394 -0.037902795 0.07959845 0.091377065 0.03162615 0.0845293
-0.0046851328 -0.0054385457 0.01362604 0.002831996 -0.022426102 -0.027661001 0.027933076 0.046785343
0.0860422 -0.024927834 0.049591605 0.0008942101 0.05353153 0.019561378 0.07628972 0.066892006
0.08090209 0.05653561 0.02962653 0.08533987 -0.014515489 0.08723668 0.09503802 0.09557143
-0.009406304 -0.012047817 0.02295388 0.048539802 0.05983333 0.054943953 0.08653826 0.008473362
-0.005700151 0.051320426 0.04613006 -0.022242194 0.034182243 -0.03487615 0.0049437447 -0.008841296
0.0619838 -0.037543476 -0.020600135 -0.074234 0.04480402 -0.04026864 0.04548975 -0.023657626
-0.04529591 -0.008709084 0.036816917 0.079311535 0.09277757 0.02172714 -0.04490485 0.0032729306
0.0029027946 0.013010003 0.05476693 0.055692963 0.058167964 0.03873232 -0.0028610106 0.03107777
0.029061444 -0.012605605 0.016379425 0.015850263 -0.045019407 0.076314434 0.018565072 -0.032574568
0.08116441 -0.016641377 0.050471283 0.09194188 0.030627087 0.046853196 0.054745346 0.07199161
0.004294264 -0.019616162 0.012392609 0.08342373 0.027050124 0.07756691 0.026016118 0.039932378
0.028411124 0.0013333393 -0.03904536 -0.03287162 0.03385093 0.06374721 0.0738906 0.031618893
0.054152098 0.05470186 -0.033544563 -0.03655273 -0.054825246 0.027334014 -0.017205229 -0.00026081808
0.009951804 0.04686166 0.034939718 0.088403165 0.08202931 -0.019972613 0.027435923 0.036080487
0.090486415 0.001691658 -0.0037955234 -0.0235073 0.07371992 0.0017524357 -0.0024171295 0.07619002
0.091035224 0.021723669 -0.022892404 0.08419298 0.0010032179 -0.011765981 -0.023443878 -0.0063060327
-0.025735233 -0.020673906 -0.05439317 -0.012215729 0.048539903 -0.025142029 0.02409461 0.0003030073
0.059476558 0.079404905 0.012253174 -0.008815217 -0.025156522 -0.01647465 0.012283319 0.03516745
0.064098924 0.012373238 0.057770174 -0.04406513 0.019008383 0.097046725 -0.0420551 -0.009063336
0.07186224 0.019255858 -0.015580001 0.06791981 0.03165247 0.030268846 0.005145077 0.08089517
0.052449312 0.04148463 0.040020715 0.040511936 0.06435592 -0.01768926 0.024328656 0.055783086
-0.0052970108 0.09655955 -0.04194382 0.059965916 -0.032629747 0.042875696 0.04321613 0.038283687
0.025311029 0.085664116 -0.036453146 -0.044112697 -0.051408596 -0.020279877 0.014700827 -0.0024105725
0.04579242 0.029712657 0.08929754 0.0012243264 0.0076307906 0.07552184 -2.8825802e-05 0.10030131
0.0006952507 0.035180718 -0.00053452724 0.05150114 0.058025748 -0.010861753 0.073109865 0.02774853
0.01501421 0.015272255 0.07428883 0.09445756 0.061637264 0.04995411 0.04614821 -0.0021849845
-0.022950483 -0.012383967 -0.017122054 0.06631609 0.021038251 -0.017998619 0.024496451 0.026741534
00000000: 03bf 293d 3621 da3c 04f1 b2bc 283d 363d
00000010: aa15 b9bc 9245 743d 0221 87bc 3ad7 46bb
00000020: a7ac e1bc 2ad4 9c3d acf7 b0bc 448e 783d
00000030: d532 713d 0b1e 983d abaf 3c3d d632 783d
00000040: a5d2 a73d 5ecb 213d e3c3 313d 726f 01bd
00000050: 9282 463b 1e29 043d bab2 0b3d 0a3f 173b
00000060: 7d6f 24bd f414 383c 5b94 5f3d c719 b73d
00000070: 6fb8 12bd 43be 793d 1697 46bd ee33 81bd
00000080: f31c 85bc 640f 9c3c 9c3a 2b3d f63f 1bbd
00000090: 8304 a33d e623 bb3d 6c8a 013d b31d ad3d
000000a0: be85 99bb d435 b2bb c13f 5f3c 0299 393b
000000b0: f2b6 b7bc 5399 e2bc e8d3 e43c fda1 3f3d
000000c0: e536 b03d 7535 ccbc 9120 4b3d 6d69 6a3a
000000d0: e143 5b3d 2f3f a03c c93d 9c3d adfe 883d
000000e0: ffaf a53d e291 673d 56b3 f23c abc6 ae3d
000000f0: 60d2 6dbc 25a9 b23d 4ba3 c23d f4ba c33d
00000100: e61c 1abc 3564 45bc c609 bc3c acd1 463d
00000110: cb13 753d e90c 613d f93a b13d dbd3 0a3c
00000120: 55c8 babb 5e35 523d e0f2 3c3d 4335 b6bc
00000130: ae02 0c3d 4bda 0ebd 23ff a13b 15db 10bc
00000140: bae2 7d3d 30c7 19bd 9dc1 a8bc ff07 98bd
00000150: 6c84 373d bbf0 24bd 7653 3a3d a3cd c1bc
00000160: 3488 39bd 8cb0 0ebc 56cd 163d 166e a23d
00000170: 2b02 be3d 1dfd b13c 26ee 37bd aa7e 563b
00000180: d03c 3e3b e827 553c 4a53 603d 4e1e 643d
00000190: 8841 6e3d c8a5 1e3d cb7f 3bbb cf96 fe3c
000001a0: 4412 ee3c bd87 4ebc 252e 863c 69d8 813c
000001b0: 4566 38bd be4a 9c3d c715 983c e96c 05bd
000001c0: 8739 a63d 7f53 88bc faba 4e3d 064c bc3d
000001d0: a8e5 fa3c 23e9 3f3d a83c 603d 5670 933d
000001e0: e6b6 8c3b 13b2 a0bc 5f0a 4b3c 10da aa3d
000001f0: 3998 dd3c 66db 9e3d c11f d53c 2290 233d
00000200: 72be e83c 71c3 ae3a 07ee 1fbd 64a4 06bd
00000210: 46a7 0a3d e68d 823d f453 973d d082 013d
00000220: 97ce 5d3d 0f0f 603d 0666 09bd 51b8 15bd
00000230: 7090 60bd 95eb df3c fbf1 8cbc 69be 88b9
00000240: e40c 233c 03f2 3f3d f31c 0f3d b80c b53d
00000250: fcfe a73d 9b9d a3bc 4dc1 e03c 22c9 133d
00000260: f150 b93d a0ba dd3a 51be 78bb 6292 c0bc
00000270: 78fa 963d fcb1 e53a b468 1ebb 8309 9c3d
00000280: ad70 ba3d d6f5 b13c da88 bbbc 5e6d ac3d
00000290: 687e 833a 1ac6 40bc 600d c0bc d6a2 cebb
000002a0: b2d2 d2bc 535c a9bc 5fcb 5ebd 7b24 48bc
000002b0: c7d1 463d a8f6 cdbc 0f62 c53c f4dc 9e39
000002c0: b19d 733d 0a9f a23d 89c1 483c b36d 10bc
000002d0: 0d15 cebc d8f5 86bc f93f 493c be0b 103d
000002e0: 4c46 833d 1fb9 4a3c 6ba0 6c3d a37d 34bd
000002f0: 78b7 9b3c 6fc0 c63d f841 2cbd 637e 14bc
00000300: 832c 933d 76be 9d3c 4343 7fbc 8b19 8b3d
00000310: 05a6 013d 5ff6 f73c 0998 a83b 5eac a53d
00000320: 17d5 563d caeb 293d c3ec 233d d8ef 253d
00000330: 09cd 833d 11e9 90bc e44c c73c ce7c 643d
00000340: 8c92 adbb 03c1 c53d 48cd 2bbd d29e 753d
00000350: c5a6 05bd 6d9e 2f3d 6603 313d 5bcf 1c3d
00000360: 1359 cf3c ab70 af3d e54f 15bd 84af 34bd
00000370: d291 52bd fc21 a6bc bddb 703c b2fa 1dbb
00000380: d590 3b3d f567 f33c a1e1 b63d 9479 a03a
00000390: b60b fa3b 32ab 9a3d f0ce f1b7 c66a cd3d
000003a0: 7c41 363a a819 103d 841f 0cba dcf2 523d
000003b0: 68ac 6d3d 7ef5 31bc a0ba 953d e350 e33c
000003c0: 29fe 753c 7b38 7a3c be24 983d f772 c13d
000003d0: 5b77 7c3d ae9c 4c3d e805 3d3d f531 0fbb
000003e0: a702 bcbc 1fe6 4abc 8d43 8cbc bbd0 873d
000003f0: 6958 ac3c d771 93bc c8ac c83c 1011 db3c

net.2.bias f4 [128]
0.063855104 -0.018888183 0.072577246 0.012685236 0.007161416 -0.07158223 -0.035067506 0.059948966
-0.013557311 0.004557982 0.00543225 -0.035048895 0.06464965 -0.013109987 -0.003181159 0.086335175
0.021220377 -0.048206106 -0.074565515 -0.067499496 -0.022786964 0.055817124 -0.050555065 -0.053657416
0.015647693 0.05254492 -0.0047123353 0.0031745408 0.033204716 0.04580301 0.001507388 -0.016070519
0.016698815 0.019052355 0.048720397 -0.019167524 -0.002254674 0.08024814 0.008940127 0.04272587
-0.04036688 0.013740518 0.07448575 -0.008375673 -0.0104763685 0.07649758 0.044658244 0.03410846
-0.03388066 0.006127078 -0.015312401 -0.034815975 -0.052738123 0.028750781 -0.065389544 -0.031921677
-0.07368534 0.055177063 -0.0086304275 -0.030926235 0.09456915 -0.043439914 0.040261243 -0.000231355
0.008358826 -0.053212367 -0.018869035 -0.017325325 -0.0053837867 -0.040430255 -0.026854051 0.090689614
0.057641305 -0.06857662 0.02702235 0.06938744 0.023918224 0.003350786 0.038970266 0.057549488
0.060052734 -0.026894141 0.021171097 -0.0077458355 -0.026453624 0.034897294 0.03618748 0.02577528
-0.028210273 0.031126179 0.06590161 -0.0055682478 -0.049977977 0.017895002 -0.0023107547 -0.0024302017
0.0355372 0.029665494 -0.02190344 -0.024354048 0.084625565 -0.052510563 -0.03894387 -0.026007961
0.08411413 -0.057385188 0.030461438 0.026069753 0.032696027 0.030798702 -0.003020921 -0.011412088
-0.008870877 -0.013642605 0.00031554225 0.08864715 0.0744149 0.02933462 -0.042811964 0.071619436
-0.0058827084 -0.057620864 0.03234709 0.0166106 0.012723623 0.03253307 -0.019481549 0.07173428
00000000: 77c6 823d 64bb 9abc 61a3 943d bcd5 4f3c
00000010: 50aa ea3b b499 92bd f2a2 0fbd 0c8d 753d
00000020: 7c1f 5ebc 205b 953b 0401 b23b 6e8f 0fbd
00000030: 0967 843d 45cb 56bc fe7a 50bb 7fd0 b03d
00000040: 5bd6 ad3c c473 45bd ceb5 98bd 2d3d 8abd
00000050: baab babc 7fa0 643d d412 4fbd e1c7 5bbd
00000060: 972f 803c 5839 573d ef69 9abb f50b 503b
00000070: ab01 083d f09b 3b3d 8c93 c53a 52a6 83bc
00000080: f4cb 883c af13 9c3c 0a8f 473d 3605 9dbc
00000090: 27c3 13bb 2359 a43d 9c79 123c 5201 2f3d
000000a0: be57 25bd e91f 613c fc8b 983d 1e3a 09bc
000000b0: 13a5 2bbc c3aa 9c3d 90eb 363d 50b5 0b3d
000000c0: 72c6 0abd a8c5 c83b dde0 7abc 329b 0ebd
000000d0: ee03 58bd c286 eb3c f4ea 85bd 4ec0 02bd
000000e0: 57e8 96bd 5801 623d a366 0dbc 0459 fdbc
000000f0: 78ad c13d 0dee 31bd f9e8 243d e397 72b9
00000100: 75f3 083c 36f5 59bd 3c93 9abc d7ed 8dbc
00000110: 7a6a b0bb 329a 25bd 07fd dbbc 7abb b93d
00000120: 4a19 6c3d e671 8cbd fa5d dd3c 011b 8e3d
00000130: 27f0 c33c dc98 5b3b 499f 1f3d 03b9 6b3d
00000140: dbf9 753d 1a51 dcbc 026f ad3c c7d0 fdbb
00000150: 45b5 d8bc 77f0 0e3d 5339 143d ae26 d33c
00000160: 3b19 e7bc 54fc fe3c 6cf7 863d d975 b6bb
00000170: b5b5 4cbd 8a98 923c 0870 17bb 0544 1fbb
00000180: 748f 113d 0d05 f33c d86e b3bc 2482 c7bc
00000190: 2b50 ad3d 5115 57bd 9c83 1fbd a60e d5bc
000001a0: 0744 ac3d bb0c 6bbd 448a f93c 3c90 d53c
000001b0: 45ec 053d 8f4d fc3c a5fa 45bb c4f9 3abc
000001c0: 2857 11bc 3c85 5fbc 5d6f a539 a38c b53d
000001d0: d766 983d 284f f03c 995b 2fbd 36ad 923d
000001e0: bcc3 c0bb db03 6cbd 627e 043d f412 883c
000001f0: be76 503c 6541 053d c597 9fbc 6ce9 923d

net.4.weight f4 [4, 128]
-0.009872851 0.042841118 -0.044862185 -0.07019872 -0.04580139 -0.04365699 -0.044168502 -0.043147948
-0.061897345 -0.02094676 -0.07160775 0.004684113 0.04844792 -0.09155992 -0.07138469 0.026574165
-0.086059265 -0.015729457 0.056944713 -0.07967092 0.081411235 0.016409567 -0.025370494 -0.043308213
-0.101406306 -0.05781583 -0.017909694 -0.032887027 -0.03736226 0.04165662 -0.10596435 0.08304796
0.044448026 0.018488273 0.058336012 0.07673625 0.065756075 0.03899436 -0.08703112 0.009674032
-0.064117946 -0.006351746 -0.085384995 -0.011044828 -0.0379747 -0.04651732 0.018301453 -0.047020458
-0.0007686074 0.0044925287 -0.091308266 0.027823394 -0.03421467 -0.036529988 0.034416284 -0.00598808
0.042562313 -0.025660558 0.044421196 0.027203122 -0.08510314 -0.0027502524 0.029262552 -0.08914835
-0.0632747 0.033404715 0.060025256 0.008315599 0.044418376 0.020581894 0.029250666 -0.042286664
0.032694563 -0.08363884 0.0045114914 0.006402278 0.06252596 -0.03595738 -0.025992934 -0.102723986
-0.0001952927 0.05191464 -0.00035181263 -0.042942893 -0.00010241364 0.05324298 0.020816127 -0.07002244
-0.066412605 -0.05975975 0.081117965 -0.025529347 -0.06352484 -0.08282269 -0.08317866 -0.04947471
-0.037249193 -0.07812104 -0.085045956 -0.098487645 0.011809949 -0.06763912 -0.013445572 0.084289156
0.024641288 -0.009342416 0.06722452 0.019485397 -0.10265955 0.02612279 -0.02123453 0.056336846
0.017616114 0.030067202 -0.071206264 -0.030941611 -0.12791073 0.044540502 0.04070784 0.02237389
0.030891553 0.07583737 -0.058433976 -0.11746889 0.006906559 -0.1046791 0.034392666 -0.09565723
-0.075237475 -0.072276294 -0.105074316 0.009724328 0.07573504 -0.02721416 -0.014097404 0.04459799
0.058075525 -0.001825887 -0.041675907 -0.046795014 -0.038436364 -0.027321726 -0.03821845 -0.020442696
-0.115999706 0.029875927 -0.08593975 -0.036863044 0.078639746 -0.033754043 -0.060743775 -0.04457317
-0.041712873 0.03609118 -0.06060459 0.023330105 -0.11147299 -0.08644616 -0.014214219 -0.018750846
0.041847497 0.06314326 -0.004380823 0.07455816 0.009870757 -0.07654644 -0.09204758 -0.019542687
-0.058716662 -0.027747182 -0.08084252 0.07577749 -0.052469462 0.027656484 -0.04027546 -0.104986645
-0.002413764 0.029586539 0.04283766 -0.023305865 -0.060926117 0.03680691 0.08255808 -0.07465364
0.052677795 -0.05610595 0.05659304 -0.09610405 -0.05875384 0.059735052 0.010880656 -0.018360151
-0.087464854 -0.0040029613 0.03227578 -0.06755253 0.042283393 -0.04883633 -0.028604876 -0.11166603
-0.004564341 0.04540237 0.068026654 0.044046298 -0.012591989 0.03985555 -0.044637576 -0.006512616
-0.0017315575 0.051139142 0.06197602 0.075591646 0.03244017 0.008963868 -0.08364184 -0.1160352
0.030157467 -0.009759672 -0.08024477 0.04791313 -0.04991117 -0.0964514 0.006412626 -0.046386052
-0.0016158174 -0.063819125 -0.09717401 -0.0028982223 0.028375644 0.064584225 -0.11130078 0.0016534665
-0.06957311 0.01710192 -0.019896548 0.029978182 0.005777698 -0.07183623 0.06405725 0.08120278
0.0014025355 -0.07224877 -0.04937161 -0.031146439 -0.04861949 -0.0888764 0.038463686 0.01865465
0.03079762 0.04721161 0.01150174 0.051564414 -0.06338057 -0.040714767 -0.06720346 -0.0708661
00000000: bdc1 21bc 2b7a 2f3d 69c1 37bd 59c4 8fbd
00000010: 3d9a 3bbd acd1 32bd 08ea 34bd e7bb 30bd
00000020: 1288 7dbd 8a98 abbc 16a7 92bd 307d 993b
00000030: 5371 463d c483 bbbd 2332 92bd 10b2 d93c
00000040: d73f b0bd 10db 80bc dc3e 693d 822a a3bd
00000050: efba a63d 5b6d 863c c8d5 cfbc f463 31bd
00000060: 1cae cfbd 4bd0 6cbd 5ab7 92bc 8cb4 06bd
00000070: 2b09 19bd 22a0 2a3d d603 d9bd 0d15 aa3d
00000080: 220f 363d b874 973c bef1 6e3d e527 9d3d
00000090: 1fab 863d 8db8 1f3d 5f3d b2bd d57f 1e3c
000000a0: 4550 83bd 4f22 d0bb 54de aebd 5ef5 34bc
000000b0: 5c8b 1bbd f288 3ebd eeec 953c 8698 40bd
000000c0: 5f7c 49ba 1036 933b d4ff babd e3ed e33c
000000d0: af24 0cbd 78a0 15bd 17f8 0c3d a837 c4bb
000000e0: d255 2e3d 1736 d2bc 00f3 353d 15d9 de3c
000000f0: 8e4a aebd 943d 34bb 05b8 ef3c 6993 b6bd
00000100: 2a96 81bd 62d3 083d 0bdd 753d 263e 083c
00000110: 0bf0 353d 5c9b a83c 189f ef3c c834 2dbd
00000120: bcea 053d d74a abbd 22d5 933b 33ca d13b
00000130: 9c0d 803d 0c48 13bd 22ef d4bc f460 d2bd
00000140: 7cc7 4cb9 72a4 543d 7e73 b8b9 e3e4 2fbd
00000150: e8c6 d6b8 5015 5a3d 9586 aa3c ed67 8fbd
00000160: 5503 88bd a4c6 74bd 2d21 a63d ec22 d1bc
00000170: 5019 82bd f19e a9bd 9359 aabd fea5 4abd
00000180: 9c92 18bd ecfd 9fbd 932c aebd e4b3 c9bd
00000190: 847e 413c 6186 8abd d14a 5cbc cb9f ac3d
000001a0: 87dc c93c ef10 19bc 02ad 893d d79f 9f3c
000001b0: 2c3f d2bd 76ff d53c 09f4 adbc 77c1 663d
000001c0: ab4f 903c 7e4f f63c 97d4 91bd 4379 fdbc
000001d0: 08fb 02be 1a70 363d 44bd 263d 7349 b73c
000001e0: 4810 fd3c 9f50 9b3d 7758 6fbd 8893 f0bd
000001f0: 6b50 e23b ff61 d6bd 53df 0c3d f0e7 c3bd
00000200: 1b16 9abd 9805 94bd 3431 d7bd ca52 1f3c
00000210: f91a 9b3d 3bf0 debc ccf8 66bc 62ac 363d
00000220: 9ae0 6d3d 9a52 efba 5bb4 2abd 21ac 3fbd
00000230: 736f 1dbd d0d1 dfbc f38a 1cbd 7177 a7bc
00000240: 4191 edbd 5cbe f43c 2e01 b0bd b4fd 16bd
00000250: e00d a13d ae41 0abd 77ce 78bd 5b92 36bd
00000260: 1edb 2abd 58d4 133d 853c 78bd c71e bf3c
00000270: f34b e4bd af0a b1bd c1e2 68bc 609b 99bc
00000280: 4868 2b3d 4151 813d 028d 8fbb f3b1 983d
00000290: f5b8 213c 61c4 9cbd 7183 bcbd fc17 a0bc
000002a0: e280 70bd 0f4e e3bc c390 a5bd 3b31 9b3d
000002b0: 38ea 56bd da8f e23c e1f7 24bd 3d03 d7bd
000002c0: 3d30 1ebb 785f f23c 8b76 2f3d f1eb bebc
000002d0: aa8d 79bd d8c2 163d 3614 a93d 02e4 98bd
000002e0: acc4 573d 5acf 65bd 1ace 673d 33d2 c4bd
000002f0: dea7 70bd beac 743d c744 323c 0768 96bc
00000300: c620 b3bd 462b 83bb 9c33 043d fb58 8abd
00000310: 5a31 2d3d 9b08 48bd c654 eabc 29b1 e4bd
00000320: 7890 95bb d6f7 393d 8f51 8b3d e469 343d
00000330: a14e 4ebc 933f 233d e4d5 36bd c867 d5bb
00000340: 6ef5 e2ba 4777 513d 91da 7d3d cbcf 9a3d
00000350: fcdf 043d 30dd 123c 6a4c abbd dda3 edbd
00000360: cb0c f73c 08e7 1fbc 5f57 a4bd 8f40 443d
00000370: a86f 4cbd 5088 c5bd 0121 d23b 4dff 3dbd
00000380: d6c9 d3ba 9ab3 82bd 2b03 c7bd 1af0 3dbb
00000390: 0a74 e83c bc44 843d aaf1 e3bd 21b9 d83a
000003a0: 597c 8ebd 5319 8c3c 16fe a2bc ce94 f53c
000003b0: d852 bd3b e01e 93bd 7330 833d a54d a63d
000003c0: 48d5 b73a 2af7 93bd e339 4abd d126 ffbc
000003d0: 3b25 47bd d404 b6bd 198c 1d3d a3d1 983c
000003e0: 4a4b fc3c f660 413d cb71 3c3c 3535 533d
000003f0: accd 81bd 87c4 26bd f8a1 89bd 3f22 91bd

net.4.bias f4 [4]
0.06342637 -0.022041375 -0.05561541 0.06274625
00000000: afe5 813d 1d90 b4bc fccc 63bd 1b81 803d
