experiments/LunarLander-v2-descrete-hyperpra-tunnig/lr/0.001/model.pt (torch, 114135 bytes, 6 tensors)

net.0.weight f4 [200, 8]
0	0x3f0ac30d	0.54203874
1	0x3d247453	0.040149998
2	0xbf8d4de0	-1.103939
3	0x3f9b3d8b	1.2128156
4	0x3df27b41	0.11839915
5	0x3f017491	0.5056849
6	0xbf45c703	-0.7725679
7	0xbf86ba84	-1.052567
8	0x3dc54e60	0.096340895
9	0xbfba1365	-1.4537169
10	0x3f07b031	0.5300322
11	0x3f724eed	0.9465168
12	0xbf3ffdca	-0.74996626
13	0xbdb6664e	-0.08906232
14	0xbde0526b	-0.1095322
15	0x3e8247c5	0.2544538
16	0xbfa284df	-1.2696799
17	0xbefec8b3	-0.49762496
18	0xbf0d8b59	-0.5529075
19	0x3e8ab521	0.27091315
20	0x3e616d7c	0.22014421
21	0x3f878639	1.0587837
22	0x3e360d68	0.17778552
23	0xbda06bd8	-0.078330696
24	0xbf3d580e	-0.73962486
25	0x3c3b7947	0.011442489
26	0xbf630a59	-0.88687664
27	0x3f3bfc46	0.73431814
28	0x3fdffaf0	1.7498455
29	0x3fa1f758	1.2653608
30	0xbe943652	-0.28947693
31	0x3d9f4c02	0.07778169
32	0xbe6482e3	-0.22315554
33	0xbf8f9e06	-1.12201
34	0x3d11db1b	0.035609346
35	0x3eb8848a	0.3603862
36	0x3f6c1e7f	0.92234033
37	0xbf4778b0	-0.7791853
38	0x3e63a902	0.2223244
39	0xbf84788b	-1.0349287
40	0xbf83a576	-1.028487
41	0xbf7a59d0	-0.97793293
42	0x3fbe55de	1.4869955
43	0x3fbe50b8	1.4868383
44	0xbef0b0ec	-0.4700998
45	0xbf3c51c0	-0.7356224
46	0xbf1a11c2	-0.60183346
47	0xbf20de27	-0.6283898
48	0x3d82d787	0.06388765
49	0xbea1887f	-0.3154945
50	0x3feb0822	1.8361857
51	0xbf2882e7	-0.6582474
52	0xbf1b3458	-0.60626745
53	0x3cf4baf2	0.029874299
54	0x3c914ef9	0.017737852
55	0x3e07dc33	0.13267593
56	0xbf9ce421	-1.225712
57	0x3b5326f6	0.0032219267
58	0xbf197cbe	-0.59955966
59	0x3fbf258b	1.4933332
60	0x3ee3c41a	0.4448555
61	0x3e5f7bc4	0.21824557
62	0x3f5bc3eb	0.8584582
63	0x3ee5b64e	0.4486565
64	0x3f254f03	0.6457369
65	0xc0243dc1	-2.5662692
66	0x3e796d33	0.24358062
67	0xc0008dd3	-2.0086563
68	0x3e452a5c	0.1925444
69	0xbbdf7e18	-0.0068204515
70	0xbf0e8d7c	-0.5568464
71	0xbf01625d	-0.50540715
72	0xbef60dfa	-0.48057538
73	0xbdee244b	-0.11628016
74	0x3ebba8d6	0.3665225
75	0xbe8510fe	-0.25989527
76	0x3fd2ef9f	1.6479377
77	0x3f957511	1.1676351
78	0xbd4ed76d	-0.050498415
79	0xbe0d373d	-0.13790603
80	0x3f82e465	1.022595
81	0xbe0afd9f	-0.13573311
82	0x3e9180ca	0.2841857
83	0xbf02411b	-0.50880593
84	0x3f2c5b0e	0.6732644
85	0x3fdebd5c	1.7401538
86	0xbee7b4ff	-0.45255277
87	0xbddd41ce	-0.10803567
88	0xbea94cd6	-0.33066434
89	0x3f152349	0.58256966
90	0xbe9f2b9a	-0.31087953
91	0x3ebef87b	0.3729895
92	0xbf000179	-0.5000225
93	0xbfd97aa8	-1.6990557
94	0xbf350b8d	-0.7072075
95	0xbda2c3f3	-0.079475306
96	0xbf06ecdc	-0.5270517
97	0x3eb6d548	0.35709596
98	0xbda47a06	-0.080310866
99	0x3de5f287	0.11227899
100	0xbded35ce	-0.11582528
101	0x3f356e38	0.70871305
102	0xbf7caf28	-0.9870477
103	0xbf1943ab	-0.5986888
104	0x3fbe5eca	1.4872677
105	0xbf0d1784	-0.55114007
106	0x3e83a6f8	0.25713325
107	0xbfb1ee2a	-1.3900807
108	0xbf095536	-0.53645647
109	0x3fb6684b	1.4250578
110	0xbe257608	-0.16158307
111	0xbeb0f28c	-0.3456005
112	0x3e084f63	0.13311534
113	0xbee6de8f	-0.45091674
114	0xbf0f23d5	-0.5591405
115	0x3f318ec0	0.69358444
116	0x3ea91206	0.33021563
117	0xbebd4c2d	-0.3697218
118	0xbeff7603	-0.49894723
119	0xbe81a150	-0.25318384
120	0xbecf490d	-0.4048542
121	0x3f2de4f7	0.679275
122	0xbd557526	-0.052113675
123	0x3e3d8396	0.18507227
124	0x3f818b5d	1.0120655
125	0xbec54fa6	-0.3853733
126	0xbf84143d	-1.0318676
127	0xbf6ca0f7	-0.9243311
128	0x3f3d0b97	0.7384581
129	0x3e9e4865	0.30914608
130	0x3e8985b4	0.2685982
131	0x3e84697f	0.25861737
132	0x3f873b13	1.0564903
133	0xbfb00297	-1.375079
134	0x3f62cacc	0.88590693
135	0x3e287ad1	0.164531
136	0x3bc60fd3	0.006044367
137	0x3eb0d971	0.34540895
138	0x3f23f2ce	0.64042366
139	0x3e8054ed	0.25064793
140	0xbd98b931	-0.074571975
141	0x3e3bfbb2	0.18357733
142	0xbf23af38	-0.6393924
143	0x3e5f0c10	0.21781945
144	0x3eb15718	0.3463676
145	0x3ee36195	0.44410387
146	0x3f05ee00	0.52316284
147	0x3f3aecdb	0.7301766
148	0xbf273313	-0.6531231
149	0xbf320d7d	-0.6955183
150	0x3e43b524	0.19112068
151	0xbf2bf44d	-0.6716965
152	0x3fc18d5f	1.5121268
153	0xbde7899d	-0.113055445
154	0x3f1b355b	0.6062829
155	0x3de7ec02	0.11324312
156	0x3d1e26ee	0.038611345
157	0xbf248b32	-0.64274895
158	0xbf5b463b	-0.8565404
159	0x3edc62b9	0.4304407
160	0xbf8fcdc2	-1.1234667
161	0xbe9a8c45	-0.30185142
162	0xbda8d8ac	-0.08244452
163	0x3e4ad03b	0.19805996
164	0xbe493f07	-0.1965295
165	0x3fb1731e	1.3863256
166	0xbe2050f4	-0.15655881
167	0xbe8892c3	-0.2667447
168	0xbead65c7	-0.33866712
169	0xbef091e7	-0.46986315
170	0x3e685096	0.22686991
171	0x3ec2f10f	0.38074538
172	0xbf811030	-1.0083065
173	0xbf703290	-0.9382715
174	0xbfa88a2d	-1.3167168
175	0x3e248c4b	0.16069143
176	0x3f788362	0.97075474
177	0xbdd17c8d	-0.10228834
178	0x3ee5ae59	0.4485958
179	0x3f9ef10f	1.2417315
180	0x3e82ca58	0.25545
181	0xbf2ba6f7	-0.67051643
182	0xbe99a96f	-0.3001208
183	0xbef48afd	-0.4776229
184	0x3e4006eb	0.18752639
185	0xbfd02197	-1.6260251
186	0x3f15f735	0.58580333
187	0xbf75e731	-0.96055895
188	0xbec76211	-0.38942006
189	0x3f87078e	1.054918
190	0xbec02e05	-0.3753511
191	0x3d4917d1	0.04909498
192	0x3f839db8	1.0282507
193	0x3f13b6f6	0.5770105
194	0xbe5a9506	-0.2134591
195	0xbeac77fb	-0.33685288
196	0x3f5a9f80	0.8539963
197	0x3e949bd4	0.29025137
198	0x3ee7f0b7	0.45300838
199	0x3e97daf4	0.29659235
200	0x3f5d06b6	0.86338365
201	0xbeadfbb4	-0.33981097
202	0x3f56e7f5	0.8394769
203	0xbec6cda1	-0.38828757
204	0xbfb310d8	-1.3989515
205	0xbf3b8e76	-0.73264253
206	0xbf986be5	-1.1907927
207	0x3cf943e8	0.030427888
208	0xbec6aeec	-0.3880533
209	0xbd8a7db5	-0.06762258
210	0x3daabdc4	0.08336976
211	0x3f98b362	1.1929743
212	0x3f7493cd	0.95538026
213	0x3e470cfe	0.1943855
214	0xbd09dafb	-0.0336561
215	0xbf2e3d9c	-0.6806276
216	0xbf9894ca	-1.1920407
217	0x3c542dd2	0.012950378
218	0xbf321664	-0.69565415
219	0xbea4c674	-0.32182658
220	0x3e0804ed	0.13283129
221	0xbf7be825	-0.984011
222	0x3ef371ca	0.47547752
223	0xbe6d207b	-0.23156922
224	0x3f37d2c9	0.7180601
225	0x3b4eb5cd	0.0031541467
226	0x3f232839	0.6373325
227	0x3e8ac93c	0.27106655
228	0xbfc7e4b9	-1.5616676
229	0xbea2314e	-0.31678241
230	0x3e5d814f	0.21631359
231	0xbef4fa03	-0.47846994
232	0xbf62377c	-0.8836591
233	0x3ea3a62d	0.3196272
234	0x3f96b45c	1.1773791
235	0xbed8e173	-0.42359504
236	0xbf6c4188	-0.9228749
237	0x3e0b75fc	0.13619226
238	0xbf0cdee6	-0.55027616
239	0x3efa7964	0.4892074
240	0x3f0f4d33	0.5597717
241	0xbf662834	-0.89905095
242	0x3eb39ac7	0.35079023
243	0xbf9030b4	-1.1264863
244	0x3daa3279	0.08310408
245	0xbf702f3b	-0.9382207
246	0xbfec952c	-1.8483024
247	0x3eb36214	0.35035765
248	0xbf3b5131	-0.73170763
249	0x3d7b5849	0.061363492
250	0xbf561104	-0.83619714
251	0xbfe4c675	-1.7873064
252	0xbf33daaa	-0.7025553
253	0xbe15f83e	-0.14645478
254	0xbe582fdb	-0.21112005
255	0xbd05ffc9	-0.03271464

net.0.bias f4 [200]
0	0x3f0a7500	0.5408478
1	0x3ef09c35	0.46994177
2	0x3e91feae	0.28514618
3	0xbe4fd00c	-0.20294207
4	0x3eaaaf2a	0.33336765
5	0xbf020e7c	-0.5080335
6	0xbe48ac75	-0.19597037
7	0xbdb983b2	-0.09058322
8	0xbf176c2b	-0.59149426
9	0x3da5996e	0.08085905
10	0xbe4e4362	-0.20142892
11	0xbf73a6f9	-0.95176655
12	0x3ed47678	0.41496634
13	0xbf389e10	-0.72116184
14	0x3f0f2bc4	0.55926156
15	0xbf06ffc4	-0.5273402
16	0xbe137428	-0.14399779
17	0x3d85b6fd	0.06529043
18	0xbf9f8f37	-1.2465581
19	0xbf674ae5	-0.90348655
20	0x3e7b0db0	0.2451694
21	0xbf0797da	-0.5296608
22	0xbf852ee6	-1.0404937
23	0x3d74cdd7	0.059766617
24	0xbf31e8e2	-0.69495976
25	0xbf39ac49	-0.7252851
26	0x3f1a9526	0.6038383
27	0x3ebe69b9	0.37190035
28	0xbf8a03d2	-1.0782416
29	0xbe02fb4a	-0.12791172
30	0xbf42f57f	-0.7615585
31	0xbf69d3d5	-0.91338855
32	0x3efee0aa	0.4978078
33	0x3e81fabe	0.25386614
34	0xbe07d5bc	-0.13265127
35	0xbecda6b3	-0.40166244
36	0x3f0521b2	0.5200454
37	0x3e5fc2ba	0.21851626
38	0x3efab2cf	0.48964545
39	0xbfb97a1e	-1.4490392
40	0x3f1556e6	0.5833572
41	0xbed5a620	-0.41728306
42	0xbe87491f	-0.26422974
43	0xbe0a0ce0	-0.13481474
44	0xbf12fd05	-0.5741733
45	0x3f137752	0.57603943
46	0x3cf08c8e	0.029363897
47	0xbe1f3947	-0.15549193
48	0xbe8eaac4	-0.2786466
49	0x3eb8d975	0.36103407
50	0x3e202787	0.15640078
51	0xbf835b55	-1.0262247
52	0x3d126088	0.03573659
53	0xbebd543f	-0.36978337
54	0xbecf452d	-0.40482464
55	0x3f20f6e5	0.6287673
56	0x3e7f585d	0.24936052
57	0xbf869789	-1.0514995
58	0xbf1c95d4	-0.6116612
59	0x3e71344f	0.2355511
60	0xbebfbc6f	-0.3744845
61	0x3ed57d66	0.41697234
62	0xbeacaeb9	-0.33727053
63	0xbf578698	-0.8418975
64	0x3e8111f6	0.25209016
65	0x3ede82f5	0.43459287
66	0xbf53209e	-0.82471645
67	0x3f4a217a	0.7895733
68	0x3eb6341e	0.35586637
69	0xbea6b1af	-0.32557437
70	0xbe84ab3f	-0.259119
71	0x3e7d7070	0.24749923
72	0xbec87926	-0.3915493
73	0x3f12c121	0.5732594
74	0x3ef80326	0.48439902
75	0xbf57f0cd	-0.8435181
76	0xbf470638	-0.77743864
77	0xbecae6ba	-0.39629155
78	0xbc410609	-0.011781224
79	0xbe7509bf	-0.23929499
80	0xbf901df0	-1.1259136
81	0x3d1bcf82	0.03803969
82	0xbe2198e5	-0.15780981
83	0x3eb0f5e5	0.34562603
84	0xbf195bb6	-0.59905565
85	0x3ebe5a3d	0.3717822
86	0x3e1b8c0b	0.15190141
87	0x3ee602ef	0.44924113
88	0xbe99986e	-0.29999107
89	0x3ee67ec0	0.45018578
90	0x3e7ab1a2	0.24481824
91	0x3d93cbce	0.07216607
92	0xbec2ed85	-0.38071838
93	0xbeebd8bb	-0.4606379
94	0xbd88340d	-0.06650553
95	0xbeb70293	-0.3574415
96	0x3f5935f1	0.84847933
97	0xbe78e22b	-0.24305026
98	0x3f1c81cc	0.61135554
99	0xbd2ea864	-0.04264106
100	0x3f16ebbb	0.58953446
101	0x3d284e9a	0.041090585
102	0x3e8aa0d6	0.27075833
103	0xbe641ad1	-0.22275855
104	0x3e84eecf	0.25963446
105	0xbf912539	-1.1339484
106	0xbf982c15	-1.1888453
107	0xbebdf9cf	-0.3710465
108	0xbd488a40	-0.04895997
109	0x3ef82d8c	0.4847225
110	0xbdc8d32f	-0.09805905
111	0x3ca4e797	0.020129962
112	0xbea3cdd0	-0.3199296
113	0xbf525a2d	-0.8216885
114	0x3f23f0ad	0.6403912
115	0xbf642e87	-0.89133495
116	0x3e143dea	0.14476743
117	0xbe5d753b	-0.21626751
118	0x3eb406b0	0.35161352
119	0x3d5397af	0.05165833
120	0x3e67eb39	0.22648324
121	0xbf0b6318	-0.5444808
122	0xbedfd991	-0.43720677
123	0x3b48a017	0.0030613
124	0x3f12cd20	0.57344246
125	0xbf243561	-0.6414395
126	0x3e6ca077	0.23108087
127	0xbf5afcb3	-0.8554184
128	0x3d1bbf6a	0.038024344
129	0x3e1f627c	0.15564913
130	0xbe416ef3	-0.1888998
131	0x3e92cf20	0.2867365
132	0xbeee7dc1	-0.46580318
133	0xbd0a91a1	-0.03383029
134	0x3edac496	0.42728108
135	0x3da2bd88	0.079463065
136	0x3f161edf	0.58640856
137	0xbfa9c299	-1.3262511
138	0xbf40b24a	-0.7527205
139	0xbef56388	-0.479275
140	0xbda938e3	-0.082628034
141	0x3eb40899	0.3516281
142	0x3ee1dde4	0.44114602
143	0x3defa410	0.11701214
144	0xbf4ea807	-0.8072514
145	0x3e81b75b	0.25335202
146	0x3c988f44	0.018623002
147	0x3df2a9e1	0.11848808
148	0xbf29a10b	-0.6626136
149	0xbd828cb6	-0.06374495
150	0x3e687610	0.22701287
151	0xbec355c5	-0.38151374
152	0xbf0eba23	-0.5575277
153	0xbeb3952a	-0.3507474
154	0xbeab257c	-0.33427036
155	0x3edb0e7d	0.4278449
156	0xbf807c3e	-1.0037916
157	0xbec0a2c8	-0.37624192
158	0x3e96eead	0.2947897
159	0x3ef71cb1	0.48264077
160	0x3f2ee9ad	0.6832531
161	0xbd5ac30c	-0.053408667
162	0xbf8d855d	-1.1056324
163	0x3e993ed6	0.29930753
164	0xbe61271e	-0.21987578
165	0x3f16800c	0.58789134
166	0x3eddcb08	0.43318963
167	0xbee0167c	-0.43767154
168	0x3f2a92cf	0.6663026
169	0xbf4ad252	-0.79227173
170	0xbed56ab5	-0.41682974
171	0x3f343505	0.703934
172	0x3e2769e9	0.16348995
173	0x3e84ca91	0.25935796
174	0x3f00462c	0.50107074
175	0x3f30f3bb	0.69121903
176	0x3f2db817	0.67859024
177	0x3dfd2f6c	0.12362561
178	0xbf93ff67	-1.1562318
179	0x3f342aef	0.7037801
180	0xbf180f8a	-0.5939871
181	0x3dcd1ed4	0.100156456
182	0x3bf96ced	0.007611862
183	0x3f20c8a6	0.62806165
184	0x3e151756	0.14559683
185	0xbf4e7a54	-0.8065541
186	0xbf137c58	-0.5761161
187	0x3f9c7303	1.2222599
188	0x3eae5ace	0.34053653
189	0x3ca5c179	0.020233857
190	0xbf3fad17	-0.7487349
191	0xbf47b1c3	-0.7800562
192	0x3f4b10c1	0.7932244
193	0xbe1b78e5	-0.15182836
194	0x3f10a31a	0.56498873
195	0xbd7e4ee9	-0.062086973
196	0xbf514083	-0.8173906
197	0xbf92c1d3	-1.14654
198	0xbef0d56c	-0.47037828
199	0xbe877b44	-0.26461232

net.2.weight f4 [128, 200]
0	0xbeee01e0	-0.46485806
1	0xbe86d7b2	-0.26336437
2	0xbf1994c5	-0.5999263
3	0xb9e2d5cb	-0.00043265367
4	0x3d8cfb65	0.06883887
5	0x3f9bd24b	1.2173551
6	0x3e63b366	0.22236404
7	0xbcd3ada4	-0.025839634
8	0xbe477a0b	-0.1948015
9	0x3f0efee5	0.5585769
10	0x3f085dc2	0.53268063
11	0x3fb0a5aa	1.3800557
12	0x3cf26157	0.02958743
13	0xbf0d3a9f	-0.55167574
14	0xbf89fe4b	-1.0780729
15	0x3f1e2eeb	0.6179034
16	0x3e4c8d00	0.19975662
17	0xbe644dae	-0.22295257
18	0x3e7cf288	0.24701893
19	0x3d21ec40	0.039531946
20	0x3ea84bf8	0.3287046
21	0xbf0c8b62	-0.5490018
22	0x3ed10c28	0.40829587
23	0x3e2439d5	0.16037686
24	0x3f8f3938	1.1189337
25	0x3e8b54cc	0.27213132
26	0x3dae6a79	0.08516402
27	0xbe6fe450	-0.23426938
28	0xbe0ca9b8	-0.13736618
29	0xbdfe1aa7	-0.12407427
30	0x3e983dbe	0.29734606
31	0x3f5b4733	0.85655516
32	0xbea6c09b	-0.3256882
33	0xbe54200d	-0.20715351
34	0x3eb31bff	0.34982297
35	0x3ebabae6	0.36470717
36	0xbe72d5e1	-0.23714401
37	0xbeb64e89	-0.35606793
38	0xbf0b81c7	-0.544949
39	0x3f95642a	1.1671193
40	0xbecc59e9	-0.39912346
41	0xbd5d09f3	-0.053964566
42	0x3f676173	0.9038307
43	0xbed8aa07	-0.4231722
44	0x3ef17c54	0.47165167
45	0xbe8fb7d6	-0.28069943
46	0x3f78b294	0.9714749
47	0x3f8a7d56	1.08195
48	0xba6dc1f6	-0.0009069735
49	0xbdcc1cda	-0.099664405
50	0x3f0c1d66	0.5473236
51	0xbeeed429	-0.4664624
52	0x3f6a87ab	0.9161326
53	0x3d60dca2	0.05489791
54	0xbee09933	-0.43866882
55	0x3f1f7bdb	0.62298363
56	0x3f57e76f	0.84337515
57	0x3fa8d0bd	1.3188702
58	0x3fd1c82d	1.6389214
59	0x3e87f9e7	0.26557848
60	0x3e30990b	0.17245881
61	0x3f0ca27e	0.54935443
62	0xbd662176	-0.056184255
63	0x3dbf4b59	0.09340543
64	0xbf2ca535	-0.67439586
65	0xbe8fe396	-0.28103322
66	0x3f8947ce	1.0725038
67	0xbf129993	-0.57265586
68	0x3f527249	0.82205635
69	0x3f0e6f73	0.5563881
70	0xbe943f00	-0.28954315
71	0x3eade561	0.33964065
72	0xbf7eca84	-0.99527764
73	0x3e0d17ff	0.13778685
74	0x3d8f88a9	0.07008488
75	0x3fb03026	1.3764694
76	0x3e0c629d	0.13709493
77	0x3f5bf58a	0.8592154
78	0xbe43f12d	-0.1913497
79	0x3f57dda2	0.8432256
80	0x3fe909fd	1.8206173
81	0x3e0d1fe6	0.137817
82	0xbbd7184a	-0.006564175
83	0xbf8b65dd	-1.0890461
84	0x3f1942d6	0.5986761
85	0x3ee2748a	0.44229537
86	0x3e882754	0.26592505
87	0x3d60b485	0.054859657
88	0x3eea59c2	0.45771605
89	0x3ecd2865	0.4006988
90	0xbee5ae05	-0.4485933
91	0xbef9b3db	-0.4877003
92	0x3ed70283	0.41994104
93	0x3f44820c	0.76760936
94	0x3f12bcba	0.57319224
95	0x3eb95670	0.3619876
96	0x3e873510	0.2640767
97	0x3e99d964	0.30048668
98	0x3ee73681	0.4515877
99	0x3e4007a6	0.18752918
100	0xbe984473	-0.29739723
101	0x3dedee03	0.11617663
102	0x3e7de7d5	0.24795468
103	0xbcb6a057	-0.022293253
104	0x3a9f025d	0.0012131442
105	0x3fd8d582	1.6940157
106	0x3f916d35	1.1361452
107	0xbd09e1bb	-0.03366254
108	0x3f21a8fa	0.6314846
109	0xbf3a6822	-0.72815144
110	0xbc8710a7	-0.016487433
111	0xbf9e5c18	-1.2371855
112	0x3ee2771f	0.44231507
113	0x3f6a2dbf	0.91476053
114	0x3e8d349c	0.275792
115	0x3ebb1073	0.36535987
116	0x3e5f7160	0.21820593
117	0x3f55773a	0.8338505
118	0xbef8fa62	-0.48628527
119	0xbe40ef70	-0.18841338
120	0xbe88a587	-0.26688787
121	0x3ed9f112	0.42566735
122	0xbef6b4b2	-0.48184735
123	0x3e13b21c	0.14423412
124	0xbf87ea7c	-1.0618434
125	0xbf7ec8c5	-0.995251
126	0x3dbd6d8b	0.09249409
127	0x3fcb0b1b	1.5862764
128	0x3cee4d3f	0.029089568
129	0xbe2de094	-0.16980201
130	0x3f16ef5d	0.5895899
131	0x3d8032c6	0.06259684
132	0xbe0a7e22	-0.13524678
133	0xbe080811	-0.13284327
134	0xbf0a1e77	-0.53952736
135	0xbe873ec6	-0.2641508
136	0xbe4f3479	-0.2023486
137	0x3fe864c3	1.815575
138	0x3e9a7bd0	0.30172586
139	0xbe0c766e	-0.13717052
140	0x3e6e846b	0.23292701
141	0x3eb6fd16	0.35739964
142	0xbe52357e	-0.20528218
143	0x3de85195	0.113436855
144	0x3f239395	0.6389707
145	0x3ed65b8b	0.41866717
146	0xbe961794	-0.29314864
147	0x3e153813	0.14572172
148	0x3fbfe748	1.4992456
149	0x3e6946d5	0.22780927
150	0x3e51ca69	0.2048737
151	0xbd52dc8e	-0.05147987
152	0x3f6a1470	0.91437435
153	0x3f5124ca	0.8169676
154	0x3f99e600	1.2023315
155	0xbe91fb46	-0.2851202
156	0x3f240c76	0.64081514
157	0x3f7237bf	0.9461631
158	0xbe8dd9c0	-0.27705193
159	0xbe078b74	-0.13236791
160	0xbf25216a	-0.6450411
161	0x3f12faf3	0.5741417
162	0x3f9c291a	1.2200043
163	0xbdf77f36	-0.120848104
164	0xbe83bb84	-0.25729
165	0x3f0fb3a5	0.5613349
166	0xbee6ace1	-0.4505377
167	0x3ec917a5	0.39275852
168	0xbeb4ed12	-0.3533712
169	0xbd59aaa9	-0.05314127
170	0x3d1609cc	0.036630437
171	0xbf4bd0bc	-0.7961538
172	0x3d869333	0.06571045
173	0xbf4265d0	-0.75936604
174	0x3f268237	0.6504244
175	0xbe96279c	-0.29327095
176	0xbed5d4b3	-0.4176384
177	0xbe8892cc	-0.26674497
178	0x3f5da072	0.86572945
179	0x3ddd0d32	0.107935324
180	0xbe31b073	-0.17352466
181	0x3e53b77e	0.20675465
182	0x3e9ad511	0.30240682
183	0xbf79de71	-0.97605044
184	0xbf6076cf	-0.8768129
185	0x3f5774f5	0.8416284
186	0x3f2cb312	0.6746074
187	0x3e8da81d	0.27667323
188	0xbe80d652	-0.25163513
189	0xbf2a060a	-0.66415465
190	0xbe9f45ef	-0.31108043
191	0x3fe1c3f8	1.763793
192	0xbf1bed8c	-0.6090934
193	0x3f5dbef5	0.866195
194	0xbf231ecc	-0.6371887
195	0xbbbece7e	-0.0058229556
196	0x3f71660e	0.9429635
197	0x3efa17d7	0.48846313
198	0x3f1d9607	0.6155705
199	0xbef34290	-0.4751172
200	0xbeaffe85	-0.3437387
201	0xbe23ab5d	-0.15983339
202	0x3d934046	0.071899936
203	0x3e868620	0.26274204
204	0xbf0d7b72	-0.5526649
205	0xbe98e3ed	-0.29861394
206	0x3e5e44e2	0.21705964
207	0xbfcef07e	-1.6167142
208	0x3ed4df67	0.41576692
209	0x3ea46e35	0.3211533
210	0x3f517bdc	0.8182962
211	0xbdee6d46	-0.11641936
212	0xbdd0c2c2	-0.10193397
213	0x3ff6cfe8	1.9282198
214	0xbdf08e1e	-0.11745857
215	0xbe0b3127	-0.13592969
216	0xbf9e5c43	-1.2371906
217	0xbfa4964f	-1.285837
218	0xbe9543c5	-0.29153267
219	0x3e96afdf	0.29431054
220	0xbeda8254	-0.42677557
221	0xbe8c6eec	-0.27428377
222	0xbec9d0c4	-0.39417088
223	0x3f571fc3	0.8403284
224	0x3ea987c5	0.33111396
225	0xbe2f0d2d	-0.1709487
226	0xbee8d6b4	-0.45476305
227	0xbf47305d	-0.7780817
228	0xbf7ddacf	-0.99162
229	0xbf2de889	-0.67932945
230	0x3d991dc8	0.074763834
231	0xbe836b74	-0.25667918
232	0x3f14f399	0.581842
233	0xbf803364	-1.0015683
234	0xbf4aaea9	-0.7917276
235	0xbeca5c0d	-0.39523354
236	0x3e6d31f3	0.23163585
237	0xbef31cb5	-0.4748284
238	0xbfddfb66	-1.7342346
239	0x3ed87dc8	0.42283463
240	0xbf949a52	-1.1609595
241	0xbb9abcb0	-0.0047222003
242	0x3e6f0300	0.23340988
243	0x3f308677	0.6895518
244	0x3c17ce67	0.009265519
245	0xbf3e826a	-0.74417746
246	0x3f1d8dad	0.61544305
247	0x3eeea1ed	0.46607915
248	0x3d102c2a	0.035198368
249	0xbf92af52	-1.1459754
250	0xbf9cf4a2	-1.2262156
251	0x3d7e25ca	0.062047757
252	0xbf89a274	-1.0752702
253	0xc004dd04	-2.0759897
254	0xbfec9125	-1.8481795
255	0xbce15a65	-0.027508924

net.2.bias f4 [128]
0	0xbee7c245	-0.45265403
1	0xbf40f3e3	-0.7537214
2	0xbefdca5b	-0.49568447
3	0xbd8acb63	-0.06777074
4	0xbdbfcf2c	-0.09365687
5	0x3ec8ad8f	0.39194915
6	0x3bc9aca5	0.006154614
7	0x3e270888	0.16311848
8	0xbdb506fe	-0.08839224
9	0xbd98a01d	-0.07452414
10	0xbd5aa13d	-0.053376425
11	0xbde77da6	-0.113032624
12	0xbe1ff423	-0.15620475
13	0x3d3ecdad	0.046582866
14	0xbeb1c207	-0.34718344
15	0xbd8e75ed	-0.06956086
16	0xbc8a5ec3	-0.016890889
17	0x3e7ad979	0.24497022
18	0xbe850e12	-0.25987297
19	0xbdf1e2ef	-0.11810862
20	0xbedaa9b1	-0.4270759
21	0xbd85d538	-0.06534809
22	0xbd8396df	-0.06425261
23	0xbf475d71	-0.77876955
24	0xbd105e5c	-0.035246238
25	0xbdd4aa6e	-0.103840694
26	0xbd579daa	-0.052640595
27	0x3e54ca03	0.20780186
28	0xbf23b04a	-0.6394087
29	0x3d1833db	0.03715883
30	0x3e9bbf29	0.3041928
31	0xbc8ba3af	-0.017045824
32	0x3d3b283b	0.045692664
33	0x3f4922b6	0.7856859
34	0xbc9bfaef	-0.019040553
35	0x3dcec0a0	0.10095334
36	0x3f05f53d	0.5232733
37	0x3ef22b53	0.4729868
38	0x3e3d8bae	0.18510315
39	0x3ea3860f	0.31938216
40	0xbd95a4d7	-0.07306831
41	0xbf2e5ad8	-0.68107367
42	0x3ee748ce	0.45172733
43	0x3e816c0c	0.25277746
44	0x3ed87329	0.4227536
45	0x3ef746d5	0.48296228
46	0x3eaed4f7	0.34146854
47	0xbdfd39c7	-0.12364536
48	0x3e311583	0.17293362
49	0x3c8ff3fa	0.017572392
50	0xbe96fc46	-0.29489344
51	0x3e8672f5	0.2625958
52	0x3e9c15e9	0.30485466
53	0xbd92488d	-0.07142744
54	0xbc26346e	-0.010144336
55	0x3b6432b0	0.0034820251
56	0x3e5984d9	0.21242084
57	0x3e91fd9c	0.285138
58	0xbc7971fa	-0.015224928
59	0x3ef013b3	0.4689003
60	0x3e9619a0	0.29316425
61	0xbc0a06ef	-0.008424505
62	0xbd1f5017	-0.03889474
63	0xbc360a3b	-0.011110838
64	0x3a5262d3	0.000802559
65	0x3d87d1d5	0.06631819
66	0x3e56858b	0.2094938
67	0xbf4f8215	-0.81057864
68	0xbe809203	-0.25111398
69	0xbc6361c9	-0.013878294
70	0xbd8c0a5c	-0.068379134
71	0xbc6e64f6	-0.014550438
72	0xbd889e58	-0.06670827
73	0x3ca2b663	0.01986236
74	0x3ca6438b	0.020295879
75	0xbce8e792	-0.028430734
76	0xbbd16a8f	-0.0063908766
77	0xbb85ad21	-0.0040794765
78	0x3bd0f030	0.006376289
79	0x3ec26a93	0.37971935
80	0x3f1f291c	0.621721
81	0xbdb685ed	-0.08912263
82	0xbde956c2	-0.11393501
83	0xbd713a45	-0.05889346
84	0x3e3b25d8	0.18276155
85	0x3d1a3b9b	0.0376545
86	0xbd9de54c	-0.077097505
87	0xbd67156c	-0.056416914
88	0xbee789cf	-0.45222327
89	0xbde2a591	-0.110667355
90	0x3d230450	0.039799035
91	0x3ed6cf96	0.4195525
92	0x3f043bce	0.51653755
93	0x3edff9e6	0.43745345
94	0xbbb38b50	-0.005479254
95	0x3cd40bbe	0.025884505
96	0xbe581bfc	-0.21104425
97	0x3dbaefb6	0.091277525
98	0x3e5045a2	0.20339063
99	0x3e935b73	0.28780708
100	0xbd51493c	-0.051095232
101	0x3f087abb	0.5331227
102	0xbd812e35	-0.063076414
103	0x3eb96404	0.36209118
104	0xbdc4c77a	-0.0960836
105	0x3a81d541	0.0009905474
106	0xb9f5746e	-0.00046816788
107	0xbf26405d	-0.6494196
108	0xbd28bf1a	-0.041197874
109	0xbc9a6aa6	-0.018849682
110	0xbd84108c	-0.064484686
111	0xbd8dc5b3	-0.06922474
112	0x3ee29587	0.44254705
113	0xbc5ce1d6	-0.013481578
114	0xbd3e4125	-0.046448845
115	0xbceef777	-0.029170735
116	0xbdd56d95	-0.10421292
117	0x3e9628e8	0.29328084
118	0xbd9a42d7	-0.0753228
119	0xbe914492	-0.28372627
120	0xbd8ce557	-0.068796806
121	0xbc9391e4	-0.018013902
122	0xbda922c6	-0.08258586
123	0xbda06b4d	-0.07832966
124	0xbe6f5193	-0.23370962
125	0xbdd7fc98	-0.10546225
126	0x3d723f4e	0.059142403
127	0x3f0b3af0	0.54386806

net.4.weight f4 [4, 128]
0	0xbf46c28d	-0.7764061
1	0x3d8682dc	0.06567928
2	0x3e55d785	0.20882995
3	0xbd8516f3	-0.06498518
4	0x3cb036ed	0.021510566
5	0x3dc6c30d	0.09705172
6	0xbd72faee	-0.059321336
7	0x3fa8d7d0	1.3190861
8	0xbd542caa	-0.051800407
9	0x3e023988	0.12717259
10	0x3da7809f	0.081788294
11	0x3cd66176	0.02616952
12	0xbe3676cf	-0.1781876
13	0xbe2a0bf7	-0.16606127
14	0xbfdc6dee	-1.7221048
15	0x3d3a733e	0.04552006
16	0xbd61d483	-0.055134308
17	0x3f2d8083	0.6777422
18	0x4041d5fa	3.028685
19	0xbd89253f	-0.06696557
20	0xbf5cdbdd	-0.86272985
21	0xbc4bef91	-0.012447254
22	0x3fdc4734	1.720923
23	0xbf0d7857	-0.5526175
24	0xbcf9bf7c	-0.030486815
25	0x3d5668de	0.052346103
26	0xbc006db7	-0.007838658
27	0xbfd68ec5	-1.676232
28	0xbf8b1c43	-1.0868
29	0xbd02097e	-0.031747334
30	0xbf21f47a	-0.63263667
31	0xbc89edf2	-0.016837094
32	0x3d1f3ff9	0.03887937
33	0x3fc16d46	1.5111473
34	0x3cc9d9b1	0.024639936
35	0xbeff4b39	-0.49862078
36	0x3fdbc976	1.7170856
37	0x3f9ca2c1	1.2237169
38	0xbeb853b3	-0.36001357
39	0x3fb68b42	1.4261248
40	0xbd76a3ea	-0.060214914
41	0xc0295a82	-2.6461492
42	0x3f869e8b	1.0517133
43	0x3fe091e7	1.7544526
44	0xbf0d2591	-0.55135447
45	0x3fca05a9	1.5782977
46	0x3ff209ea	1.8909276
47	0xbedcc811	-0.4312139
48	0xbf1b3f12	-0.6064311
49	0xbd120936	-0.035653315
50	0x4024e254	2.576314
51	0xbef0d50f	-0.4703755
52	0xbece9f3e	-0.40355867
53	0xbc57ed8b	-0.013179193
54	0x3bbe6632	0.0058105225
55	0xbc83ffd8	-0.016113207
56	0xbf3e4c2d	-0.74334985
57	0xbeecf102	-0.46277624
58	0xbd3719a1	-0.044702176
59	0x3f86ed43	1.0541157
60	0x3f95f76a	1.171613
61	0x3f7b08c2	0.9806024
62	0x3c91cf07	0.017798914
63	0x3d5a4678	0.05328986
64	0xbd935aa3	-0.07195022
65	0xbfbf703e	-1.4956129
66	0x3fbda22d	1.4815117
67	0x3f9e9984	1.2390599
68	0xbfdf34a0	-1.7437935
69	0xbe94d334	-0.29067385
70	0xbc4e75b7	-0.012601308
71	0xbcf7c31c	-0.030244403
72	0x3c2dcca8	0.010607876
73	0xbfeb2630	-1.8371029
74	0x3d5a7d35	0.053342063
75	0xbcbb31f0	-0.02285096
76	0x3d7c626c	0.0616173
77	0xbc5f72b4	-0.013638187
78	0x3da63301	0.08115197
79	0xbe8237ef	-0.254333
80	0xbf8144df	-1.0099143
81	0xbd1412fa	-0.03615091
82	0x3af1511c	0.0018411013
83	0xbd3e6b50	-0.04648906
84	0xbee5cfb1	-0.44885018
85	0xbeb509ce	-0.35359043
86	0xbd67b4bf	-0.056568857
87	0xbd095315	-0.0335265
88	0xbf71e109	-0.94484
89	0x3cfa4b43	0.030553466
90	0xbd2c6099	-0.04208431
91	0x3f9cb0e4	1.2241483
92	0x3fe26424	1.768681
93	0xbec6004e	-0.38672107
94	0xbd88a725	-0.06672505
95	0xbc4fd000	-0.012683868
96	0xbfa8ce8e	-1.3188035
97	0x3e32445f	0.17408894
98	0xbf513bd0	-0.8173189
99	0xbf2606ed	-0.6485432
100	0xbdb3825c	-0.087650985
101	0x3f671ca8	0.902781
102	0xbd73a440	-0.059482813
103	0xbfea934b	-1.83262
104	0xbc1632a7	-0.00916735
105	0xbd5955cf	-0.05306035
106	0x3f41e0bb	0.75733536
107	0x40083645	2.1283123
108	0xbcac12a3	-0.02100498
109	0x3d786fee	0.06065362
110	0xbd5ba48f	-0.053623732
111	0x3a8e02a5	0.0010834528
112	0x3f6dff2d	0.9296749
113	0x3cbc5abf	0.02299249
114	0x3c75ace2	0.014994832
115	0xbd1e4341	-0.038638357
116	0xbd9e8e7e	-0.07742022
117	0xbe0c7976	-0.13718209
118	0x3d142733	0.036170196
119	0x3fdff562	1.749676
120	0x3d1360f9	0.035981152
121	0xbbbd852f	-0.005783699
122	0x3c498353	0.012299377
123	0xbc88b4ba	-0.01668774
124	0xbf9f148e	-1.2428148
125	0xbbda1cae	-0.006656251
126	0xbe80c7d4	-0.25152457
127	0x3f91b39b	1.1382936
128	0xbf71f70f	-0.94517606
129	0x400e2b56	2.221395
130	0x3fcd0f18	1.6020231
131	0x3d376a11	0.044778887
132	0x3ce414a0	0.027841866
133	0x3f0d541a	0.55206454
134	0x3d8bdbc9	0.0682903
135	0x3fa7dbc3	1.3113941
136	0x3c63f432	0.013913201
137	0xbdbaf424	-0.091285974
138	0xbd525a4b	-0.05135564
139	0xbd88f0ca	-0.06686552
140	0xbd52ce04	-0.051466003
141	0xbd923bad	-0.071402885
142	0xbfe39cad	-1.7782189
143	0x3ca2a5fc	0.019854538
144	0x3c0f19b9	0.00873416
145	0x3f2a8c9e	0.66620815
146	0x40317746	2.7729049
147	0x3d72c933	0.05927391
148	0x40218a51	2.5240672
149	0xbd0852e7	-0.033282187
150	0x3ff4b0bd	1.9116436
151	0x401900a2	2.3906636
152	0x3c9b9631	0.018992515
153	0xbbab2d39	-0.005223897
154	0x3d068e3d	0.032850493
155	0xbfb92411	-1.4464132
156	0xbf82b3b8	-1.0211096
157	0x3bbd24fe	0.005772232
158	0xbf40e2f0	-0.7534628
159	0xbd76362b	-0.060110252
160	0xbd17141d	-0.036884416
161	0x3fbe714f	1.4878329
162	0xbc515932	-0.0127776135
163	0xbf01ca8b	-0.5069968
164	0x3fb495bf	1.4108199
165	0x3f84b5ba	1.0367959
166	0xbe8ebfde	-0.27880758
167	0x3fbfe49d	1.4991642
168	0x3b2f9a23	0.0026794754
169	0xbfe68999	-1.8010741
170	0x3f87f9b1	1.0623075
171	0x3fecd081	1.850113
172	0xbef36318	-0.4753654
173	0x3fc70741	1.5549089
174	0x3fd95b13	1.6980919
175	0xbe89fe68	-0.2695191
176	0xbf7130f2	-0.9421531
177	0xbd979e9c	-0.07403299
178	0x4023caf0	2.5592613
179	0xbdd5ee2e	-0.1044582
180	0xbf0c6786	-0.54845464
181	0xbd51776b	-0.051139276
182	0xbd71d7f1	-0.05904383
183	0xbd3df9c7	-0.046380784
184	0xbefcc0be	-0.493658
185	0xbec6db1c	-0.38839042
186	0x3d455d24	0.04818453
187	0x3fbeb324	1.4898419
188	0x3f9c815d	1.2226979
189	0x3f769a63	0.96329325
190	0xbbd93c1e	-0.006629481
191	0xbc09c92a	-0.008409778
192	0xbc8ae3bb	-0.016954293
193	0xbfceb489	-1.6148845
194	0x3fb1e7a5	1.3898817
195	0x3dd9da87	0.10637384
196	0xbeb0dafd	-0.34542075
197	0xbf1e2ece	-0.6179017
198	0xbc7ba912	-0.015360134
199	0x3ca7f492	0.020502362
200	0xbd1d55df	-0.03841197
201	0xbfc17aed	-1.5115639
202	0xbbcdf0f6	-0.0062848283
203	0x3d8d46c0	0.0689826
204	0x3884b169	6.327296e-05
205	0x3c42c7f7	0.011888496
206	0xbdc0fd74	-0.09423342
207	0xbf36780c	-0.71276927
208	0xbf7810c8	-0.96900606
209	0x3d069959	0.032861087
210	0x3d1f30a8	0.03886476
211	0x3cfbd894	0.030742921
212	0xbed3e0f5	-0.41382566
213	0xbf19735f	-0.5994167
214	0x3d50c0e8	0.05096522
215	0xbd285ea2	-0.041105874
216	0x3fe49c6d	1.7860237
217	0x3a215b90	0.00061553065
218	0x3c0fa040	0.008766234
219	0x3f6365cc	0.88827205
220	0x3fa152fe	1.2603452
221	0xbec0abad	-0.37630978
222	0x3c9f9a82	0.019482855
223	0x3c66f939	0.014097505
224	0xbfd91434	-1.695929
225	0x3f099c41	0.5375405
226	0xbf875cc2	-1.0575182
227	0xbf364a90	-0.71207523
228	0xbda96ccd	-0.08272705
229	0x3f964d7c	1.1742396
230	0x3c65c8f5	0.014024963
231	0xbfc905de	-1.5704916
232	0x3caa99e6	0.020825338
233	0x3d6a3b3b	0.057185393
234	0x3f03c858	0.51477575
235	0x3fe9c37b	1.8262781
236	0xbc9be9ec	-0.019032441
237	0x3d2c871f	0.04212105
238	0xbcfb3966	-0.030667018
239	0xbd2f1d13	-0.042752337
240	0x3fa67486	1.300431
241	0x3d9821a3	0.07428291
242	0x3be8953d	0.0070978687
243	0x3d55e3d6	0.052219234
244	0x3d98f3ee	0.07468401
245	0xbeb5a809	-0.35479763
246	0xbcf56e6b	-0.029959878
247	0x4016e6f1	2.3578455
248	0xbd5e000b	-0.05419926
249	0xba180966	-0.00057997403
250	0x3d1fc884	0.039009586
251	0xbce7316f	-0.028221814
252	0x3fa3fbcd	1.2811219
253	0x3c9748ed	0.01846739
254	0xbeae1a0d	-0.3400425
255	0x3f962267	1.1729249

net.4.bias f4 [4]
0	0xbf19dabb	-0.6009938
1	0x3e33c18c	0.17554301
2	0xbe3b0815	-0.18264802
3	0xbe3d8381	-0.18507196
