experiments/LunarLander-v2-descrete-hyperpra-tunnig/ed/5e-05/model.pt (torch, 114135 bytes, 6 tensors)

net.0.weight f4 [200, 8]
0	0xbf1a9cea	-0.6039568
1	0xbf4d8a77	-0.80289406
2	0x3ea26c26	0.31723136
3	0xbd6637f7	-0.056205716
4	0x3eb97bc5	0.3622724
5	0xbdb07e69	-0.08617861
6	0x3e8a2181	0.26978686
7	0xbebb24b3	-0.36551437
8	0x3fc32118	1.5244474
9	0x3e67e2e8	0.22645152
10	0xbe6afe81	-0.22948648
11	0xbf663f6e	-0.89940536
12	0xbf4df754	-0.8045552
13	0xbf6792cb	-0.90458363
14	0xbf06c8eb	-0.52650326
15	0x3ed39adb	0.41329083
16	0x3e8180b7	0.25293514
17	0x3e2956cb	0.16537015
18	0xbf7409d1	-0.9532748
19	0xbf4a5865	-0.7904113
20	0x3fb21a5e	1.3914297
21	0xbe9d1b7d	-0.30685034
22	0xbfe4d58d	-1.787767
23	0xbfcd6a77	-1.6048115
24	0x3eeb8f0b	0.4600757
25	0xbf19a9ba	-0.6002461
26	0xbe40b720	-0.18819857
27	0xbd400c1d	-0.046886552
28	0x400220c3	2.0332496
29	0x3fb29719	1.3952361
30	0x3ea6abf8	0.32553077
31	0x3e74b83b	0.23898403
32	0xbd6927d3	-0.056922745
33	0xbf9a1519	-1.2037688
34	0xbec4e4b1	-0.38455728
35	0xbe98122d	-0.29701367
36	0x3dc23299	0.09482307
37	0xbfaf7fe6	-1.3710907
38	0xbe2d8102	-0.16943744
39	0xbe56ecec	-0.20988816
40	0x3ea53d67	0.3227341
41	0xc0005951	-2.0054514
42	0xbf3975aa	-0.72445166
43	0xbeefe136	-0.4685151
44	0x3f22d800	0.6361084
45	0x3e989e43	0.29808244
46	0x3dd78b45	0.105246104
47	0x3e66b9e4	0.22531849
48	0x3f4e79d8	0.8065467
49	0xbf2ae5b0	-0.66756725
50	0x3fa5a576	1.294112
51	0x3ee1e582	0.44120413
52	0xbf8a0819	-1.0783721
53	0xbec91a11	-0.392777
54	0x3d55b6b1	0.05217618
55	0xbcc8ad39	-0.024496661
56	0x3dcadf0f	0.09905826
57	0x3f4f391b	0.8094651
58	0x3de961b5	0.11395589
59	0xbebd7a3a	-0.37007314
60	0xbf003547	-0.50081295
61	0xbea3572f	-0.31902453
62	0xbfbb44bb	-1.463035
63	0x3d13c385	0.036075134
64	0xbee90dc7	-0.45518324
65	0x3dd0f414	0.10202804
66	0x3f309862	0.6898252
67	0xbeff3926	-0.49848288
68	0xbe986055	-0.29760996
69	0xbf1c58fe	-0.6107329
70	0xbf70791f	-0.93934816
71	0xbfa9a72e	-1.3254144
72	0x3eeff0de	0.46863455
73	0x3ef4391c	0.4769982
74	0x3f17cb50	0.59294605
75	0xbf439b9d	-0.7640932
76	0x3e6da7a8	0.23208487
77	0xbd8a26b4	-0.06745663
78	0x3df3ed08	0.119104445
79	0xbe57ff5c	-0.21093506
80	0x3f4f966f	0.8108892
81	0x3edcea9b	0.4314774
82	0x3ef7b149	0.48377445
83	0x3be7c314	0.0070728157
84	0x3d86ae14	0.065761715
85	0x3eb6a0d1	0.35669568
86	0x3eeeb254	0.4662043
87	0x3e89a863	0.2688628
88	0xbf726b1a	-0.94694674
89	0xbfb5b699	-1.4196349
90	0xbe785f08	-0.24255002
91	0xbd435382	-0.04768706
92	0xbeac830c	-0.3369373
93	0x3cae04a1	0.021242442
94	0xbf64e0e6	-0.8940567
95	0x3cc669d6	0.024220388
96	0xbf850d89	-1.0394756
97	0xbf9ba159	-1.2158614
98	0xbf8a8b42	-1.0823748
99	0x40650d01	3.5789187
100	0x3f6d0e09	0.9259954
101	0x3d95b008	0.07308966
102	0x3f48b0a2	0.7839452
103	0x3f13ccfc	0.57734656
104	0xbf941075	-1.1567522
105	0xbf1cbcb6	-0.6122545
106	0xbf7f59f1	-0.99746615
107	0xbf355566	-0.7083343
108	0x3f97d566	1.1861999
109	0x3efda301	0.49538425
110	0x3e787abd	0.24265571
111	0x3e9e3c5f	0.30905434
112	0xbef15964	-0.47138512
113	0x3ed9df7e	0.42553324
114	0xbe2e0dbe	-0.1699743
115	0xbeb57d9e	-0.354474
116	0x3f97b784	1.185288
117	0xbd3aedb2	-0.04563684
118	0x3f57338d	0.84063035
119	0xbe8633d4	-0.26211417
120	0xbe05e7db	-0.13076727
121	0x3ea547bd	0.32281294
122	0x3d5f45cd	0.054509927
123	0xbdffeaf0	-0.12495983
124	0x3eab8bcd	0.33505097
125	0xbf8df49b	-1.1090273
126	0xbd7e9de6	-0.062162302
127	0xc012fc83	-2.296662
128	0x3fca2612	1.5792868
129	0xbf348bca	-0.705258
130	0xbf415216	-0.7551588
131	0xbfbd01e9	-1.4766208
132	0x3ec7a39a	0.38992006
133	0xbe4c89cc	-0.1997444
134	0xbefa733d	-0.48916045
135	0xbf3228af	-0.6959333
136	0x3eb8e3da	0.36111337
137	0x3f06da2f	0.5267667
138	0x3f7aab2f	0.97917455
139	0x3f0e6827	0.55627674
140	0xbf8cfc38	-1.1014471
141	0xbed3687e	-0.4129066
142	0xbeaccae8	-0.33748555
143	0x3f51c816	0.8194593
144	0x3f39295b	0.7232873
145	0x3e078a4f	0.13236354
146	0x3f7e75ae	0.99398315
147	0x3e2b129f	0.16706322
148	0xbf01f1c8	-0.50759554
149	0x3e3b6f17	0.18304096
150	0xbec47de5	-0.383773
151	0xbeb49872	-0.35272557
152	0xbeea7888	-0.45795083
153	0xbf255847	-0.64587826
154	0x3e2c0b71	0.1680124
155	0x3f5b7db5	0.8573869
156	0xbf04375d	-0.5164698
157	0xbdacc8b2	-0.08436717
158	0x3e50df3c	0.20397657
159	0x3df46d1d	0.11934874
160	0x3e8ab8a5	0.27093998
161	0x3eb17461	0.34659103
162	0xbf20f3c1	-0.6287194
163	0x3f46b937	0.77626365
164	0x3f63b014	0.8894055
165	0x3f287d44	0.6581614
166	0x3ef1be8b	0.47215685
167	0xbef295df	-0.47379968
168	0x3e97e950	0.2967019
169	0xbedf94f8	-0.43668342
170	0x3f958972	1.168257
171	0x3faf2a59	1.3684798
172	0xbf52000a	-0.8203131
173	0x3eecfffc	0.4628905
174	0x3f6b43e6	0.9190048
175	0x3f459454	0.77179456
176	0xbf226a5e	-0.63443553
177	0xbe02ffcb	-0.1279289
178	0x3f13f1ee	0.5779103
179	0xbd067d14	-0.032834128
180	0x3fb64e25	1.4242598
181	0x3fb656ca	1.4245236
182	0x3da7d387	0.081946425
183	0xbee2ba7e	-0.44282907
184	0xbfd174bc	-1.636375
185	0x3ebe3717	0.37151405
186	0x3e9d45f3	0.3071743
187	0x3e031b83	0.12803464
188	0x3f416943	0.7555124
189	0x3f963cd2	1.1737311
190	0xbf77eceb	-0.96845883
191	0xbf00fd52	-0.50386536
192	0xbf5f32e6	-0.8718704
193	0x3d413fb0	0.047179878
194	0x3eb44df5	0.35215726
195	0xbe38cba4	-0.18046433
196	0xbf855862	-1.0417597
197	0x3dd67d0b	0.10473069
198	0xbe4be547	-0.19911681
199	0xbf5bc801	-0.85852057
200	0xbeb4568d	-0.35222283
201	0xbfa1ce39	-1.2641059
202	0xbf55ad0a	-0.8346716
203	0xbdbbdae4	-0.091726094
204	0x3ef5ad81	0.47983935
205	0x3f4378a7	0.76355976
206	0x3e7380e0	0.2377963
207	0x3e9bb2ec	0.30409944
208	0xbf686ecf	-0.9079408
209	0x3be9d891	0.0071364124
210	0xbe8b516d	-0.2721056
211	0xbf3619eb	-0.711333
212	0x3cec0f48	0.02881588
213	0xbeb2839d	-0.34866038
214	0x3f32806c	0.69727206
215	0xbcd73a24	-0.02627284
216	0x3fabcb52	1.3421423
217	0x3e3e4467	0.18580781
218	0x3eea36a3	0.4574481
219	0xbe3e73d2	-0.1859887
220	0xbf4cecbb	-0.8004872
221	0xbf35b3a8	-0.7097726
222	0xbe804833	-0.25055084
223	0xbead63c5	-0.3386518
224	0x3ecc0df3	0.39854392
225	0xbe69083c	-0.22757047
226	0xbf0efc6c	-0.55853915
227	0x3dd6de1e	0.10491584
228	0x3f2912ab	0.6604411
229	0xbe13c54e	-0.14430735
230	0x3c0b36c0	0.00849694
231	0xbf93cfbc	-1.154777
232	0x3e4669ed	0.19376345
233	0xbe86fea2	-0.26366144
234	0xbd6f83f9	-0.05847547
235	0xbf896522	-1.0733988
236	0x3f646317	0.892137
237	0xbf1f7b01	-0.62297064
238	0xbe3ab43a	-0.18232813
239	0xbed8244f	-0.422152
240	0xbe9f70a8	-0.31140637
241	0xbf06b5a8	-0.52620935
242	0xbef061e6	-0.4694969
243	0x3f22c756	0.6358541
244	0xbec88232	-0.3916183
245	0x3c8bafbe	0.017051574
246	0xbef36883	-0.47540674
247	0x3e8768dc	0.2644719
248	0xbf7e3ba4	-0.99309754
249	0xbed6a822	-0.4192515
250	0xbfa06f3e	-1.2533948
251	0xbea50eb5	-0.32237783
252	0x3e82f59b	0.25578007
253	0xbee196e6	-0.4406044
254	0x3e572617	0.21010624
255	0xbeae8939	-0.34089068

net.0.bias f4 [200]
0	0x3ebc3b54	0.36764014
1	0xbf302cd2	-0.6881839
2	0x3f2f646e	0.6851262
3	0xbe9e3895	-0.30902544
4	0xbf758e10	-0.95919895
5	0x3ee19c52	0.44064575
6	0x3f53ce72	0.82736886
7	0xbf07cf2f	-0.5305051
8	0xbf09f41a	-0.53888094
9	0x3eba4ba3	0.3638583
10	0x3ee259ad	0.44209042
11	0x3dc7e75f	0.097609274
12	0xbe9ec96d	-0.3101305
13	0xbee4f47b	-0.44717774
14	0xbeeb2b10	-0.45931292
15	0x3ed62326	0.4182369
16	0x3e259821	0.16171314
17	0xbed0f524	-0.40812027
18	0x3f53de6f	0.8276128
19	0x3f7c83fa	0.9863888
20	0x3f8f9465	1.1217161
21	0x3f69c657	0.9131827
22	0x3f20c4ff	0.6280059
23	0xbe77002e	-0.24121162
24	0xbe2a87ba	-0.16653338
25	0x3ea455c1	0.32096675
26	0xbf2bdf06	-0.6713718
27	0xbf94bf6c	-1.1620917
28	0x3f43c99a	0.76479495
29	0x3f013261	0.504675
30	0x3f727794	0.9471371
31	0xbf520d56	-0.820516
32	0x3ea65825	0.32489124
33	0x3f82c4da	1.0216324
34	0x3f079d5d	0.5297449
35	0x3e29985b	0.16562025
36	0x3ec26480	0.379673
37	0x3d91968e	0.07108794
38	0x3d907fed	0.0705565
39	0x3f49f684	0.7889178
40	0xbe860f20	-0.26183414
41	0x3dd1f633	0.10252037
42	0xbf526810	-0.82190037
43	0x3c9f014c	0.019409798
44	0xbe3d4b67	-0.18485795
45	0x3f0d25e3	0.55135936
46	0x3e5694ea	0.20955244
47	0xbf371c4b	-0.71527547
48	0xbe11ec4e	-0.142503
49	0x3e39a907	0.18130885
50	0x3f1e7243	0.618931
51	0xbf2f284d	-0.6842087
52	0x3c60914f	0.013706519
53	0x3c91a3e2	0.01777834
54	0x3d9a0aa2	0.07521559
55	0xbf6277b4	-0.884639
56	0x3e64bb08	0.22336972
57	0xbeb1bed4	-0.34715903
58	0xbe612940	-0.21988392
59	0x3f06d34e	0.52666175
60	0x3df1d65f	0.11808466
61	0xbe8fac4a	-0.28061134
62	0xbef6a081	-0.4816933
63	0xbdb9fd0a	-0.090814665
64	0xbf12f03c	-0.5739782
65	0x3dd9b7c6	0.10630755
66	0xbf46c9ed	-0.77651864
67	0xbf832ac5	-1.0247427
68	0x3eb732e0	0.35781002
69	0x3d9aa199	0.075503536
70	0xbc5501ba	-0.0130009
71	0x3ea8326d	0.32850972
72	0x3b9af210	0.004728563
73	0xbf5c4a5e	-0.86050975
74	0x3db844ca	0.089974955
75	0xbe27ef81	-0.16399957
76	0xbddab30c	-0.10678682
77	0xbec698c4	-0.38788426
78	0xbecc1a2f	-0.39863726
79	0xbde768c6	-0.11299281
80	0x3efb5d76	0.49094743
81	0xbef16075	-0.47143903
82	0xbea89abb	-0.3293055
83	0x3e06f2c4	0.13178545
84	0xbea184b9	-0.31546572
85	0xbe36e9bd	-0.17862602
86	0xbedaf9dc	-0.42768753
87	0x3e1376b6	0.14400753
88	0x3f6fa8b1	0.9361678
89	0x3eb93c6b	0.36178908
90	0x3d993b9a	0.07482071
91	0x3f1ea657	0.61972564
92	0x3edc67de	0.43047994
93	0xbf3f11df	-0.74636644
94	0xbef2bac0	-0.47408104
95	0x3edcc8f9	0.4312208
96	0x3e2fb387	0.17158328
97	0x3f209874	0.62732625
98	0xbe24c186	-0.16089448
99	0x3e620086	0.22070512
100	0x3e952dde	0.29136556
101	0x3f67af2d	0.9050167
102	0x3f73bb9d	0.9520815
103	0x3e9900e2	0.29883486
104	0xbef675f3	-0.48136863
105	0x3ebfd247	0.37465116
106	0xbe1545c5	-0.14577396
107	0xbee26c9d	-0.4422349
108	0x3eefb026	0.46814078
109	0xbec9e21d	-0.39430323
110	0xbfb4cd0e	-1.4125078
111	0x3f64e103	0.8940584
112	0x3f13f6ec	0.5779865
113	0x3e2cd7ba	0.16879168
114	0x3dec3be7	0.11534863
115	0xbeb3961a	-0.35075456
116	0xbea27685	-0.31731048
117	0xbcf79132	-0.030220602
118	0x3f400357	0.75005096
119	0x3e643cd9	0.22288837
120	0x3d79dd0d	0.061001826
121	0xbe997d49	-0.29978397
122	0xbe5d95ae	-0.2163913
123	0x3dda90a1	0.10672117
124	0xbde96381	-0.11395932
125	0xbf2acdce	-0.66720283
126	0x3e5ad8c5	0.21371754
127	0x3e533190	0.20624375
128	0xbd94b4e0	-0.07261062
129	0x3dd0162b	0.10160478
130	0x3e3dcb88	0.18534672
131	0x3e70bdb1	0.23509862
132	0x3e1215fc	0.14266199
133	0xbe955ca1	-0.29172233
134	0xbe019568	-0.1265465
135	0xbe73ebcb	-0.23820417
136	0xbdbca875	-0.09211818
137	0xbe0651e9	-0.13117184
138	0xbec2dd0a	-0.38059264
139	0x3f23fd1b	0.64058083
140	0x3e6aacfd	0.22917552
141	0x3f275e6c	0.6537845
142	0xbeaf85e2	-0.34281832
143	0xbf13ceb6	-0.5773729
144	0x3e9b48dc	0.30329025
145	0x3f74202f	0.9536161
146	0xbf09fad8	-0.5389838
147	0xbf11e89b	-0.5699555
148	0x3d817826	0.063217446
149	0x3d0d05c3	0.034429323
150	0x3e088683	0.13332562
151	0xbf28a217	-0.6587233
152	0x3ed7b5c4	0.42130864
153	0x3e9e118d	0.30872765
154	0xbe5f8cc6	-0.21831045
155	0xbede502a	-0.43420535
156	0xbe07798d	-0.13229962
157	0xbdb47f41	-0.08813334
158	0xbfafcc93	-1.3734306
159	0xbf66baac	-0.9012859
160	0x3ed6d724	0.41961014
161	0xbe54cbaf	-0.20780824
162	0xbec7b87e	-0.39007944
163	0xbeaf01fe	-0.34181207
164	0x3c90b098	0.017662331
165	0x3e99c091	0.3002973
166	0x3d819bcb	0.06328543
167	0x3ef8d259	0.48597983
168	0xbf2c22a7	-0.67240375
169	0xbe8273e8	-0.25479054
170	0xbf97f2b2	-1.187094
171	0xbe84c33c	-0.25930202
172	0x3ee0a98c	0.43879354
173	0x3d1ceaaf	0.03830975
174	0xbead722e	-0.33876175
175	0xbd86ac2d	-0.06575809
176	0xbe5554e9	-0.20833172
177	0x3eb120c9	0.34595326
178	0xbcc762b1	-0.024339052
179	0xbebf1d48	-0.37327027
180	0x3e1e0b90	0.15434098
181	0x3f12c907	0.57337993
182	0xbecaabbb	-0.39584145
183	0xbea14ad7	-0.3150241
184	0xbce60e44	-0.028082974
185	0xbd29289e	-0.0412985
186	0x3f05dfac	0.5229442
187	0xbeca2eca	-0.39488822
188	0xbca41690	-0.02003029
189	0xbd412ff9	-0.04716489
190	0x3f3a716b	0.7282931
191	0xbe74a198	-0.23889768
192	0xbe466cf4	-0.193775
193	0x3d9adc0c	0.07561502
194	0x3e76ad30	0.24089503
195	0x3f3911e6	0.72292936
196	0x3f3f3e4a	0.7470442
197	0xbf196ed3	-0.5993473
198	0xbcc6f3c7	-0.024286164
199	0xbdfae670	-0.12250984

net.2.weight f4 [128, 200]
0	0xbd5cbad2	-0.053889103
1	0xbed64d30	-0.41855764
2	0x3e68ed80	0.22746849
3	0xbf76f33c	-0.96464896
4	0x3f20e55e	0.62849987
5	0xbec44f31	-0.38341668
6	0x3f53734b	0.825978
7	0x3e0064c8	0.12538445
8	0x3cdbc8a8	0.026829079
9	0x3eae01da	0.33985788
10	0x3e39106d	0.18072672
11	0x3ecc2122	0.39869028
12	0x40293ac1	2.644211
13	0x3e86c541	0.26322368
14	0xbee557ae	-0.44793457
15	0xbd598c4a	-0.053112306
16	0xbd22e6d8	-0.03977093
17	0x3d11b202	0.035570152
18	0xbea2a604	-0.31767285
19	0xbe4ce188	-0.20007908
20	0xbfd4497e	-1.6584928
21	0xbfba9975	-1.4578081
22	0x3de9fee4	0.1142557
23	0xbf7f4341	-0.99711996
24	0x3e675fca	0.22595134
25	0x3cca901c	0.02472692
26	0x3f25b4cb	0.64728993
27	0x3db6e82f	0.08931004
28	0x3db5a21a	0.08868809
29	0xbe2d2dd2	-0.1691201
30	0xbde0f4ef	-0.109842174
31	0x3f8bcfa8	1.0922747
32	0x3f8a30e9	1.0796176
33	0xbfbfa6c4	-1.4972768
34	0x3f324027	0.6962914
35	0x3e141656	0.14461645
36	0xbed62e02	-0.41831976
37	0x3ec4a034	0.38403475
38	0x3d06d73f	0.03292012
39	0x3d297db6	0.041379653
40	0x3f38548c	0.7200401
41	0x3f131ff1	0.57470614
42	0x3e79fb13	0.24412183
43	0xbeebcaab	-0.4605306
44	0x3e072ec8	0.1320144
45	0x3e2e260f	0.17006706
46	0x3d36c4b5	0.04462119
47	0xbfac02f6	-1.3438404
48	0x3e51dcdc	0.20494407
49	0x3f5936ad	0.84849054
50	0xbf5263b6	-0.82183397
51	0x3e8a830d	0.2705311
52	0x3c94e8e0	0.01817745
53	0x3d574357	0.052554455
54	0xbf628d55	-0.88496906
55	0x40008bb4	2.0085268
56	0xbee330a9	-0.44373062
57	0x3eaa5d51	0.3327432
58	0x3da3699b	0.07979127
59	0x3b155646	0.0022787019
60	0xbd9a5aa3	-0.07536819
61	0x3ea25681	0.31706622
62	0xbe2ca222	-0.16858724
63	0x3e503eef	0.20336507
64	0x3fab4f9b	1.3383669
65	0x3f8a3acb	1.0799192
66	0x3c4c60ad	0.012474221
67	0xbf091f8e	-0.53563774
68	0xbe82303c	-0.25427425
69	0x3e57dcb8	0.21080291
70	0xc0001f49	-2.0019095
71	0xbf54fbe4	-0.83196855
72	0x3e33ef38	0.17571723
73	0xbea89665	-0.32927242
74	0xbfa75c54	-1.3075051
75	0x3ebdc381	0.3706322
76	0x3deb226d	0.114811756
77	0x3f45b01c	0.77221847
78	0x3fc4100e	1.53174
79	0xbed17cbc	-0.40915477
80	0xbee0de11	-0.43919423
81	0x3f25cbb8	0.64763975
82	0x3ec8e25e	0.39235204
83	0xbf26d812	-0.6517345
84	0x3f032482	0.5122758
85	0x3fb78d1b	1.4339937
86	0x3fb574df	1.4176291
87	0x3dc2edb3	0.09517994
88	0xbf4a1da8	-0.789515
89	0x3e27cb4a	0.16386142
90	0x3f06af01	0.52610785
91	0x3d8c3aad	0.06847129
92	0xbd9c844a	-0.0764242
93	0x3e57ebcd	0.21086045
94	0x3f810098	1.0078306
95	0x3f4f9556	0.81087244
96	0x3f2edabc	0.6830251
97	0xbf299ea6	-0.66257703
98	0xbfae520f	-1.3618792
99	0x3f10b39a	0.5652405
100	0xc002f437	-2.0461557
101	0x3dbf3c77	0.09337705
102	0xbfb3f6e6	-1.4059722
103	0xbd9c1652	-0.07621445
104	0x3f067d1e	0.52534664
105	0x3d7756cb	0.060385507
106	0xbd7e04b6	-0.06201621
107	0x3f47ecd1	0.7809573
108	0x3ecd4d86	0.40098208
109	0x3d4d15d7	0.050069656
110	0xbf1947fd	-0.5987547
111	0xbfa044f0	-1.2521038
112	0xbf087748	-0.5330701
113	0x3f59f2c1	0.8513604
114	0xbea7646f	-0.32693812
115	0x3ecb1394	0.39663374
116	0xbe66765b	-0.22506087
117	0x3f250dea	0.64474356
118	0xbf9327f1	-1.1496564
119	0xbf3ae4d7	-0.7300543
120	0x3ea79cb4	0.32736742
121	0x3f521082	0.8205644
122	0x3e3b2789	0.182768
123	0x3e8b7f05	0.27245346
124	0xbda43641	-0.080181606
125	0x3f862b7f	1.0482024
126	0x3e7cd511	0.24690653
127	0x3f243e2b	0.6415736
128	0xbedcaa11	-0.430985
129	0x3e4abdbf	0.19798945
130	0x3e770b2c	0.24125355
131	0xbfcdd47b	-1.6080469
132	0x3e348aec	0.1763112
133	0xbd8e4fc6	-0.06948809
134	0x3efd5e81	0.49486163
135	0x3f344cfb	0.7042996
136	0xbf00dae1	-0.5033398
137	0x3f8923e7	1.0714082
138	0x3f47cbee	0.78045547
139	0xbfa214f3	-1.2662643
140	0x3fa6e190	1.3037586
141	0x3d1bc2e5	0.038027663
142	0xbdb9eca9	-0.090783425
143	0x3db62e5b	0.0889556
144	0x3e99ea1d	0.30061427
145	0xbddd92aa	-0.108189896
146	0xbe8d8977	-0.2764394
147	0xbdaa6a94	-0.083211094
148	0x3f55196c	0.83241916
149	0x3ba95967	0.0051681283
150	0x3c4277de	0.011869399
151	0xbce28ccb	-0.027655026
152	0x3df96cad	0.121789314
153	0x3e69c57f	0.22829245
154	0x3f94905d	1.1606556
155	0x3f655e1b	0.8959672
156	0x3dd7008a	0.1049815
157	0xbfc56002	-1.5419924
158	0xbe86699f	-0.26252457
159	0xbe4745c7	-0.19460212
160	0xbeeb6c5e	-0.45981115
161	0x3f1fca4a	0.62418044
162	0xbd06bde0	-0.032895923
163	0xbf2ebbd6	-0.68255365
164	0x3dddb312	0.108251706
165	0x3eacc218	0.33741832
166	0x3e631ed7	0.22179733
167	0x3ecaf11e	0.39637083
168	0x3dfaa544	0.12238553
169	0x3f23bb0c	0.63957286
170	0xbda0c636	-0.07850306
171	0x3e5b2fca	0.21404949
172	0xbfbd59f3	-1.4793075
173	0x3efc93f8	0.4933164
174	0x3dbe37b2	0.09287967
175	0xbd2d3b4f	-0.04229289
176	0xbf4cfca8	-0.8007302
177	0x3f5078b2	0.81434166
178	0xbe93388b	-0.28754076
179	0xbd1b1815	-0.037864763
180	0xbf54513c	-0.82936454
181	0x3f67897c	0.9044416
182	0xbd15ad8b	-0.036542457
183	0x3ec691fe	0.38783258
184	0x3ef4ab34	0.47786868
185	0xbd2e99ab	-0.042627018
186	0x3f76f88f	0.9647302
187	0xbf956e7a	-1.167434
188	0x3e0a923d	0.13532348
189	0xbf4290c6	-0.76002157
190	0x3fd86b62	1.6907771
191	0x3fcd956c	1.6061225
192	0x3d813262	0.06308438
193	0xbe43b48c	-0.19111842
194	0x3f330b85	0.6993945
195	0xbf3c5475	-0.7356637
196	0xbe169334	-0.14704591
197	0x3e5840bc	0.21118444
198	0x3f0a89bd	0.5411642
199	0xbf9143aa	-1.1348774
200	0x3d09a82c	0.033607647
201	0x3cf140c8	0.029449835
202	0x3d4f6cb4	0.050640777
203	0x3c707d95	0.014678379
204	0xbd0ca9e5	-0.03434171
205	0x3cd9034a	0.026490826
206	0x3ca4c978	0.020115599
207	0xbd71be28	-0.059019238
208	0x3c3956a8	0.011312164
209	0x3c6d23d1	0.014473871
210	0xbcb618b4	-0.022228576
211	0xbd90b3ff	-0.070655815
212	0xbd8b8209	-0.068119116
213	0x3d1063b5	0.035251338
214	0xb9571a86	-0.00020513879
215	0xbd818840	-0.06324816
216	0xbcd57030	-0.026054472
217	0x3d037781	0.03209639
218	0x3d5eed33	0.05442543
219	0x3d50892f	0.05091208
220	0xbd7c2986	-0.061563037
221	0x3d06144d	0.032734204
222	0x3b24570a	0.0025076293
223	0x3cf27a3d	0.029599303
224	0xbcb1f378	-0.02172254
225	0x3d21dfc6	0.039520048
226	0xbb033054	-0.002001782
227	0x3d4b0386	0.049563907
228	0xbccb32c5	-0.024804482
229	0x3d375c4e	0.044765763
230	0xbdade7b0	-0.084914565
231	0x3d5460a1	0.051849965
232	0xbcab6510	-0.020922214
233	0x3d4809ef	0.0488376
234	0xbd7de602	-0.06198693
235	0xbb33c944	-0.0027433196
236	0xbd75f34d	-0.060046483
237	0xbc4a47d5	-0.012346228
238	0xbd86f922	-0.06590487
239	0x3d28b0e3	0.041184317
240	0xbd224e52	-0.039625473
241	0xbd9b0b6d	-0.07570539
242	0x3d6bc36f	0.057559427
243	0xbd6a1c04	-0.057155624
244	0x3c24baad	0.010054273
245	0x3d81309a	0.06308098
246	0xbd40df4c	-0.047087952
247	0xbd71b98f	-0.059014853
248	0xbc3e770a	-0.011625061
249	0xbcee3888	-0.02907969
250	0xbd0b7cef	-0.034054693
251	0xbd9e9197	-0.07742613
252	0xbd7d0af5	-0.061778028
253	0xbbe0da8c	-0.0068619903
254	0x3d1f868f	0.038946684
255	0xbc0cb10e	-0.008587135

net.2.bias f4 [128]
0	0xbecce2a3	-0.4001666
1	0xbd285728	-0.041098744
2	0xbd272f82	-0.04081679
3	0xbdf53da9	-0.11974651
4	0xbe38d255	-0.18048985
5	0x3e8d0f79	0.27550867
6	0x3a2f1fe0	0.000668047
7	0xbe3eea88	-0.18644154
8	0x3dacada9	0.084315605
9	0xbd81ac93	-0.06331744
10	0xbdd68466	-0.10474472
11	0x3c71bc35	0.014754345
12	0xbdb5fe46	-0.088863894
13	0x3e3d5cfc	0.18492502
14	0xbd647733	-0.05577774
15	0xbd2ec7ea	-0.04267112
16	0xbdaf1d23	-0.08550479
17	0x3e494059	0.19653453
18	0x3e665334	0.22492677
19	0x3ee8a4d5	0.45438257
20	0xbd35e026	-0.044403218
21	0xbd67155d	-0.056416858
22	0xbe892193	-0.26783428
23	0x3d66f89e	0.056389444
24	0xbee92d04	-0.45542157
25	0x3f05d7b4	0.5228226
26	0xbd332c83	-0.04374362
27	0x3d9533c6	0.072852656
28	0x3dc75384	0.09732726
29	0xbcadfdad	-0.021239126
30	0x3dbd5fbd	0.09246776
31	0xbe828c13	-0.25497493
32	0xbcd6016d	-0.026123727
33	0xbdfc097f	-0.12306499
34	0xbdccda7b	-0.10002609
35	0x3c48facb	0.012266825
36	0xbc5335fa	-0.012891287
37	0xbe1f7ef7	-0.15575777
38	0x3eecc139	0.46241167
39	0x3d3e36f7	0.046439137
40	0x3e8e7119	0.27820662
41	0xbe1a26ca	-0.1505386
42	0x3e9cb4f9	0.3060682
43	0xbec157ff	-0.37762448
44	0x3a544dcf	0.00080987526
45	0x3ed22a81	0.41048053
46	0xbef12a5d	-0.47102633
47	0x3f016ce4	0.5055678
48	0xbd19ee42	-0.037580736
49	0xbcdd81fe	-0.027039524
50	0xb854278d	-5.0581573e-05
51	0x3ea9ecd2	0.33188492
52	0xbdae6334	-0.08515015
53	0x3eb299be	0.3488292
54	0xbe573607	-0.21016704
55	0x3e902169	0.2815049
56	0x3e3c821d	0.1840901
57	0xbeb41012	-0.3516851
58	0xbd3807d0	-0.044929326
59	0xbd80662c	-0.06269488
60	0x3f22b7be	0.6356162
61	0x3eb554c0	0.35416222
62	0xbd2b5233	-0.04182644
63	0xbb35d005	-0.0027742398
64	0xbe683dd4	-0.22679836
65	0xbd60f572	-0.054921575
66	0x3e3eb556	0.18623862
67	0xbd19ae2c	-0.03751962
68	0x3e8c143b	0.27359185
69	0x3ed80dfb	0.42198166
70	0x3d3f898d	0.046762038
71	0x3c4c581c	0.012472179
72	0x3eaa12c5	0.33217445
73	0x3eb42f80	0.3519249
74	0xbd8090eb	-0.06277641
75	0x3e52dcba	0.20592013
76	0x3e97103f	0.29504582
77	0xbf0c4d53	-0.5480549
78	0x3ec657a7	0.38738748
79	0xbbe20c18	-0.0068984143
80	0xbebff3c3	-0.37490663
81	0x3e622fb8	0.22088516
82	0x3f01f5d9	0.5076576
83	0xbda38710	-0.079847455
84	0xbe2172f0	-0.15766501
85	0xbc83cb34	-0.016088106
86	0x3c8cf81e	0.017208155
87	0x3db972b8	0.09055084
88	0xbd0d02d1	-0.034426514
89	0xbdcca176	-0.09991734
90	0xbd960b91	-0.07326425
91	0xbe2ebbeb	-0.17063873
92	0xbcaee56f	-0.021349637
93	0xbd474fb2	-0.048659988
94	0xbdd86ed1	-0.105680116
95	0x3d343bbf	0.04400229
96	0x3c1ad59e	0.009450344
97	0xbe868991	-0.2627683
98	0xbda70243	-0.08154728
99	0x3eccb470	0.39981413
100	0xbece2721	-0.40264228
101	0x3d6024b5	0.054722507
102	0xbdafdead	-0.08587394
103	0x3de05224	0.10953167
104	0xbd93b948	-0.07213074
105	0xbde2bfcc	-0.110717386
106	0x3e8c0d69	0.2735398
107	0xbdc4754d	-0.09592686
108	0xbdc8e22e	-0.09808765
109	0xbec76ce9	-0.3895028
110	0x3e0923ef	0.13392614
111	0x3d3ea7c3	0.04654671
112	0xbc09f871	-0.008421049
113	0x3f0062e6	0.5015091
114	0xbe0585ad	-0.13039275
115	0x3e64e4d8	0.22352922
116	0x3f253501	0.64534
117	0xbd9b905d	-0.075958945
118	0xbe2dc4d6	-0.16969618
119	0xbd06579d	-0.0327984
120	0x3e1d29cb	0.15347974
121	0x3e00e12a	0.12585893
122	0x3cca9365	0.024728486
123	0xbdc46f24	-0.09591511
124	0x3efecdc5	0.49766365
125	0xbd931215	-0.07181183
126	0xbf9e8897	-1.2385434
127	0x3eae975f	0.34099862

net.4.weight f4 [4, 128]
0	0xbfcae466	-1.5850952
1	0x3d6c98d5	0.05776294
2	0x3d2074bb	0.039173823
3	0x3ccd3758	0.025050804
4	0xbf953890	-1.1657887
5	0xbfcfbc48	-1.6229334
6	0xbcb239c2	-0.021756057
7	0xbf8ea114	-1.1142907
8	0xbf83396e	-1.0251901
9	0xbc36f573	-0.011166918
10	0xbc909693	-0.017649924
11	0xbb3e7693	-0.0029062375
12	0xbc8b4b21	-0.017003598
13	0xbf67fa6c	-0.9061649
14	0xbfbbf4fd	-1.468414
15	0xbd30717f	-0.04307699
16	0xbd395d2c	-0.04525487
17	0xbf231dfe	-0.6371764
18	0xbf15e269	-0.585486
19	0xbf8020d6	-1.0010021
20	0x3d158f5f	0.036513682
21	0x3d536309	0.05160812
22	0xbf7cf703	-0.9881441
23	0xbcd4c5eb	-0.02597328
24	0xc038c6d3	-2.8871353
25	0x3f421ce8	0.7582536
26	0xbbb24d09	-0.005441312
27	0x3fb3dc03	1.4051517
28	0x40085e6b	2.1307628
29	0x3cde6572	0.027147982
30	0xbee249fc	-0.4419707
31	0xbfc78ee9	-1.5590488
32	0xbf88ae1f	-1.0678138
33	0xbf564327	-0.83696216
34	0xbfed30e2	-1.8530543
35	0xbcc80fe3	-0.024421638
36	0xbeaf36db	-0.3422154
37	0xbf919daa	-1.137624
38	0xbf42e4bc	-0.7613027
39	0x3d3e41e8	0.04644957
40	0xbf787af4	-0.9706261
41	0xbfbe7f7d	-1.4882656
42	0xbea8dbf6	-0.32980317
43	0x4035d1b2	2.8409238
44	0xbeab8c82	-0.33505636
45	0xbef39ab2	-0.4757896
46	0xbefe515c	-0.49671447
47	0x3f5432a7	0.8288979
48	0xbb502487	-0.0031760053
49	0xbd5831b6	-0.052781783
50	0x3cf997c8	0.030467883
51	0xbf957998	-1.1677732
52	0xbfa8295d	-1.3137623
53	0xbf2729a1	-0.65297896
54	0x3f7207b9	0.94543034
55	0xbf83d173	-1.0298294
56	0xbe439162	-0.19098428
57	0xbe5c950b	-0.2154123
58	0xbf8a9001	-1.0825197
59	0xbc77da19	-0.015127682
60	0x3f087001	0.53295904
61	0xbf45d46b	-0.7727725
62	0xbd663ce5	-0.056210417
63	0x3d5c6272	0.053804822
64	0xbf8b1816	-1.0866725
65	0xbf84ca32	-1.0374205
66	0x3fed6e37	1.854926
67	0xbf1e117d	-0.61745435
68	0xbf4f083f	-0.8087196
69	0xbf1ccd79	-0.61251026
70	0xbf82fa8f	-1.0232714
71	0x3d88f70e	0.06687747
72	0x3fe15664	1.7604489
73	0xbf626d90	-0.8844843
74	0x3c61490b	0.013750325
75	0xbf8cb8ac	-1.0993857
76	0xbf17c18f	-0.5927972
77	0xbf919ca4	-1.1375928
78	0x3ebd5226	0.36976737
79	0xbc2b9dbb	-0.010474618
80	0xbf8139dc	-1.0095782
81	0x3e9637d9	0.29339483
82	0x3fbc6d7e	1.4720914
83	0xbf4beb3d	-0.7965582
84	0xbcd13be8	-0.02554126
85	0x3d62a5ba	0.05533383
86	0x3c1a0d45	0.009402578
87	0xbe62c29d	-0.22144552
88	0x3aae8fa1	0.0013317951
89	0xbd5abdef	-0.05340379
90	0x3d2e4007	0.04254153
91	0x3fc9a8a5	1.5754591
92	0xbfcce833	-1.6008362
93	0xbd7f3dd0	-0.06231481
94	0xc00bd854	-2.1850786
95	0xbe0a59c1	-0.13510801
96	0xbba3c98f	-0.004998393
97	0xbfa8120e	-1.313051
98	0x3d675c2f	0.056484398
99	0x3f040578	0.51570845
100	0xc0018f41	-2.0243685
101	0xbebd480e	-0.36969036
102	0x3c85008d	0.016235614
103	0xbf90a5ef	-1.1300639
104	0x3d361595	0.044454176
105	0xbe58a45d	-0.2115645
106	0xbf0ca6fb	-0.5494229
107	0xbd5ec526	-0.054387234
108	0x3d2a7f31	0.041625205
109	0xbface173	-1.3506302
110	0xbf54a276	-0.83060396
111	0x3ef2b40c	0.4740299
112	0xbfa38e33	-1.2777771
113	0xbf29dd72	-0.66353524
114	0x3e0adcef	0.13560842
115	0x3fe6b104	1.8022771
116	0x3f38f5c9	0.7225004
117	0xbb3357c8	-0.0027365554
118	0xbe09e962	-0.13467935
119	0x3d53a8e8	0.051674753
120	0xbf12edef	-0.5739431
121	0xbf4ea8f1	-0.80726534
122	0xbd3384e7	-0.043827917
123	0x3d6f1ea1	0.05837882
124	0xbf0f497f	-0.5597152
125	0xbd8f604b	-0.07000788
126	0x3f8c6df5	1.0971056
127	0xbef3f1a9	-0.4764531
128	0xbfebade2	-1.841244
129	0xbc21a25f	-0.009865372
130	0xbcf3817c	-0.029724829
131	0x3b393399	0.0028259514
132	0xbfade1aa	-1.3584492
133	0xbfdb848e	-1.7149827
134	0x3d564e3e	0.05232071
135	0xbf910779	-1.1330405
136	0xbf8a2abd	-1.0794293
137	0x3b1eadd8	0.0024212506
138	0xbcf5e27d	-0.030015225
139	0xbd0d86a3	-0.034552228
140	0x3d9731ba	0.073825315
141	0xbed4e915	-0.41584077
142	0xbfdd7f7c	-1.730453
143	0xbc84bf9b	-0.016204646
144	0x3b71ee85	0.003691585
145	0xbf2b62b1	-0.66947466
146	0xbf5d5730	-0.8646116
147	0xbf9717d7	-1.180415
148	0x3d6676d9	0.056265686
149	0x3d7ba0f1	0.061432783
150	0xbec05c44	-0.37570393
151	0x3be61d49	0.007022534
152	0x406c8801	3.695801
153	0x3f57c7a6	0.84289014
154	0x3ca4fbb9	0.020139562
155	0x3fc06da3	1.5033458
156	0x4017f8c8	2.3745594
157	0xbd591ca0	-0.053005815
158	0xbf46cc2b	-0.77655286
159	0xbf8f644f	-1.1202487
160	0xbf9dd05b	-1.232921
161	0xbfa9e0e3	-1.3271755
162	0xbfe84e6b	-1.8148931
163	0x3cab7459	0.020929502
164	0xbf4f21d8	-0.80911016
165	0xbf179300	-0.5920868
166	0xbf4ecde0	-0.8078289
167	0xbd8ddcfe	-0.069269165
168	0xbf827809	-1.0192882
169	0xbfceb7c9	-1.6149837
170	0xbdf397f3	-0.118942164
171	0x403ea7e4	2.9789972
172	0xbf1bef77	-0.6091227
173	0xbf05317a	-0.5202862
174	0x3ee41e8d	0.44554558
175	0x3f6ea2b1	0.93217
176	0xba9de677	-0.0012046833
177	0x3d0b56cf	0.034018334
178	0x3cd0f23c	0.025506131
179	0xbfd51250	-1.6646214
180	0xbf938533	-1.1525024
181	0xbef84551	-0.48490384
182	0xbf15a2a5	-0.584513
183	0xbf6c8341	-0.9238778
184	0x3ee91edf	0.45531365
185	0xbfd044bb	-1.6270975
186	0xbeae4ade	-0.34041494
187	0x3d147989	0.036248717
188	0x3ea7fd79	0.32810572
189	0xbf764847	-0.96204036
190	0xbe311b60	-0.17295599
191	0x3d0e352f	0.03471869
192	0xbf936aea	-1.1517003
193	0xbf3dcd15	-0.74141055
194	0x3feb68b7	1.8391331
195	0xbf37c3bd	-0.7178305
196	0xbf218ec9	-0.631085
197	0xbf74f9d0	-0.95693684
198	0xbf32973f	-0.69762033
199	0xbdb0384d	-0.086044885
200	0x400a06c2	2.1566625
201	0xbf79cfd7	-0.97582763
202	0xbd40bc32	-0.047054477
203	0xbf8e572e	-1.1120355
204	0xbf1e12d4	-0.6174748
205	0x3ef081ab	0.4697393
206	0xbeae0093	-0.33984813
207	0x3c787f10	0.015167013
208	0xbf8c3b3f	-1.095558
209	0x3efebf3c	0.49755275
210	0x3fcc7779	1.597396
211	0xbf5460b0	-0.82960033
212	0x3d914b89	0.07094485
213	0x3d0da5a1	0.034581784
214	0xbcb4e9a7	-0.02208407
215	0xbf5e1064	-0.8674376
216	0x3d80261e	0.0625727
217	0xbd98c9a3	-0.07460334
218	0x3cb20cd7	0.021734638
219	0x3fc1a074	1.5127091
220	0xbfddc3c3	-1.7325367
221	0xbcf51ae3	-0.029920047
222	0xbf76c65a	-0.9639641
223	0xbf680dd0	-0.90646076
224	0x3d976bb0	0.07393587
225	0xbfab6c3f	-1.3392409
226	0x3be91026	0.0071125207
227	0x3eb4ba96	0.35298604
228	0xbfaba803	-1.3410648
229	0xbf0c956b	-0.54915494
230	0xbc57ea53	-0.013178426
231	0xbf621051	-0.88306147
232	0x3d2b7982	0.041863926
233	0xbf2a2802	-0.664673
234	0xbf0bdd08	-0.5463414
235	0xbb0e7c2a	-0.0021741488
236	0xbb96226c	-0.00458174
237	0xbf4953b8	-0.7864337
238	0xbeb7d532	-0.35904843
239	0xbfaa2d09	-1.3294994
240	0xbf9023fc	-1.1260982
241	0xbf24e646	-0.6441387
242	0xbd21bfc7	-0.039489534
243	0x3fe426a2	1.782429
244	0x3f4a2b8d	0.78972703
245	0xbcb8509a	-0.022499371
246	0xbd2a7b29	-0.04162136
247	0x3c061c45	0.008185451
248	0xbf33741a	-0.7009903
249	0xbf92966b	-1.1452154
250	0x3d860e77	0.06545728
251	0xbd455ddf	-0.048185226
252	0xbf176aa2	-0.59147084
253	0xbbc4ed36	-0.006009723
254	0x401507f0	2.3286095
255	0xbf711a30	-0.94180584

net.4.bias f4 [4]
0	0x3d73ea8c	0.059549853
1	0xbe234b85	-0.15946777
2	0x3f3da701	0.7408295
3	0x3f0cb89a	0.5496918
